exps/chpts/LSTM_layers2_stride5_max_lr0.0001/best_model.pth (torch, 834003 bytes, 10 tensors)

rnn.weight_ih_l0 f4 [512, 17]
0.012689044 -0.08737142 0.076043986 0.04009217 0.057996567 0.04687049 -0.07736243 -0.062513925
-0.036804926 0.0048593376 -0.062080417 0.05858735 -0.025294006 0.04881675 -0.0041247495 -0.05060737
-0.08281488 0.08537156 0.02445885 -0.008905578 -0.007822282 0.07905772 0.021036413 -0.02532996
0.08011337 -0.020498889 0.0009978436 0.04602823 -0.030433478 -0.07923136 0.046489723 -0.019041296
0.041339092 -0.017229283 0.054176103 0.04979908 0.020946216 -0.0880756 -0.024244606 0.05758424
0.06181995 0.02192025 -0.0553251 -0.037626036 0.05783724 0.029119814 0.013084576 0.0024456154
-0.040117774 0.04991706 0.07804092 0.040252738 -0.0010760131 -0.069364704 -0.05497524 0.063372046
0.017186783 0.074985705 -0.009603012 0.02165311 -0.050881043 0.016747255 -0.028893163 0.063241616
-0.067026995 0.08055881 0.08144852 -0.03413821 -0.042762063 -0.058121692 -0.07316314 0.060966197
-0.0137209045 -0.023216687 0.052006014 0.023820719 0.043427307 0.0447317 0.018490432 0.013158459
-0.086180046 0.017720753 0.086341135 0.047075454 0.0006833905 0.05374207 -0.050313503 -0.052930206
0.06659027 -0.08703249 0.033433687 -0.066695504 0.035816208 -0.04509338 -0.050185982 -0.039992962
-0.047842886 0.043138072 0.014792363 0.0878239 0.0706394 -0.08018402 -0.021342972 0.0526999
0.072394535 0.016644143 -0.014247195 0.07814113 0.06932267 0.032767758 -0.06289928 -0.04708245
-0.058549333 -0.01027686 0.016400076 0.041368842 0.04655224 -0.086563975 -0.083366275 -0.012476378
0.08171347 -0.06574292 0.08740745 -0.057115745 -0.010784834 -0.0872552 0.051853865 -0.05390427
0.054110978 -0.023537349 -0.05798104 -0.0394097 -0.045693293 -0.08688978 0.05991063 0.08179007
0.056235716 -0.06619722 0.05999594 -0.010463885 -0.023072617 -0.023927016 -0.03246828 -0.0060530254
-0.07626415 -0.019086463 -0.03697699 -0.076773666 -0.001977168 0.023020677 0.051660966 -0.063968964
0.07041946 -0.06371182 0.0010952085 0.06532002 -0.04089768 -0.08024012 0.0870213 0.087720826
0.0005328482 0.026588567 -0.06278275 0.027951006 0.0746695 0.07378986 -0.06776461 -0.03564188
-0.08726465 0.038938627 0.031025799 -0.054515675 0.03645448 -0.036885735 -0.06537848 0.06533034
-0.059755858 -0.06652287 -0.03705431 0.041853704 -0.024114007 -0.07519538 0.04152994 0.01805868
0.009366149 4.3060805e-05 0.028716564 0.0388837 -0.013772156 0.021613184 0.005204887 0.068517916
0.07800867 -0.008247255 -0.073923476 -0.08849679 0.053644713 -0.029560115 0.081763715 -0.08753897
0.027716653 -0.07647947 0.0066552586 0.0017319132 -0.059316523 -0.04325614 0.057677507 0.013803446
-0.068168715 0.05173371 0.08625084 -0.0018480154 0.047114003 0.08867618 -0.05987799 -0.014254254
0.0547627 0.0862462 0.031965133 -0.07627212 0.013372446 0.042714577 0.08560721 -0.0010800419
-0.026422393 0.08008586 -0.020998908 0.035301946 0.004062155 0.050330512 0.011426246 -0.037768826
0.0020545323 -0.04869624 0.027456634 0.08344513 0.043665655 -0.04526981 -0.07110735 -0.06446115
0.004339262 0.08385961 0.05446246 -0.036624454 -0.016071439 -0.07594468 0.027422251 -0.0073959306
-0.025470134 -0.06857727 0.055774663 0.00974995 0.0041065896 -0.037996247 -0.026445093 -0.065746315
00000000: b5e5 4f3c c9ef b2bd f3bc 9b3d b037 243d
00000010: cf8d 6d3d 45fb 3f3d 3270 9ebd 4d07 80bd
00000020: c3c0 16bd 143b 9f3b 0948 7ebd 4af9 6f3d
00000030: 6035 cfbc 13f4 473d e828 87bb ac49 4fbd
00000040: d99a a9bd 49d7 ae3d ed5d c83c b4e8 11bc
00000050: 0729 00bc 04e9 a13d 8e54 ac3c c780 cfbc
00000060: 7b12 a43d 49ed a7bc 13ca 823a 1988 3c3d
00000070: a14f f9bc 0d44 a2bd 026c 3e3d 7efc 9bbc
00000080: 2e53 293d 6d24 8dbc c3e7 5d3d 1ffa 4b3d
00000090: 6697 ab3c fb60 b4bd a09c c6bc 74dd 6b3d
000000a0: ea36 7d3d 1992 b33c 929c 62bd c21d 1abd
000000b0: bee6 6c3d ad8c ee3c b160 563c 9e46 203b
000000c0: 8952 24bd d575 4c3d ebd3 9f3d 0ee0 243d
000000d0: 0209 8dba 150f 8ebd b82d 61bd 34c9 813d
000000e0: 4ccb 8c3c 1b92 993d f455 1dbc dd61 b13c
000000f0: a468 50bd 8a31 893c 5bb1 ecbc d284 813d
00000100: 7345 89bd 04fc a43d 7bce a63d 82d4 0bbd
00000110: 4627 2fbd 0311 6ebd 8ed6 95bd b1b7 793d
00000120: a5cd 60bc ec30 bebc 4204 553d ab23 c33c
00000130: d5e0 313d 9638 373d 3f79 973c 9496 573c
00000140: 2a7f b0bd 1d2b 913c 9fd3 b03d 31d2 403d
00000150: 8f25 333a a520 5c3d 8815 4ebd 58cd 58bd
00000160: 7b60 883d 173e b2bd c3f1 083d a797 88bd
00000170: 04b4 123d d6b3 38bd d18f 4dbd a9cf 23bd
00000180: e7f6 43bd 8cb1 303d ab5b 723c 04dd b33d
00000190: 64ab 903d 8537 a4bd 75d7 aebc dadb 573d
000001a0: 9643 943d 4c59 883c 116d 69bc 7508 a03d
000001b0: 0bf9 8d3d 7c37 063d 56d1 80bd 87d9 40bd
000001c0: 6dd1 6fbd 4660 28bc 7459 863c 6072 293d
000001d0: 90ad 3e3d 7448 b1bd f0bb aabd b969 4cbc
000001e0: 6459 a73d 39a4 86bd ad02 b33d 33f2 69bd
000001f0: dfb2 30bc dbb2 b2bd b864 543d b9ca 5cbd
00000200: 79a3 5d3d 66d1 c0bc 877d 6dbd 116c 21bd
00000210: e428 3bbd 45f3 b1bd d964 753d 8d81 a73d
00000220: 6c57 663d 6892 87bd 4ebe 753d b770 2bbc
00000230: c902 bdbc 9702 c4bc 76fd 04bd 7558 c6bb
00000240: 6130 9cbd 375b 9cbc 2f75 17bd 833b 9dbd
00000250: 6093 01bb dc95 bc3c 739a 533d 2902 83bd
00000260: 1438 903d 587b 82bd 198d 8f3a 81c6 853d
00000270: 5384 27bd ef54 a4bd 3938 b23d faa6 b33d
00000280: d6ae 0b3a 44d0 d93c 3e94 80bd 82f9 e43c
00000290: 53ec 983d 231f 973d 2cc8 8abd 38fd 11bd
000002a0: cfb7 b2bd 1c7e 1f3d d129 fe3c d44b 5fbd
000002b0: 4b51 153d 7f15 17bd 27e5 85bd eacb 853d
000002c0: 8fc2 74bd 243d 88bd 43c6 17bd ca6e 2b3d
000002d0: bd8a c5bc 0900 9abd 4c1b 2a3d ccef 933c
000002e0: 7a74 193c 309c 3438 003f eb3c 8444 1f3d
000002f0: 9ca4 61bc 220e b13c c28d aa3b 1f53 8c3d
00000300: 02c3 9f3d 7f1f 07bc 3165 97bd ce3d b5bd
00000310: 8fba 5b3d 0e28 f2bc bc73 a73d a247 b3bd
00000320: 090e e33c 45a1 9cbd 5b14 da3b 5d01 e33a
00000330: e2f5 72bd 5a2d 31bd 403f 6c3d d927 623c
00000340: 0a9c 8bbd bae6 533d 48a4 b03d 1b39 f2ba
00000350: 9dfa 403d db9b b53d a042 75bd ad8a 69bc
00000360: da4e 603d d9a1 b03d dfed 023d 8f34 9cbd
00000370: 1b18 5b3c 7bf5 2e3d d552 af3d 3190 8dba
00000380: c673 d8bc 0e04 a43d e705 acbc c698 103d
00000390: d31b 853b 5e27 4e3d 2635 3b3c 7cb3 1abd
000003a0: 55a5 063b b575 47bd bcec e03c 48e5 aa3d
000003b0: c2da 323d d66c 39bd bba0 91bd 3504 84bd
000003c0: 5e30 8e3b 96be ab3d 0714 5f3d 8603 16bd
000003d0: 40a8 83bc e288 9bbd a1a4 e03c 9059 f2bb
000003e0: bea6 d0bc 3d72 8cbd f973 643d 41be 1f3c
000003f0: 9290 863b f4a1 1bbd 61a3 d8bc 01a6 86bd

rnn.weight_hh_l0 f4 [512, 128]
-0.07083682 0.07700581 0.06226589 -0.043645732 -0.04884531 0.08721314 0.055735596 0.03774095
-0.046577863 -0.048365988 -0.04441421 0.05187227 0.009007384 0.077471934 -0.018760199 0.03286825
0.003058718 0.0046557942 0.008152058 -0.009464183 -0.03808237 -0.053608906 0.085778765 -0.056343943
-0.06667481 -0.081278525 -0.07321193 0.068986244 -0.06001426 -0.035084654 0.08001546 0.041622292
0.0015115793 -0.0031053678 0.016200893 0.004686836 -0.06962536 -0.036248367 -0.028239937 -0.08138622
0.080341585 -0.037388243 -0.012837368 -0.08565138 0.056238204 -0.04771873 0.03611424 -0.034944348
-0.08721998 0.0312358 0.062835336 -0.013764249 -0.03925543 -0.05774062 -0.060901865 -0.016787952
0.004389836 0.070491225 0.016200824 -0.069731936 0.01613912 -0.048107754 0.080557354 -0.04086201
-0.061907876 0.061674714 0.06384072 -0.05520956 0.069396906 -0.032988574 -0.08482176 -0.053893734
-0.0052774553 -0.03960823 0.03700571 -0.0040034447 -0.0057608113 -0.0454027 -0.04500875 0.017009443
-0.065930665 -0.012143026 0.0071866154 -0.067629136 0.073604405 -0.046812516 0.008589684 -0.08522655
-0.059697296 0.023257034 0.00580037 -0.009253171 0.043561183 0.04239189 -0.035315882 -0.013013402
0.06776738 -0.05194998 0.005985049 -0.06321323 0.07184337 -0.020190354 -0.03403271 0.069145955
-0.037577175 0.080358215 0.04129023 0.022230709 -0.026756674 -0.056424122 0.080272466 0.0078010983
-0.057157617 0.04308422 0.07558307 0.03477266 0.048297614 0.007675636 -0.008734867 0.066701196
-0.01941078 -0.087694906 -0.05958766 -0.032316085 0.08309639 -0.015859278 -0.057585567 0.058623042
-0.008620983 -0.027415032 0.012867667 -0.062397312 -0.022344386 0.029462539 0.018556846 -0.05914201
-0.018089296 -0.07610065 0.019130062 -0.06797052 0.08071448 0.031217476 0.0192814 -0.053844795
0.0711135 -0.07834478 -0.07211319 -0.0067217 0.054586224 0.074961826 0.0701789 0.020431206
0.08309781 0.029771443 -0.014989201 -0.042672995 -0.046482075 0.010264764 0.021115962 -0.06987919
-0.063048035 0.019761598 -0.054619152 -0.03576996 0.049242888 -0.06450008 0.057778813 0.043816697
-0.04191688 0.047538146 0.016303912 -0.06186359 -0.023071531 -0.079704344 0.03565742 -0.059191763
-0.07538849 -0.08290125 -0.052237462 0.052966002 0.054269698 0.07616321 -0.038669225 0.034584295
-0.016955338 -0.04188291 -0.0011041011 -0.026179569 0.072522625 -0.013411932 0.06408686 -0.01692753
-0.086737014 0.059274983 0.0714082 -0.019939587 0.02392125 0.014013122 -0.011618245 0.029851455
0.058507327 -0.06820873 -0.060474508 -0.054948084 -0.05739167 -0.0876961 0.05198083 0.025366914
-0.06778552 0.0675979 -0.07875343 0.008314619 0.05354954 0.041087728 -0.027840467 -0.012900372
0.055708572 0.034676097 0.04653928 -0.0726898 0.041265264 -0.037010923 0.06628967 -0.081157975
0.06605018 -0.0056990795 -0.08391461 -0.0021776138 0.061625287 0.007370085 0.0057025673 0.030783452
-0.032551624 -0.0520852 0.07214532 0.040665623 0.038886014 0.049825516 0.07186757 0.0015818514
0.057647526 -0.049645647 0.005228372 0.015607561 0.038654946 -0.017171295 -0.04015932 -0.0043723723
-0.083352886 -0.014133129 0.0010444579 -0.027699322 -0.045224007 -0.004346764 0.041636612 0.015548552
00000000: e512 91bd 39b5 9d3d 850a 7f3d dec5 32bd
00000010: 0512 48bd ce9c b23d 024b 643d 4196 1a3d
00000020: 6ec8 3ebd 6a1b 46bd adeb 35bd 0478 543d
00000030: b593 133c 9ba9 9e3d fdae 99bc dca0 063d
00000040: c674 483b a28f 983b 3690 053c a90f 1bbc
00000050: 42fc 1bbd 0395 5bbd c7ac af3d e8c8 66bd
00000060: ce8c 88bd 5b75 a6bd 23f0 95bd a948 8d3d
00000070: 83d1 75bd edb4 0fbd 25df a33d 237c 2a3d
00000080: 2f20 c63a 6d83 4bbb bcb7 843c 0894 993b
00000090: be97 8ebd 2b79 14bd 7157 e7bc d2ad a6bd
000000a0: 218a a43d 6a24 19bd d353 52bc fe69 afbd
000000b0: 085a 663d b774 43bd 86ec 133d ce21 0fbd
000000c0: 64a0 b2bd 38e2 ff3c d0af 803d 7283 61bc
000000d0: 4dca 20bd 6e81 6cbd 3c74 79bd e386 89bc
000000e0: 9dd8 8f3b b45d 903d 97b7 843c 9ecf 8ebd
000000f0: 3036 843c a30c 45bd 41fb a43d ec5e 27bd
00000100: 1d93 7dbd a09e 7c3d ecbe 823d 6b23 62bd
00000110: f71f 8e3d 071f 07bd 08b7 adbd adbf 5cbd
00000120: 81ee acbb 3d3c 22bd 4d93 173d 542f 83bb
00000130: 30c5 bcbb 2ef8 39bd 185b 38bd 6357 8b3c
00000140: a806 87bd 8bf3 46bc b37d eb3b 2581 8abd
00000150: e8bd 963d 7bbe 3fbd bfbb 0c3c 428b aebd
00000160: 2785 74bd 8985 be3c 0811 be3b 9d9a 17bc
00000170: 366d 323d 1ea3 2d3d 63a7 10bd 2a36 55bc
00000180: a0c9 8a3d 81c9 54bd 3b1e c43b f075 81bd
00000190: 9e22 933d 3e66 a5bc e265 0bbd 659c 8d3d
000001a0: 86ea 19bd d992 a43d f21f 293d 2d1d b63c
000001b0: d030 dbbc fb1c 67bd e465 a43d 5ba0 ff3b
000001c0: 1b1e 6abd 1479 303d 4ccb 9a3d c76d 0e3d
000001d0: b8d3 453d e783 fb3b b01c 0fbc a39a 883d
000001e0: 5b03 9fbc 6399 b3bd 3112 74bd df5d 04bd
000001f0: 712e aa3d 51eb 81bc d8de 6bbd b71e 703d
00000200: 063f 0dbc 7d95 e0bc e8d2 523c 5394 7fbd
00000210: 930b b7bc 6c5b f13c 8704 983c e43e 72bd
00000220: 0130 94bc a8da 9bbd a6b6 9c3c 2134 8bbd
00000230: a24d a53d cbbb ff3c 07f4 9d3c 5c8c 5cbd
00000240: f4a3 913d 3a73 a0bd 15b0 93bd b541 dcbb
00000250: ce95 5f3d 9685 993d f5b9 8f3d 585f a73c
00000260: 2f2f aa3d 3ee3 f33c 4495 75bc e1c9 2ebd
00000270: fd63 3ebd 8a2d 283c 62fb ac3c d21c 8fbd
00000280: 541f 81bd 13e3 a13c 55b8 5fbd 8683 12bd
00000290: e9b2 493d 9e18 84bd 7aa9 6c3d 2379 333d
000002a0: 09b1 2bbd 5cb7 423d c88f 853c ad64 7dbd
000002b0: 8200 bdbc 083c a3bd 840d 123d 1073 72bd
000002c0: 4865 9abd 21c8 a9bd f3f6 55bd e1f2 583d
000002d0: e749 5e3d 75fb 9b3d 9f63 1ebd 43a8 0d3d
000002e0: ece5 8abc 6a8d 2bbd 7cb7 90ba 8976 d6bc
000002f0: be86 943d b8bd 5bbc f93f 833d 9aab 8abc
00000300: 2da3 b1bd 53ca 723d 763e 923d 5858 a3bc
00000310: 7ff6 c33c 4b97 653c 745a 3ebc 0a8b f43c
00000320: 61a5 6f3d 05b1 8bbd 1eb4 77bd 3e11 61bd
00000330: 8713 6bbd 039a b3bd dae9 543d 46ce cf3c
00000340: 22d3 8abd c570 8a3d 7a49 a1bd 0a3a 083c
00000350: c356 5b3d 9b4b 283d b111 e4bc 155c 53bc
00000360: ac2e 643d 8608 0e3d f99f 3e3d 64de 94bd
00000370: c405 293d c498 17bd e1c2 873d 2736 a6bd
00000380: 5145 873d 58bf babb 6cdb abbd 4cb6 0ebb
00000390: cc6a 7c3d c180 f13b 9adc ba3b 942d fc3c
000003a0: da54 05bd 4a57 55bd edc0 933d ff90 263d
000003b0: f146 1f3d d715 4c3d 4e2f 933d 2056 cf3a
000003c0: d01f 6c3d 3c59 4bbd c352 ab3b dbb6 7f3c
000003d0: a654 1e3d d1aa 8cbc 197e 24bd 1e46 8fbb
000003e0: ebb4 aabd a48e 67bc 31e6 883a b0e9 e2bc
000003f0: cf3c 39bd 4d6f 8ebb 278b 2a3d 5bbf 7e3c

rnn.bias_ih_l0 f4 [512]
0.06690019 -0.03541473 0.041971713 0.046752438 -0.019529188 -0.082795985 -0.063023366 0.066233434
0.048968345 -0.06483084 -0.023056252 0.073721305 -0.04043209 -0.070877925 -0.035982374 -0.08146119
0.00046503323 -0.027637782 0.022964748 -0.016013684 0.027659208 0.0064264415 -0.07303399 0.01601732
0.07111665 -0.0194304 -0.016272632 0.04247602 0.027451722 0.06862947 0.01636497 0.058926743
-0.05186125 0.03437568 0.07995883 0.06656735 0.06363993 0.08046293 -0.02666445 0.022981416
-0.047184158 0.008030135 -0.015251993 -0.046072967 0.005135505 0.021614267 0.032151803 0.0042607132
0.07209494 0.005942688 -0.005817768 0.03536997 -0.025040532 -0.08725683 0.016194949 -0.009271363
0.004342513 0.040478256 0.083024636 -0.006554358 -0.07014644 -0.08607082 -0.08654684 -0.06784683
0.048242096 0.020608434 -0.044735383 0.0013066457 0.08058414 0.07561489 -0.03200717 0.027457105
-0.07960122 -0.088525005 -0.008288359 0.00028879836 0.050108586 -0.045336522 -0.03087042 0.002753859
-0.044656545 0.01312064 0.048644707 0.05874059 -0.058608226 -0.0063084424 -0.070965424 -0.05855664
0.0651009 -0.061022762 0.029159278 0.039127108 0.048104174 0.028313966 -0.086279295 -0.054179374
0.057947367 0.078957245 -0.05178788 0.0499466 0.022841848 0.013142651 0.08432101 -0.027891336
0.05924994 -0.07841538 -0.028935824 -0.05933249 0.07642155 -0.08602956 0.07511325 0.07511748
0.065197416 -0.057701923 -0.035920575 0.045191117 -0.07300974 -0.021715185 -0.054880235 0.03323235
-0.04782996 0.008985603 -0.024336118 0.02049196 -0.059506692 -0.06155325 -0.016911978 0.024533562
-0.008120619 -0.007841006 0.0012646504 0.028716777 -0.005186437 -0.0075640306 -0.07519683 0.021580255
0.052983876 0.023395127 -0.0649847 -0.05894378 -0.034556836 0.03627023 0.068512276 -0.061443835
0.01967542 0.025343314 0.08727298 0.05308895 0.043802436 -0.03689436 0.03925603 -0.01260261
0.011173227 -0.044564147 -0.046560705 0.08366071 0.024538988 -0.045673452 0.087943405 0.037247203
0.014405461 -0.053672124 -0.010616042 -0.008473652 0.033675145 0.06913137 0.08410299 -0.056380335
-0.029399905 -0.07259588 0.0014336284 -0.02398848 0.039133415 0.020770503 -0.026877506 -0.0075294995
-0.07719131 -0.00858794 0.03665626 -0.046826188 0.025132949 -0.078338355 0.047969017 0.034167178
-0.037645835 0.047972813 -0.08073822 0.06801953 0.037895083 0.06283852 0.008785072 -0.037264112
-0.07888987 0.00096677657 -0.0040702787 0.02930185 -0.06903094 0.07332104 -0.05354561 0.044054393
0.0028560287 0.07240406 0.037997752 0.012842719 -0.07843976 0.078137234 0.0612695 0.032135855
0.02897095 -0.022536322 0.076958515 -0.06430452 -0.060145058 0.028663311 -0.07094989 -0.032636434
-0.07600934 0.070558816 -0.057787944 0.024723187 -0.030972844 0.0526728 -0.021456536 0.04309398
0.07851086 0.073634274 0.05798713 0.082488015 0.062294845 0.07613176 0.027269006 -0.02872591
0.028089734 0.011609282 -0.00077481626 -0.07834576 0.0009697502 -0.021243583 -0.06830304 -0.0398739
-0.0848649 -0.08158775 -0.051519193 0.03541192 0.00022816707 -0.08235763 -0.086195126 0.08681036
-0.006047427 -0.0056328494 -0.0623737 -0.015485747 -0.082134865 -0.002742295 0.034982223 0.0307246
00000000: f802 893d 090f 11bd 88ea 2b3d 7c7f 3f3d
00000010: adfb 9fbc f190 a9bd 6512 81bd 65a5 873d
00000020: 0893 483d 08c6 84bd 77e0 bcbc 32fb 963d
00000030: 1f9c 25bd 7228 91bd 4162 13bd 20d5 a6bd
00000040: b4cf f339 a168 e2bc 9120 bc3c 212f 83bc
00000050: 9095 e23c e694 d23b d892 95bd c136 833c
00000060: 9ba5 913d 812c 9fbc 2f4e 85bc 56fb 2d3d
00000070: 6fe2 e03c 9c8d 8c3d d40f 863c 2b5d 713d
00000080: 766c 54bd 83cd 0c3d 74c1 a33d 7654 883d
00000090: a755 823d c0c9 a43d 686f dabc 8643 bc3c
000000a0: 2d44 41bd d490 033c 7fe3 79bc 02b7 3cbd
000000b0: bd47 a83b 6710 b13c 9cb1 033d 749d 8b3b
000000c0: 83a6 933d e1ba c23b faa2 bebb 1ae0 103d
000000d0: cd21 cdbc b5b3 b2bd 45ab 843c eae6 17bc
000000e0: a44b 8e3b 87cc 253d d208 aa3d f1c5 d6bb
000000f0: f0a8 8fbd e645 b0bd 783f b1bd 47f3 8abd
00000100: 8199 453d 05d3 a83c 733c 37bd c143 ab3a
00000110: 4c09 a53d fbdb 9a3d f319 03bd b9ed e03c
00000120: f705 a3bd 994c b5bd e6cb 07bc dc69 9739
00000130: a93e 4d3d cab2 39bd f7e3 fcbc 167a 343b
00000140: c8e9 36bd f4f7 563c ac3f 473d f999 703d
00000150: 2e0f 70bd 0db7 cebb 5256 91bd 16d9 6fbd
00000160: 9f53 853d 01f3 79bd 70df ee3c bf43 203d
00000170: e208 453d b1f2 e73c 33b3 b0bd 31eb 5dbd
00000180: 385a 6d3d 56b4 a13d 871f 54bd ce94 4c3d
00000190: d41e bb3c 4654 573c 7eb0 ac3d 5f7c e4bc
000001a0: 11b0 723d 3e98 a0bd d20a edbc a006 73bd
000001b0: e782 9c3d 4430 b0bd fad4 993d 31d7 993d
000001c0: 3986 853d da58 6cbd 7421 13bd 521a 393d
000001d0: 2186 95bd 0be4 b1bc 19ca 60bd a51e 083d
000001e0: 59e9 43bd 5a38 133c 8a5c c7bc c1de a73c
000001f0: 4abd 73bd 431f 7cbd fd8a 8abc 9cfa c83c
00000200: 580c 05bc 9077 00bc a0c2 a53a 723f eb3c
00000210: fdf2 a9bb b0db f7bb cc00 9abd 13c9 b03c
00000220: 9f05 593d 23a7 bf3c b316 85bd 086f 71bd
00000230: 788b 0dbd 1890 143d 2a50 8c3d 88ac 7bbd
00000240: 592e a13c c89c cf3c 2dbc b23d cd73 593d
00000250: 2f6a 333d 8a1e 17bd eeca 203d 2d7b 4ebc
00000260: e90f 373c e588 36bd 70b6 3ebd 4e56 ab3d
00000270: fd05 c93c 1614 3bbd ac1b b43d 8690 183d
00000280: e204 6c3c 4dd7 5bbd e8ee 2dbc 13d5 0abc
00000290: f3ee 093d bf94 8d3d 303e ac3d 11ef 66bd
000002a0: 12d8 f0bc 26ad 94bd 96e8 bb3a 7d83 c4bc
000002b0: 5c4a 203d e726 aa3c 372e dcbc 05ba f6bb
000002c0: 7a16 9ebd 6eb4 0cbc e024 163d d1cc 3fbd
000002d0: 9de3 cd3c dc6f a0bd 297b 443d e2f2 0b3d
000002e0: 8532 1abd 247f 443d 145a a5bd d34d 8b3d
000002f0: e037 1b3d 7bb1 803d 43ef 0f3c 41a2 18bd
00000300: 0391 a1bd 476f 7d3a f95f 85bb 6f0a f03c
00000310: 1860 8dbd 5729 963d a452 5bbd 6172 343d
00000320: 362c 3b3b 9448 943d 88a3 1b3d 456a 523c
00000330: 06a5 a0bd 6a06 a03d baf5 7a3d e3a0 033d
00000340: 7c54 ed3c 189e b8bc 6d9c 9d3d 17b2 83bd
00000350: aa5a 76bd 52cf ea3c 2d4e 91bd c8ad 05bd
00000360: c9aa 9bbd 2481 903d 0db3 6cbd 4888 ca3c
00000370: c3ba fdbc 6fbf 573d 9ec5 afbc 5083 303d
00000380: 4dca a03d 91cd 963d ea83 6d3d 7aef a83d
00000390: e128 7f3d f8ea 9b3d 4063 df3c 9952 ebbc
000003a0: 711c e63c dc34 3e3c 0a1d 4bba be73 a0bd
000003b0: d636 7e3a 0607 aebc 77e2 8bbd d152 23bd
000003c0: a6cd adbd 7a17 a7bd ca05 53bd 170c 113d
000003d0: 2240 6f39 1eab a8bd 1287 b0bd a1c9 b13d
000003e0: 7f29 c6bb c493 b8bb 917b 7fbd eeb7 7dbc
000003f0: 5336 a8bd 13b8 33bb 8549 0f3d 28b2 fb3c

rnn.bias_hh_l0 f4 [512]
0.06553766 0.08094439 0.05482042 -0.032320987 0.0787296 -0.087884225 -0.07984546 -0.04520005
0.007001542 0.066557676 0.069544196 -0.07210647 -0.06162695 0.057013445 -0.03548183 -0.018689359
-0.080670364 -0.043356184 -0.077260904 0.008689335 -0.04807201 -0.08073744 -0.002692957 -0.08580896
0.04827363 -0.054660995 0.08746195 0.03093597 0.047239196 0.05490347 0.06346339 0.07733186
-0.070409134 -0.0055552637 0.047146913 -0.060087286 0.015253074 0.07783951 -0.074079275 0.038445793
0.013691194 0.042070813 -0.08059447 -0.060151048 0.001974059 -0.06781296 0.025234474 0.07077146
0.03946993 0.0261015 -0.0494672 -0.067510135 0.018174974 0.05304815 0.058135416 0.059633292
-0.071387716 0.016475875 -0.048490983 0.041322082 0.08825677 0.07177548 -0.013058379 -0.026067926
0.06957673 0.08022097 -0.067199536 0.07912268 -0.01707776 0.056618128 0.041865386 -0.06618413
-0.073163964 0.08514332 -0.0037910033 -0.026627032 0.05447947 0.080875866 0.020919513 0.0072141876
-0.009838549 -0.015763985 -0.0008937852 -0.03872051 0.07658581 0.074111454 0.047267444 -0.07364651
-0.027531113 -0.050940655 -0.065244846 -0.045772646 0.039752297 -0.05655416 0.0754385 0.041737262
0.06614762 -0.00975828 -0.033462714 0.06978979 -0.032283783 0.019721657 -0.004955068 0.051760163
-0.03406339 0.08329851 -0.012320762 0.022512298 0.0024499232 0.030180294 0.06857808 -0.088363916
0.041413076 -0.0379081 0.055339705 0.040780984 -0.008272392 -0.0034712907 -0.044261623 -0.033030026
0.007853524 -0.08742124 -0.06043941 -0.032560352 -0.06681061 -0.074665494 -0.024924131 -0.06817697
-0.041729607 0.010476804 0.060490627 0.043238822 -0.01288714 0.032281328 -0.081489176 0.080176026
-0.001611629 0.0110116415 -0.012664947 0.0323352 -0.015108213 -0.03046469 0.08505477 0.045358837
0.05895542 0.07721347 -0.004908383 0.049028043 0.001989439 0.083431706 0.05815386 0.08652679
0.061705027 -0.053626783 0.012580224 0.001429013 0.018845523 -0.034613617 0.01506814 0.07031174
-0.018006045 0.03270795 0.009970702 -0.031616945 -0.08874338 0.027463615 -0.08252151 -0.054570444
-0.0711761 0.01241732 0.04501977 -0.032392964 -0.0046027177 0.0120127555 0.075336166 0.059034333
-0.014418946 0.0100653265 0.042823642 0.009516145 0.036501266 0.04380104 -0.052544992 0.021064563
-0.06888826 -0.07401396 0.024281243 -0.0073428983 0.05422704 0.0747171 -0.07962985 0.07168635
0.012827757 0.044278186 -0.021193026 -0.05674518 0.017397013 0.03975571 0.037198156 0.013689426
-0.08501009 0.03919323 -0.06120772 0.072475314 0.0043251226 -0.0397604 0.08923259 -0.078007504
-0.0016153222 -0.08378006 -0.07314634 -0.06259281 0.036108136 -0.04817156 -0.08382461 -0.08345065
0.07005041 0.04199081 -0.020677742 -0.080314316 0.015272509 -0.0065246946 0.025221396 0.051231906
-0.04665806 0.015035066 0.0098975105 0.061769906 -0.053053744 0.0023288382 -0.010951222 -0.08919433
0.008544558 -0.033124525 -0.011067793 -0.04850335 -0.028096907 0.06889344 -0.030386023 -0.036271483
0.08647883 -0.06577792 0.06425682 0.028518403 -0.06679113 0.06828837 0.04771458 -0.041811686
0.013562145 0.0014583002 -0.054728925 -0.058727976 -0.04344402 0.03690554 0.035454016 0.026707368
00000000: 9c38 863d 2cc6 a53d 608b 603d 0363 04bd
00000010: fc3c a13d a5fc b3bd 0486 a3bd b023 39bd
00000020: 316d e53b 644f 883d 306d 8e3d 8fac 93bd
00000030: 8a6c 7cbd ee86 693d 6555 11bd 6d1a 99bc
00000040: 8136 a5bd 4196 31bd f73a 9ebd b65d 0e3c
00000050: 28e7 44bd ac59 a5bd 527c 30bb 9cbc afbd
00000060: 92ba 453d 35e4 5fbd 401f b33d 6e6d fd3c
00000070: e37d 413d 76e2 603d 18f9 813d 2b60 9e3d
00000080: aa32 90bd ee08 b6bb 1f1d 413d 161e 76bd
00000090: 07e8 793c 526a 9f3d e0b6 97bd 5679 1d3d
000000a0: 0851 603c 7252 2c3d b70e a5bd f260 76bd
000000b0: 375f 013b 85e1 8abd 87b8 ce3c a1f0 903d
000000c0: 39ab 213d d0d2 d53c 1e9e 4abd c142 8abd
000000d0: afe3 943c 0449 593d 671f 6e3d 0a42 743d
000000e0: b933 92bd 6af8 863c 7b9e 46bd 5841 293d
000000f0: f7bf b43d 06ff 923d d0f2 55bc 678c d5bc
00000100: 3f7e 8e3d e44a a43d e99f 89bd 120b a23d
00000110: a9e6 8bbc 69e8 673d 0a7b 2b3d 8c8b 87bd
00000120: fdd6 95bd 9f5f ae3d 7b72 78bb ef20 dabc
00000130: dd25 5f3d 3fa2 a53d 665f ab3c fe64 ec3b
00000140: de31 21bc 7923 81bc e94c 6aba 6699 1ebd
00000150: 05d9 9c3d bfc7 973d 829b 413d fbd3 96bd
00000160: ee88 e1bc 26a7 50bd 179f 85bd 197c 3bbd
00000170: 4ed3 223d 56a5 67bd 807f 9a3d b1f4 2a3d
00000180: 6778 873d 31e1 1fbc 3310 09bd f3ed 8e3d
00000190: 003c 04bd 508f a13c 205e a2bb 7702 543d
000001a0: 0e86 0bbd 6998 aa3d 05dd 49bc b66b b83c
000001b0: e48e 203b aa3c f73c aa72 8c3d 24f8 b4bd
000001c0: c2a0 293d 8645 1bbd e3ab 623d f609 273d
000001d0: ed88 07bc 987e 63bb ad4b 35bd 7e4a 07bd
000001e0: 11ac 003c e809 b3bd 518f 77bd 015e 05bd
000001f0: 00d4 88bd 39ea 98bd b12d ccbc 5ea0 8bbd
00000200: aaec 2abd e7a6 2b3c 05c5 773d 311b 313d
00000210: 9524 53bc 6d39 043d cce3 a6bd 5433 a43d
00000220: 4c3d d3ba 2c6a 343c a380 4fbc ea71 043d
00000230: 7088 77bc 1691 f9bc 3231 ae3d 30ca 393d
00000240: 3d7b 713d 1922 9e3d 80d6 a0bb a1d1 483d
00000250: 3f61 023b 3ede aa3d be32 6e3d f534 b13d
00000260: 69be 7c3d c2a7 5bbd 491d 4e3c b84d bb3a
00000270: ed61 9a3c 02c7 0dbd 5ce0 763c 9aff 8f3d
00000280: 6a81 93bc c5f8 053d 285c 233c c580 01bd
00000290: 17bf b5bd 60fb e03c 0a01 a9bd 4285 5fbd
000002a0: c6c4 91bd 0472 4b3c a666 383d 7cae 04bd
000002b0: 65d2 96bb 26d1 443c d949 9a3d fccd 713d
000002c0: 713d 6cbc 0ae9 243c d867 2f3d 9be9 1b3c
000002d0: 5a82 153d b868 333d 6b39 57bd 978f ac3c
000002e0: 4a15 8dbd a294 97bd 75e9 c63c b29c f0bb
000002f0: 2c1d 5e3d 4705 993d fa14 a3bd 4bd0 923d
00000300: 832b 523c 0b5d 353d ff9c adbc a26d 68bd
00000310: 2e84 8e3c e2d6 223d 185d 183d 9d49 603c
00000320: c519 aebd 1589 203d f2b4 7abd f06d 943d
00000330: c2b9 8d3b cddb 22bd 93bf b63d 66c2 9fbd
00000340: 38b9 d3ba e194 abbd c0cd 95bd a930 80bd
00000350: 20e6 133d 8b4f 45bd 3dac abbd 2de8 aabd
00000360: 9776 8f3d 8efe 2b3d 5e64 a9bc d57b a4bd
00000370: 8c39 7a3c 1bcd d5bb 1a9d ce3c 8cd8 513d
00000380: 861c 3fbd a355 763c 2b29 223c 7102 7d3d
00000390: e24e 59bd 6c9f 183b c16c 33bc 84ab b6bd
000003a0: 79fe 0b3c 95ad 07bd b055 35bc 73ab 46bd
000003b0: 7c2b e6bc 0118 8d3d 1cec f8bc 6891 14bd
000003c0: d01b b13d 93b6 86bd 1499 833d 6d9f e93c
000003d0: cac9 88bd c6da 8b3d 5d70 433d bb42 2bbd
000003e0: c233 5e3c 6f24 bf3a 702b 60bd bf8c 70bd
000003f0: 5bf2 31bd 432a 173d 3b38 113d 69c9 da3c

rnn.weight_ih_l1 f4 [512, 128]
-0.08396977 -0.047379438 0.074231416 -0.00030795837 0.0352207 -0.022746079 -0.03703179 0.015395419
0.06523854 -0.048579246 0.0002153629 -0.00086349144 0.06105308 0.009102119 0.030908763 0.043003663
0.006487584 -0.04584248 0.015868615 0.07453405 -0.021935562 -0.009565581 0.06562179 -0.009199175
0.02247863 -0.013861085 0.044369187 -0.010083181 0.054347962 0.043740094 0.08286824 0.048486866
0.07948045 -0.040462643 -0.08046623 -0.0328107 -0.08184728 0.024481807 -0.07213485 -0.084872566
-0.0016709208 0.08568966 -0.050368 -0.078267775 0.013905903 -0.048307046 0.07892847 -0.042558752
-0.042001124 0.014360698 -0.015869102 0.0059153805 0.011074718 -0.0035007456 -0.0016115147 0.027079957
0.03277482 0.047861446 0.03699115 0.04252928 0.00078347564 0.044308424 -0.003316435 -0.056924954
0.0068245614 0.043669004 0.044002563 0.04533476 0.009839869 0.03601564 0.032472923 -0.07089512
-0.037371248 0.05583633 0.037856266 0.031131757 0.06559487 -0.02489009 0.082377695 -0.024370069
0.006615462 0.05120087 -0.08204393 0.07954774 -0.017698754 -0.01709441 -0.06368414 0.080769256
-0.057827353 -0.039091825 0.056782164 -0.03784107 0.046752278 0.008893224 0.06519533 0.045827184
0.057043545 0.08742898 -0.05179073 -0.056627337 0.019972607 -0.08396398 -0.013496889 -0.0790036
0.074131005 0.005577345 0.041561056 0.035387635 0.05568115 -0.07717561 0.0541476 -0.0137468
-0.038515504 0.0668525 0.038731158 0.018307248 -0.044782955 -0.030368755 0.030331006 0.041244842
0.087083966 -0.0026129088 0.037436053 -0.028184172 0.065769404 0.013563942 -0.05418884 -0.053059082
0.08383105 -0.00307285 -0.0022947052 -0.038941864 0.05562432 -0.08580958 -0.040107187 -0.05983755
0.025522105 0.057517502 0.01867528 0.003793462 -0.0027788114 -0.016102107 -0.007839355 0.07890908
-0.08336088 -0.027024249 -0.05975093 0.08901392 -0.06513898 0.08427505 0.019030321 -0.045549918
-0.012913728 -0.04812932 -0.050465174 -0.054231007 -0.06676754 -0.051991615 0.00042433396 -0.039996695
-0.04374396 0.06551936 0.005129674 -0.013056085 0.040255558 0.0690638 0.010144581 -0.04763648
0.015503231 -0.013592418 -0.04448063 0.033034332 0.05480261 -0.001455787 0.0100245075 -0.010035636
0.02486553 -0.059935406 -0.05515984 0.030184958 -0.04400206 -0.088447936 -0.029380076 -0.022581883
0.049212504 0.056980137 -0.087895654 -0.0679455 -0.04275758 -0.038380716 -0.0399338 -0.024343468
-0.034166608 -0.05655549 -0.0028783171 -0.08320675 0.08411732 0.08535757 -0.012603569 -0.028746963
-0.04310977 -0.06390773 -0.072692305 0.0033468106 -0.007862273 0.0029983267 0.046954874 -0.057001926
0.0799324 0.004762714 -0.04719223 0.0093496675 -0.00034492993 -0.033931833 0.0060015856 -0.05619488
0.022568662 -0.050127305 -0.010206817 -0.022207655 -0.024369404 -0.079925485 -0.07998706 -0.014449818
0.04141006 -0.025943235 -0.057775855 -0.0008292886 0.0025766613 -0.0045367405 -0.06951442 -0.06710354
0.006672082 -0.050695293 0.015768431 0.085993044 0.023981975 -0.05020266 0.056202516 -0.07636223
-0.019201027 0.04857958 -0.032190982 0.07371556 -0.08557573 -0.025190663 -0.0026634072 0.08236871
-0.025681522 0.06712577 -0.052116 0.07369062 -0.045078963 -0.01755463 -0.07517092 -0.061568193
00000000: 58f8 abbd f110 42bd a406 983d 7975 a1b9
00000010: 9543 103d fc55 babc a5ae 17bd 113d 7c3c
00000020: c99b 853d 08fb 46bd 0ad3 6139 ee5b 62ba
00000030: cb12 7a3d 0e21 153c 6034 fd3c 9c24 303d
00000040: cd95 d43b 53c5 3bbd e6fe 813c 4fa5 983d
00000050: 35b2 b3bc f4b8 1cbc b864 863d 23b8 16bc
00000060: 1b25 b83c 9b19 63bc 77bc 353d ed33 25bc
00000070: f89b 5e3d d028 333d d3b6 a93d 2a9a 463d
00000080: a5c6 a23d 28bc 25bd 7bcb a4bd 8364 06bd
00000090: 8c9f a7bd 128e c83c 70bb 93bd abd1 adbd
000000a0: cc02 dbba 0f7e af3d ad4e 4ebd db4a a0bd
000000b0: 96d5 633c 9cdd 45bd 40a5 a13d 1652 2ebd
000000c0: 5f09 2cbd 2249 6b3c ebff 81bc cfd5 c13b
000000d0: bc72 353c c46c 65bb 7639 d3ba c9d6 dd3c
000000e0: e43e 063d 5d0a 443d 0884 173d 2f33 2e3d
000000f0: 2962 4d3a c07c 353d 8c58 59bb 242a 69bd
00000100: 92a0 df3b 45de 323d 083c 343d f1b0 393d
00000110: 6737 213c 2385 133d 5402 053d 7631 91bd
00000120: 9812 19bd a3b4 643d 2c0f 1b3d 0708 ff3c
00000130: 9a56 863d 4de6 cbbc a3b5 a83d bda3 c7bc
00000140: 84c6 d83b 01b8 513d a606 a8bd ede9 a23d
00000150: fafc 90bc 9309 8cbc d56c 82bd 5a6a a53d
00000160: 60dc 6cbd c01e 20bd 6a94 683d 3dff 1abd
00000170: 517f 3f3d e3b4 113c 2185 853d 49b5 3b3d
00000180: 7ea6 693d f70d b33d 8422 54bd 11f2 67bd
00000190: 989d a33c 4ff5 abbd 0e22 5dbc a4cc a1bd
000001a0: ffd1 973d 29c2 b63b ed3b 2a3d a0f2 103d
000001b0: eb11 643d 3f0e 9ebd e0c9 5d3d 423a 61bc
000001c0: 6fc2 1dbd f7e9 883d 90a4 1e3d 15f9 953c
000001d0: 556e 37bd e5c7 f8bc bb78 f83c 5af0 283d
000001e0: 1459 b23d 563d 2bbb 8c56 193d 7ee2 e6bc
000001f0: 1cb2 863d 4c3b 5e3c 1ef5 5dbd 7b54 59bd
00000200: 9daf ab3d de61 49bb c462 16bb 8181 1fbd
00000210: 54d6 633d efbc afbd 6f47 24bd 3818 75bd
00000220: bc13 d13c 7997 6b3d e7fc 983c bb9b 783b
00000230: b81c 36bb 91e8 83bc a370 00bc 159b a13d
00000240: 1cb9 aabd f561 ddbc 64bd 74bd ee4c b63d
00000250: 9667 85bd 6698 ac3d 7ae5 9b3c 8d92 3abd
00000260: 1a94 53bc 4023 45bd 92b4 4ebd 5521 5ebd
00000270: 6cbd 88bd 29f5 54bd 2479 de39 93d3 23bd
00000280: de2c 33bd 042f 863d d316 a83b 31e9 55bc
00000290: 03e3 243d 5271 8d3d 7535 263c 781e 43bd
000002a0: 4401 7e3c bcb2 5ebc 5231 36bd 024f 073d
000002b0: b478 603d 1bd0 beba d53d 243c 826c 24bc
000002c0: ccb2 cb3c d47e 75bd 49ef 61bd 7246 f73c
000002d0: 813b 34bd 3124 b5bd 7cae f0bc a4fd b8bc
000002e0: 0d93 493d 0164 693d a302 b4bd 0327 8bbd
000002f0: 9222 2fbd 1935 1dbd a091 23bd f46b c7bc
00000300: 49f2 0bbd bba6 67bd 26a2 3cbb 4d68 aabd
00000310: b445 ac3d f3cf ae3d 337f 4ebc c07e ebbc
00000320: df93 30bd 0ee2 82bd b4df 94bd 2a56 5b3b
00000330: c3d0 00bc 937f 443b c153 403d da7a 69bd
00000340: 99b3 a33d 8a10 9c3b a44c 41bd 592f 193c
00000350: b6d7 b4b9 1bfc 0abd f3a8 c43b 9a2c 66bd
00000360: eae1 b83c 4a52 4dbd 7e3a 27bc d4ec b5bc
00000370: 58a2 c7bc f9af a3bd 41d0 a3bd eebe 6cbc
00000380: 989d 293d e886 d4bc 60a6 6cbd 9e64 59ba
00000390: 34dd 283b f0a8 94bb 945d 8ebd 956d 89bd
000003a0: 7ba1 da3b dea5 4fbd cc2c 813c 1f1d b03d
000003b0: d975 c43c 4ea1 4dbd 9c34 663d cd63 9cbd
000003c0: 794b 9dbc 62fb 463d b1da 03bd 2ff8 963d
000003d0: 5442 afbd a65c cebc 8f8c 2ebb edb0 a83d
000003e0: 0e62 d2bc 3c79 893d 9677 55bd 1ceb 963d
000003f0: b8a4 38bd bace 8fbc 36f3 99bd ee2e 7cbd

rnn.weight_hh_l1 f4 [512, 128]
-0.026050434 0.045931585 0.030535752 -0.08569512 0.032462113 0.01265799 0.049015068 0.035928864
0.015206403 -0.04507999 0.0034088695 -0.025760936 -0.0009159035 0.027318778 -0.035931975 -0.041646812
0.052642647 0.013720788 0.009444586 -0.044689704 0.03344592 0.00620382 0.014549666 0.068246566
-0.0081250565 0.084619015 0.01983736 0.062463593 -0.013833974 0.045633763 0.01059823 0.036664795
-0.0034043172 0.0030966804 0.070794314 -0.0004069183 0.084855095 -0.0009876875 0.03136908 0.061571572
-0.023043757 0.08828133 -0.029434128 0.07357747 0.08486325 -0.069993295 -0.06517541 0.06693268
-0.0013380914 0.05611601 0.06519298 0.04003702 -0.04262184 0.04563069 -0.08014078 0.025140803
0.010232939 -0.03745701 -0.05865647 0.044579703 0.04865248 0.051113524 0.010811802 -0.047716264
0.07349686 0.075989805 0.0662023 -0.02290046 0.081215404 0.0885799 -0.02886474 0.08517846
-0.012163498 0.01777482 -0.07963085 -0.048868235 -0.041068044 -0.013397371 0.0076273805 0.013437961
-0.07453953 0.0569754 -0.061358564 -0.03149185 0.07445191 -0.028871799 0.026403274 -0.06824117
0.06324345 -0.01091288 -0.06303398 -0.016355548 -0.047604024 -0.085287906 -0.006256047 -0.029750027
-0.07738133 0.03808494 -0.018296715 0.016203314 0.031472135 -0.023660036 -0.02252303 -0.0039081606
-0.06944898 -0.07509443 -0.08556818 0.04161968 -0.07598767 0.008686283 -0.0708465 0.060064502
-0.052959137 -0.036667492 0.07484516 -0.06247222 -0.083120026 -0.0132031925 -0.07624188 0.010348612
0.0869271 -0.051365774 -0.0866592 -0.055063013 0.02307283 -0.0727323 -0.014040414 0.013089269
0.084922746 0.08313601 0.023565939 -0.079058886 0.07609404 -0.03948981 0.041435473 -0.023785092
-0.021283532 -0.050444614 -0.002087132 0.04959868 0.08881226 0.07046598 0.02931287 -0.07691255
-0.088181406 0.05073864 -0.016636644 -0.04266108 -0.0604621 0.009061411 0.04658342 -0.030291121
-0.06298771 -0.067389995 -0.036585785 0.0074168015 -0.020624124 -0.014664319 0.08496624 -0.036307614
0.061263617 0.0046768803 -0.022220783 0.08721121 -0.040635325 -0.0033395682 0.07346176 0.059460513
0.02925279 0.034781154 -0.020512216 -0.006218433 -0.06720658 0.07076136 0.0064686253 0.08650016
-0.024552276 -0.06941464 0.08092785 0.037050426 -0.07826074 0.049253482 0.0577794 0.03669626
0.017069437 -0.069303304 0.07784886 -0.08141799 0.02618644 0.03481047 -0.026729332 0.02911102
-0.08030148 -0.037376247 -0.010576531 -0.04571436 -0.068382904 -0.042986583 0.049729396 0.062235557
0.026310116 -0.012036267 0.010290552 0.07945556 -0.08519279 0.0025697253 -0.0716216 -0.07632777
0.081819154 -0.08498678 0.03370944 0.086186565 -0.08652893 -0.036811948 0.08098717 -0.062017355
-0.038167335 -0.0016183768 -0.035154525 0.025699213 -0.035962738 0.030852433 -0.023158982 -0.013134963
-0.04815111 0.004965812 -0.04587425 0.04301447 0.08436402 -0.044284254 0.061685402 0.0284679
0.033335276 -0.02143371 -0.012208188 -0.062873766 0.013142553 -0.0094066635 -0.043955363 -0.05820217
0.088504314 0.0019696148 -0.08693331 0.031038353 0.060465496 -0.077881224 0.06393662 -0.0023378367
0.006619779 -0.029454898 -0.06215336 -0.04847726 -0.08600322 0.035451442 0.024004508 0.06687405
00000000: b867 d5bc c222 3c3d 1d26 fa3c ec80 afbd
00000010: fef6 043d 7563 4f3c 06c4 483d 252a 133d
00000020: 4724 793c cca5 38bd 5767 5f3b 9908 d3bc
00000030: 3e19 70ba a1cb df3c 682d 13bd d995 2abd
00000040: d19f 573d 28cd 603c 77bd 1a3c 8d0c 37bd
00000050: 97fe 083d 6a49 cb3b b961 6e3c dbc4 8b3d
00000060: f51e 05bc bc4c ad3d f681 a23c d3d9 7f3d
00000070: e4a7 62bc 78ea 3a3d 33a4 2d3c d32d 163d
00000080: f71a 5fbb adf1 4a3b 9cfc 903d a657 d5b9
00000090: 82c8 ad3d 4b75 81ba dd7c 003d 7932 7c3d
000000a0: 43c6 bcbc d8cc b43d d71f f1bc c9af 963d
000000b0: c9cc ad3d a558 8fbd af7a 85bd 0014 893d
000000c0: e662 afba e7d9 653d e683 853d dcfd 233d
000000d0: 3d94 2ebd 3fe7 3a3d d920 a4bd 16f4 cd3c
000000e0: 0fa8 273c 866c 19bd c441 70bd 3599 363d
000000f0: d347 473d 6a5c 513d fc23 313c 2172 43bd
00000100: 8685 963d 8ba0 9b3d 1295 873d bf99 bbbc
00000110: 4354 a63d 6169 b53d bf75 ecbc 0b72 ae3d
00000120: 6949 47bc 809c 913c 8015 a3bd 0f2a 48bd
00000130: f736 28bd a680 5bbc 1bef f93b e52a 5c3c
00000140: 2ea8 98bd 095f 693d 1e53 7bbd 99fd 00bd
00000150: 3e7a 983d 8d84 ecbc ae4b d83c 07c2 8bbd
00000160: c885 813d f0cb 32bc f617 81bd 12fc 85bc
00000170: 70fc 42bd 6dab aebd 87ff ccbb 54b6 f3bc
00000180: 1a7a 9ebd f4fe 1b3d fee2 95bc d0bc 843c
00000190: ede8 003d b1d2 c1bc 3882 b8bc 0710 80bb
000001a0: 443b 8ebd 1ccb 99bd 5f3e afbd 6679 2a3d
000001b0: 6c9f 9bbd e950 0e3c f817 91bd 3206 763d
000001c0: aeeb 58bd a730 16bd 6b48 993d dfe2 7fbd
000001d0: d53a aabd 3452 58bc b424 9cbd 3a8d 293c
000001e0: d606 b23d eb64 52bd 617a b1bd c189 61bd
000001f0: 3b03 bd3c acf4 94bd c409 66bc 6074 563c
00000200: faeb ad3d 3643 aa3d 5b0d c13c a0e9 a1bd
00000210: 31d7 9b3d 11c0 21bd 3eb8 293d f4d8 c2bc
00000220: cd5a aebc 039f 4ebd 44c8 08bb fc27 4b3d
00000230: 34e3 b53d 7850 903d 8b21 f03c 5484 9dbd
00000240: 7498 b4bd 52d3 4f3d 9249 88bc 62bd 2ebd
00000250: 1ba7 77bd 5076 143c 42ce 3e3d 1625 f8bc
00000260: b3ff 80bd c403 8abd fada 15bd a408 f33b
00000270: ecf3 a8bc 9d42 70bc c802 ae3d 4bb7 14bd
00000280: 8fef 7a3d 8440 993b 5c08 b6bc ca9b b23d
00000290: 3a71 26bd a8dc 5abb 1f73 963d de8c 733d
000002a0: 8ca3 ef3c af76 0e3d 3c09 a8bc ffc3 cbbb
000002b0: 9aa3 89bd 55eb 903d c3f6 d33b ff26 b13d
000002c0: db21 c9bc 4329 8ebd 80bd a53d 30c2 173d
000002d0: 2b47 a0bd 05be 493d 18aa 6c3d d14e 163d
000002e0: 34d5 8b3c e4ee 8dbd 396f 9f3d 7abe a6bd
000002f0: f284 d63c 6c95 0e3d 79f7 dabc 3c7a ee3c
00000300: 1a75 a4bd d617 19bd 3049 2dbc fb3e 3bbd
00000310: 560c 8cbd b312 30bd 0db1 4b3d b6ea 7e3d
00000320: 5088 d73c c333 45bc b499 283c 99b9 a23d
00000330: 8f79 aebd d668 283b 58ae 92bd bc51 9cbd
00000340: cd90 a73d 8d0d aebd e912 0a3d 9582 b03d
00000350: 1436 b1bd 20c8 16bd 9adc a53d e905 7ebd
00000360: 5a55 1cbd b71f d4ba 31fe 0fbd 2887 d23c
00000370: aa4d 13bd 3ebe fc3c e8b7 bdbc 0734 57bc
00000380: 193a 45bd 40b8 a23b a3e6 3bbd f12f 303d
00000390: 0bc7 ac3d 6863 35bd d5a9 7c3d 8335 e93c
000003a0: 928a 083d bf95 afbc da04 48bc f6c3 80bd
000003b0: dd53 573c 681e 1abc 8a0a 34bd 6665 6ebd
000003c0: c041 b53d a714 013b 170a b2bd 2544 fe3c
000003d0: abaa 773d 3180 9fbd 34f1 823d 6436 19bb
000003e0: bbea d83b 664b f1bc 8694 7ebd 1790 46bd
000003f0: 7522 b0bd 8835 113d 1aa5 c43c 43f5 883d

rnn.bias_ih_l1 f4 [512]
0.044990037 -0.046564452 -0.08616482 0.047860306 -0.062019665 0.0029752767 -0.011919768 -0.023665534
-0.0726516 0.036492556 0.035098575 -0.07339753 -0.024438612 0.08156349 0.088144116 -0.07678824
0.028413063 -0.0153454915 -0.03627931 0.058893856 0.062024303 0.020318553 -0.07587104 0.02409142
0.04498987 -0.034453504 -0.08433139 -0.067209855 0.07133271 -0.07242049 0.05316294 0.057521757
0.045266546 0.009521189 0.08215573 -0.0020180426 -0.052448183 0.012456693 0.067518756 0.035792608
0.016932689 -0.058386654 0.08425012 -0.08428208 -0.04579937 -0.026456578 0.037222363 -0.08147776
-0.03250667 -0.0030268866 -0.07084861 0.055107273 -0.0030211408 0.03369228 0.086742766 0.02100807
-0.0008162963 0.050620344 0.046854973 -0.053626824 0.05346468 -0.066309586 -0.024957832 0.058557488
-0.014884878 -0.08401106 0.015845124 -0.056022923 0.049568247 0.04232924 0.029693052 0.0019800463
0.01795019 0.059915777 -0.02679843 0.046395693 0.07912084 0.066356234 0.0631652 0.08343082
-0.010240581 -0.014973583 -0.08402779 0.0717803 -0.008097827 0.042758424 0.0655665 0.06560836
0.038104393 0.0260732 0.017519183 -0.00020542773 -0.08268432 -0.08600094 -0.06262522 0.08311037
0.006322002 0.08549799 0.02025126 -0.01801932 -0.0723418 -0.049471166 0.019963872 -0.018886318
0.017897323 -0.033330794 0.020708745 0.08599264 -0.007928256 0.04936276 -0.0059337234 -0.011580411
0.04306956 -0.027762622 -0.076702915 -0.024131823 -0.04053108 0.006022092 -0.006762455 -0.058867637
-0.023885671 0.03381876 0.061312787 -0.04344687 -0.07519259 -0.0044468087 -0.02369625 0.046472616
-0.0071959374 -0.08000278 0.07819203 0.043519624 -0.047509253 0.01552644 0.058678403 0.07015248
-0.0104842 -0.06957611 0.012053575 -0.026706694 -0.0486239 -0.03267538 -0.06399422 0.070219286
0.082368 0.03893209 0.052680016 -0.036662042 -0.020158643 -0.050982483 0.086851984 0.04360014
0.044030767 -0.0039261314 -0.06923051 0.07857797 -0.079278 0.002024705 0.05775074 0.014077289
-0.04468885 -0.053957812 0.008674791 -0.00348245 0.02323643 -0.0004113185 0.025419516 -0.0235967
0.046697244 -0.02320055 -0.01643524 0.034898423 -0.022555728 -0.054954942 -0.068625405 0.004816303
0.05968158 -0.08335259 0.008999772 0.00040247 0.033085473 0.05737549 0.006496501 -0.06523058
0.02103834 0.0021672782 -0.074282914 -0.0001495945 0.019465966 0.048618045 0.013732939 0.00895682
0.036355503 0.014364957 -0.021432864 0.04105301 -0.011134277 0.06663808 0.040402647 0.023413569
0.012211287 -0.0828673 -0.03117644 -0.076075606 0.011081128 0.00464778 -0.008491199 0.029130958
0.058383334 -0.012188106 -0.06513616 0.08725786 0.07715963 0.03790343 0.006411682 -0.00025813328
-0.067609705 0.07281654 -0.04079289 -0.008538766 -0.045304403 -0.011047703 -0.08639962 0.028689407
0.05081371 -0.06756224 -0.0010235587 0.063075736 0.06987194 -0.06190131 -0.005498857 0.043945152
0.037577987 -0.07569543 -0.08310213 -0.015518207 -0.061437227 0.027763447 0.0032242273 -0.087772794
-0.012167488 -0.009414126 0.064173914 0.035023425 0.07564384 0.005089217 -0.07371979 0.0130554745
-0.039071202 -0.028000556 -0.073915385 -0.04228837 0.06839505 -0.066182695 0.06588135 -0.021790618
00000000: 7947 383d 5eba 3ebd 2e77 b0bd 2b09 443d
00000010: 5508 7ebd dcfc 423b 214b 43bc 39de c1bc
00000020: 5dca 94bd 3879 153d 86c3 0f3d 7251 96bd
00000030: 7c33 c8bc c20a a73d e784 b43d 2743 9dbd
00000040: 83c2 e83c a86b 7bbc 9d99 14bd af3a 713d
00000050: 320d 7e3d 1873 a63c 4762 9bbd 5f5b c53c
00000060: 4c47 383d 1e1f 0dbd f0b5 acbd 52a5 89bd
00000070: e216 923d 3251 94bd 62c1 593d ef9b 6b3d
00000080: 6a69 393d c3fe 1b3c 4341 a83d 2341 04bb
00000090: e8d3 56bd 2817 4c3c 4647 8a3d 459b 123d
000000a0: 6cb6 8a3c d826 6fbd 548b ac3d 159c acbd
000000b0: 1f98 3bbd 77bb d8bc 7a76 183d d0dd a6bd
000000c0: b725 05bd bb5e 46bb 1319 91bd 2ab8 613d
000000d0: 55fe 45bb eb00 0a3d 31a6 b13d 1e19 ac3c
000000e0: b8fc 55ba 4757 4f3d 00eb 3f3d cda7 5bbd
000000f0: c8fd 5a3d 52cd 87bd 5e74 ccbc fad9 6f3d
00000100: b4df 73bc fe0d acbd a2cd 813c 4b78 65bd
00000110: 1308 4b3d 6d61 2d3d d83e f33c aac3 013b
00000120: 470c 933c 3f6a 753d 6288 dbbc 6909 3e3d
00000130: 1b0a a23d c7e5 873d c25c 813d c7dd aa3d
00000140: 1cc8 27bc c253 75bc c316 acbd 8d01 933d
00000150: c0ac 04bc 7523 2f3d bb47 863d ad5d 863d
00000160: 5a13 1c3d 7797 d53c 6484 8f3c 1668 57b9
00000170: 6656 a9bd 4321 b0bd a741 80bd c535 aa3d
00000180: cc28 cf3b 9219 af3d f8e5 a53c 419d 93bc
00000190: f027 94bd 47a2 4abd 468b a33c 7bb7 9abc
000001a0: 689d 923c df85 08bd 63a5 a93c e91c b03d
000001b0: 84e5 01bc 9b30 4a3d ae6f c2bb c4bb 3dbc
000001c0: b569 303d 706e e3bc 6b16 9dbd 1ab0 c5bc
000001d0: eb03 26bd f854 c53b 9697 ddbb 311f 71bd
000001e0: e2ab c3bc 8a85 0a3d 1e23 7b3d 58f5 31bd
000001f0: 93fe 99bd 89b6 91bb a31e c2bc 125a 3e3d
00000200: e6cb ebbb 7fd8 a3bd 2523 a03d a241 323d
00000210: 1099 42bd 9c62 7e3c c458 703d 1aac 8f3d
00000220: ecc5 2bbc eb7d 8ebd 5c7c 453c ffc7 dabc
00000230: db29 47bd 9fd6 05bd 670f 83bd 21cf 8f3d
00000240: 8eb0 a83d 4177 1f3d 00c7 573d f02a 16bd
00000250: bd23 a5bc 02d3 50bd 74df b13d 0f96 323d
00000260: 9b59 343d c7a6 80bb bac8 8dbd 7ded a03d
00000270: 815c a2bd eab0 043b 0a8c 6c3d 6ea4 663c
00000280: a80b 37bd de02 5dbd b620 0e3c d139 64bb
00000290: 535a be3c 3ca6 d7b9 973c d03c de4d c1bc
000002a0: 9c45 3f3d 140f bebc 32a3 86bc a6f1 0e3d
000002b0: cac6 b8bc 6f18 61bd 7a8b 8cbd 14d2 9d3b
000002c0: ac74 743d c3b4 aabd c873 133c 9c02 d339
000002d0: a284 073d 9002 6b3d 9ae0 d43b 9c97 85bd
000002e0: 9958 ac3c e508 0e3b a421 98bd 78dc 1cb9
000002f0: 1777 9f3c b723 473d 1f00 613c a0bf 123c
00000300: 82e9 143d ff5a 6b3c f993 afbc 3327 283d
00000310: 8b6c 36bc 8c79 883d 3f7d 253d d0cd bf3c
00000320: da11 483c 55b6 a9bd bc65 ffbc 87cd 9bbd
00000330: 9f8d 353c 684c 983b ac1e 0bbc 0ca4 ee3c
00000340: 5d23 6f3d 9fb0 47bc 1b66 85bd 40b4 b23d
00000350: de05 9e3d a140 1b3d 1619 d23b 1056 87b9
00000360: f576 8abd d720 953d 7216 27bd 2ee6 0bbc
00000370: 1c91 39bd 6d01 35bc 49f2 b0bd 0c06 eb3c
00000380: 0922 503d 125e 8abd ee28 86ba da2d 813d
00000390: 0519 8f3d 3a8c 7dbd c12f b4bb d5ff 333d
000003a0: 60eb 193d 3506 9bbd 7331 aabd 1440 7ebc
000003b0: 9aa5 7bbd 2b70 e33c 8f4d 533b 39c2 b3bd
000003c0: 255a 47bc b53d 1abc 9d6d 833d b974 0f3d
000003d0: 28eb 9a3d 72c3 a63b 67fa 96bd a1e6 553c
000003e0: 2009 20bd 6c61 e5bc f360 97bd 9236 2dbd
000003f0: b412 8c3d cb8a 87bd cdec 863d 3d82 b2bc
