exps/chpts/GRU_layers2_stride5_average_lr0.0001/best_model.pth (torch, 626643 bytes, 10 tensors)

rnn.weight_ih_l0 f4 [384, 17]
000000 a8 03 3e 3c 4d 7f b4 bd 80 09 9a 3d e4 be 21 3d
       0.011597551 -0.08813343 0.07521343 0.039488688
000010 98 83 6c 3d 35 21 40 3d 0d 5d a0 bd 0a 4e 81 bd
       0.057742685 0.04690667 -0.07830248 -0.06313713
000020 b0 8a 18 bd 11 00 a6 3b fb 59 80 bd 4e d3 6b 3d
       -0.037241638 0.005065926 -0.062671624 0.057574563
000030 52 7b cb bc 9a 58 42 3d 8a c4 7e bb 48 ba 51 bd
       -0.024839077 0.04744778 -0.003887447 -0.051203042
000040 fd f7 a8 bd 1f b0 af 3d 75 9f ca 3c 8e f4 2c bc
       -0.08250425 0.08578514 0.024734238 -0.010556353
000050 87 4c fd bb c0 15 a1 3d 7d 92 a4 3c 1e 3f d2 bc
       -0.00773007 0.078654766 0.020089382 -0.025664862
000060 eb 7a a3 3d 9a 8d a8 bc cb a6 46 3a 18 9d 3c 3d
       0.07982429 -0.020575333 0.00075779547 0.046048254
000070 e4 58 00 bd 36 b7 a2 bd 1f c2 3d 3d a0 a2 9d bc
       -0.031334773 -0.07945101 0.046327706 -0.019242585
000080 35 ef 26 3d cf 38 8f bc 00 d7 5e 3d f1 ce 4c 3d
       0.04075547 -0.017483143 0.05440426 0.050002042
000090 30 fc a5 3c 12 74 b2 bd 62 0f cb bc 2a e0 6a 3d
       0.020261854 -0.08713545 -0.024787609 0.057342686
0000a0 17 1f 7e 3d b9 05 b4 3c ae 80 64 bd 74 9a 19 bd
       0.06204137 0.021975385 -0.05578678 -0.037500814
0000b0 40 1e 6a 3d f0 58 ee 3c a9 d3 50 3c 81 53 17 3b
       0.057157755 0.029095143 0.012745776 0.0023090544
0000c0 3b 21 28 bd e4 a4 4d 3d 28 89 9f 3d 96 ef 26 3d
       -0.041047316 0.05020608 0.07789832 0.04075583
0000d0 39 cc 07 ba d7 ef 8b bd 46 ab 5c bd 30 78 81 3d
       -0.0005180273 -0.06832855 -0.053874277 0.06321752
0000e0 41 05 86 3c 51 39 9c 3d af 5a 10 bc 05 05 ac 3c
       0.016359927 0.0762812 -0.008810683 0.020998487
0000f0 09 fe 54 bd 59 f2 95 3c 67 df e6 bc 34 6c 83 3d
       -0.05200008 0.018304037 -0.028182698 0.064171225
000100 54 27 88 bd 13 a6 a5 3d ae e3 a7 3d d9 4a 0e bd
       -0.06648126 0.08088317 0.08197723 -0.03473935
000110 d5 4f 30 bd 15 8f 70 bd 57 a9 96 bd b3 03 7a 3d
       -0.043044884 -0.058730204 -0.07356518 0.061038684
000120 27 36 55 bc e2 b3 bd bc 0b c8 52 3d 0a 21 be 3c
       -0.013013399 -0.023157064 0.051460307 0.023209114
000130 07 3d 35 3d b0 6b 38 3d 7e ba 98 3c c8 bb 48 3c
       0.044247653 0.045024574 0.018643614 0.012251802
000140 7f 80 b0 bd 2c 73 8a 3c 53 c7 b1 3d 00 f0 3e 3d
       -0.08618259 0.016900621 0.08680596 0.0466156
000150 e0 ea 1b 3a f8 83 58 3d 9c 70 50 bd 73 96 54 bd
       0.000594778 0.05286023 -0.050888643 -0.051901292
000160 0e 75 86 3d 7d 6c af bd 3b aa 0b 3d 09 15 88 bd
       0.06565295 -0.08565614 0.03409789 -0.06644637
000170 6d 04 14 3d 95 bd 33 bd 1c a4 48 bd 11 92 28 bd
       0.036137033 -0.04388197 -0.048984632 -0.041154925
000180 38 c7 44 bd e8 99 2f 3d 31 78 6a 3c 17 b3 b5 3d
       -0.048041552 0.042871386 0.014310882 0.08872049
000190 b2 44 91 3d 2e f8 a4 bd 15 ec a9 bc 2d 53 5b 3d
       0.07093181 -0.08055149 -0.020742455 0.05354612
0001a0 1d a5 97 3d 5e 3f 95 3c 8b 14 55 bc 8d bd a2 3d
       0.0740454 0.018218692 -0.013005386 0.0794631
0001b0 14 8b 8f 3d dd 95 0a 3d c5 80 82 bd 34 18 3e bd
       0.07008949 0.033834327 -0.06372217 -0.0464098
0001c0 4c c4 69 bd 63 6e 1b bc 03 50 8e 3c 78 b5 2d 3d
       -0.05707197 -0.009486767 0.017372137 0.04240939
0001d0 c0 a2 44 3d 60 ef ae bd 9b 84 a8 bd be 01 44 bc
       0.048006773 -0.08541751 -0.082284175 -0.011963306
0001e0 81 fa a5 3d 6f 70 86 bd 98 2d b2 3d 62 29 69 bd
       0.081044205 -0.06564414 0.087001026 -0.05692423
0001f0 05 34 2a bc ca e3 b2 bd eb a7 54 3d 2f 53 5d bd
       -0.010388379 -0.087348536 0.05191795 -0.05403441
000200 61 b9 5c 3d 55 ad b7 bc 25 ca 6e bd 54 21 1b bd
       0.05388773 -0.022421518 -0.05829825 -0.03787358
000210 fb 7d 3b bd b8 f7 b0 bd 71 ef 74 3d ec f5 a7 3d
       -0.04577444 -0.086409986 0.05979866 0.08201203
000220 6d c3 65 3d 6f 88 88 bd 95 9d 75 3d 8f 6d 32 bc
       0.056094576 -0.06666648 0.059964735 -0.010890379
000230 da 3d b7 bc 6b cc c2 bc 04 ff 03 bd d5 24 d4 bb
       -0.02236836 -0.023779115 -0.032225624 -0.0064741173
000240 ed d4 99 bd 11 59 9c bc 45 39 1a bd 8d 00 9d bd
       -0.075113155 -0.019085439 -0.037652273 -0.07666121
000250 e3 21 22 bb f1 a6 b8 3c ae 3e 55 3d 1a 39 84 bd
       -0.0024739436 0.022540541 0.05206173 -0.06456204
000260 dd 21 92 3d 42 be 84 bd b8 27 04 39 57 0d 82 3d
       0.07135365 -0.06481601 0.00012603297 0.063502006
000270 59 cd 2c bd e4 44 a6 bd 25 c5 af 3d 8c 2e b4 3d
       -0.042188022 -0.081186086 0.08582524 0.087979406
000280 f1 5c 18 ba fc 31 e5 3c 3d f2 7f bd ef e9 d7 3c
       -0.0005812189 0.027977936 -0.062486876 0.026356665
000290 38 20 96 3d c2 26 95 3d 41 97 8d bd 80 24 18 bd
       0.07330364 0.07282783 -0.06913615 -0.037144184
0002a0 13 ca b5 bd fa 06 1b 3d 23 ef f5 3c 6d 67 62 bd
       -0.08876433 0.03784845 0.030021256 -0.055274416
0002b0 00 83 13 3d 87 83 1a bd 93 eb 86 bd 9a 20 85 3d
       0.036013603 -0.03772309 -0.06587901 0.06500359
0002c0 f7 b9 74 bd 53 02 8a bd ae 6e 19 bd c5 67 2a 3d
       -0.059747662 -0.067387246 -0.037459068 0.04160287
0002d0 ea d5 cc bc 96 80 9b bd 9c 3d 25 3d c7 2a 8c 3c
       -0.025004346 -0.07592885 0.04034196 0.017110242
0002e0 49 a7 0d 3c 39 de 04 ba ae 53 e3 3c ab b2 1e 3d
       0.008645841 -0.0005068514 0.027749863 0.03874461
0002f0 3c 83 62 bc f3 18 ab 3c 8f 62 a7 3b bb 5c 8c 3d
       -0.013825234 0.02088592 0.0051081846 0.068536244
000300 9c 6e 9f 3d 26 eb 0c bc 59 b1 97 bd af 78 b2 bd
       0.07784769 -0.008600986 -0.07406873 -0.08714425
000310 a2 0c 5e 3d 58 58 f2 bc 1e 02 a7 3d e2 51 b3 bd
       0.054211266 -0.029583141 0.08154701 -0.08755852
000320 c6 7a e0 3c dc 13 9d bd 7d ee c0 3b 9f f8 ab 3a
       0.027402293 -0.076698035 0.005887805 0.001312036
000330 1f 43 74 bd 10 9d 30 bd 4d 13 71 3d cf f6 70 3c
       -0.059634324 -0.043118536 0.058856297 0.014707281
000340 fc eb 8b bd 2a 1c 54 3d 95 c7 ae 3d 48 06 ea ba
       -0.0683212 0.05178467 0.08534161 -0.0017854655
000350 ab 37 3f 3d 61 8f b4 3d 9d 0a 74 bd f6 b7 5a bc
       0.04668395 0.0881641 -0.059580434 -0.013349524
000360 69 01 5f 3d 4a ba b0 3d 49 f8 05 3d 62 e3 99 bd
       0.054444704 0.08629282 0.032707486 -0.07514073
000370 d7 c8 6a 3c 03 d3 2b 3d 60 8c ae 3d d1 40 ff ba
       0.0143301105 0.041949283 0.08522868 -0.0019474273
000380 60 13 d9 bc 05 18 a2 3d f8 70 b2 bc 6e c1 0c 3d
       -0.026498497 0.079147376 -0.021782383 0.034364156
000390 cb 1b 44 3b fa 2e 4d 3d 46 91 2c 3c 7f fc 1e bd
       0.0029923792 0.05009363 0.010532683 -0.038815018
0003a0 c0 5b df 3a 5d 85 4a bd 21 b3 d8 3c 8b 51 a9 3d
       0.0017040893 -0.04944359 0.026452603 0.08267506
0003b0 eb ed 2d 3d ac 38 3f bd 67 14 93 bd 33 28 84 bd
       0.042463224 -0.046684906 -0.07181626 -0.0645298
0003c0 46 b0 3a 3b 76 17 a9 3d 6f 87 5d 3d 24 53 1a bd
       0.0028486415 0.08256428 0.054084238 -0.037676945
0003d0 f9 16 86 bc 0e 69 9c bd bd 1c df 3c 99 d0 f6 bb
       -0.016368376 -0.07637225 0.027235383 -0.007532191
0003e0 11 a5 d6 bc bb 2b 8e bd df 7e 63 3d 10 76 09 3c
       -0.026201757 -0.06941935 0.055540916 0.008389965
0003f0 90 08 7b 3b 89 58 1f bd 53 49 d7 bc c7 a0 86 bd
       0.0038304664 -0.038902793 -0.02628008 -0.065736346

rnn.weight_hh_l0 f4 [384, 128]
000000 ad 53 90 3d 39 83 59 bd 2d ad 9c bd 10 9a b6 3b
       0.0704721 -0.05310366 -0.07650218 0.005572565
000010 73 57 64 3c 82 86 89 3d 95 31 f8 3c f9 73 c0 3c
       0.013936865 0.067151085 0.03029708 0.0234928
000020 8c 83 b9 3c 0a d8 23 bd 42 4c 29 bd ed a2 35 3d
       0.022645734 -0.040000953 -0.04133249 0.04434483
000030 22 cd ba bc 98 33 61 3d 29 35 af 3d e0 6c 43 bd
       -0.022802893 0.054980844 0.08555061 -0.047711253
000040 91 47 51 bd e0 d6 63 bd 35 3d 9b bd 14 70 5d 3c
       -0.05109364 -0.055624843 -0.07580034 0.013515491
000050 c3 59 e9 3b ee 31 07 3d 36 45 8e bc 92 28 47 3d
       0.007121296 0.0330066 -0.017366987 0.048622675
000060 05 14 ae bd 3b 00 80 3d b2 7b 0b 3d 31 db 94 3d
       -0.08499912 0.06250044 0.034053512 0.0726837
000070 ee 4d fe 3b e8 48 8a bc 4c fd a3 bd 1f 3a e2 bb
       0.007760755 -0.016880468 -0.08007297 -0.006903901
000080 c3 b7 26 3d 49 3f 50 bd f1 ec b8 3c df 75 84 3c
       0.040702593 -0.050841603 0.02257392 0.016169487
000090 fd fb 00 3d f3 f6 94 bd e4 3a 26 3c 99 bb d6 3a
       0.031490315 -0.07273664 0.010145877 0.0016382813
0000a0 a3 66 95 bd 44 ce d9 bc 45 f6 ce 3c 0a 68 56 bd
       -0.07294967 -0.026587613 0.025263915 -0.052345313
0000b0 ea ae 1a bd 53 c3 e1 3b f0 ef be 3c a4 64 fe 3c
       -0.037764467 0.0068897395 0.02330777 0.031053849
0000c0 37 f8 55 3d 41 fe 4f bd 55 48 6e 3d 74 1e 0d bd
       0.05223867 -0.050779585 0.05817445 -0.03445287
0000d0 e7 a0 4e bd a7 6c 8a b9 ae ab 2c 3d 26 5b 2d 3d
       -0.050446417 -0.00026402363 0.042155914 0.042323254
0000e0 b2 f0 25 3c a7 fe 15 bc 9d 20 a2 3b d3 a6 b8 bc
       0.010128187 -0.009154952 0.0049477355 -0.022540485
0000f0 cf 35 cf bc a7 34 a1 bc c3 df 1c 3d 6a 61 62 bc
       -0.025294213 -0.019678427 0.038299333 -0.013817171
000100 37 e2 4d bd 50 9b 80 3d 50 dd 06 bb c7 00 99 bc
       -0.050264563 0.062796235 -0.002057869 -0.018677128
000110 f9 ee 0b bc ba 07 8d bd e2 90 44 3d f0 65 f3 bc
       -0.008540862 -0.06886239 0.047989734 -0.029711694
000120 04 d4 b8 bc ef fb c5 ba e6 17 ab 3d 92 49 02 bd
       -0.022562034 -0.0015104989 0.08354168 -0.031808443
000130 5a 60 38 3d 88 9f 0b 3d 77 4c 0f bc 17 15 9d 3d
       0.045013763 0.034087688 -0.008746258 0.07670038
000140 8d 93 1d 3d a4 08 a9 3d 18 e9 46 3d 63 bb 33 3d
       0.038470794 0.08253601 0.04856214 0.043879878
000150 66 fe 2e bc 93 46 b3 3d ee e0 70 3d f4 e8 3d bc
       -0.0106807705 0.08753695 0.05880826 -0.011591185
000160 b7 75 5c bd 04 f5 87 ba 70 e1 a7 bd f5 95 08 bc
       -0.0538232 -0.0010372703 -0.08197296 -0.008336534
000170 58 fb 37 3d ca 07 5f 3d fd 17 92 3d fe 98 98 3b
       0.044917434 0.054450788 0.07133482 0.00465691
000180 7a 78 8a bd 79 b2 dd ba 3b 82 7e 3d 58 8c 4b 3d
       -0.0676126 -0.0016914151 0.062135916 0.04969439
000190 e1 99 a8 bd 9a 4b 94 bd 31 e8 93 3c 7f bd 4a 3d
       -0.08232475 -0.07240982 0.018055053 0.049497124
0001a0 91 fc 78 bd c2 cb 6f bd 2e 24 3f 3d 92 1e 1e 3d
       -0.06078774 -0.058543928 0.046665363 0.038603373
0001b0 fc 40 c2 3c a6 ad 2c b7 19 4a 6d bd 45 31 54 3d
       0.023712628 -1.029243e-05 -0.057931993 0.0518048
0001c0 de 24 3a 3c 9d d9 ca 3c b6 ac aa 3d 9e b3 93 3d
       0.011361329 0.02476197 0.08333723 0.07211994
0001d0 75 11 af 3b 1a c9 46 3d f2 c9 80 bc e4 3d 8a 3d
       0.005342657 0.04853163 -0.015721295 0.06750086
0001e0 a3 b3 a9 bb aa 00 a6 3d 10 4c f9 bc f0 39 db bb
       -0.005178885 0.081055954 -0.030431777 -0.0066902563
0001f0 92 c6 98 3d 15 d4 d8 3c d9 31 70 bd ff a0 5f bd
       0.07459749 0.026468316 -0.05864129 -0.054596897
000200 62 3e 9e 3d e0 3c 9a bc 3a 98 86 bd 67 b7 b0 bd
       0.07726742 -0.018827856 -0.06572004 -0.08628731
000210 e1 dd 5e bc be 79 80 bd d6 80 4f bd 8e 87 b3 3c
       -0.013602705 -0.062732205 -0.050659977 0.021915223
000220 a0 41 1a bd d1 79 ad 3c c2 bd 17 3d ac 23 66 3d
       -0.03766024 0.02117625 0.0370462 0.056186363
000230 95 7f 51 3d 3e 73 87 3d 4d 33 66 3d 6e dc 7e bd
       0.051147062 0.066137776 0.056201268 -0.062221937
000240 92 11 02 bd e0 31 98 3c 34 64 c5 3b 12 3f be 3c
       -0.031755038 0.01857847 0.006023908 0.023223434
000250 0b f8 40 3d 9d 9b ac 3d 2e f9 69 bd 7c 70 2e 3c
       0.047111552 0.084281184 -0.057122402 0.010646936
000260 31 ba 2c 3c c2 28 8a 3d 86 32 21 3b d6 b8 34 3b
       0.010542438 0.06746055 0.0024596765 0.002757599
000270 0a 6f b3 3b 6a 7b 81 3d ff 95 db bc 94 ee b6 3a
       0.0054758834 0.063223675 -0.026804922 0.00139566
000280 ad 60 8e 3d 34 8e 43 bc 62 74 b8 ba 90 ef 55 bd
       0.06952033 -0.011935759 -0.0014072771 -0.052230418
000290 a5 5a 46 bd 3e 7c 91 3b 0a d2 a4 bd e8 ed e1 bc
       -0.04842629 0.0044398597 -0.08047874 -0.027579263
0002a0 98 e2 66 bd 19 80 53 bd ad d1 8e 3d c2 48 4e bc
       -0.05636844 -0.051635835 0.06973586 -0.012590589
0002b0 3d cb 62 bd 9c d3 88 3d 1a 78 83 3d f7 3c ef bc
       -0.055369604 0.06680986 0.06419392 -0.029203875
0002c0 4f 50 74 bd 27 61 25 bc 6d 74 9e bd 15 4d a4 bd
       -0.0596469 -0.010093964 -0.0773705 -0.08022515
0002d0 7a 65 7a bc 20 60 8d 3d 64 a9 ba bc 1b 99 32 3d
       -0.015282983 0.069031 -0.02278585 0.043603044
0002e0 0a c3 eb bc 9d b9 0f 3d 1a 4a e8 bc 1e d6 bd 3b
       -0.028779525 0.035089124 -0.028355647 0.005793347
0002f0 8a a6 80 3d 23 54 2a bd de ab 00 3d 72 8c 9a 3c
       0.06281765 -0.041584145 0.031413905 0.018865798
000300 63 fe 4c 3d bf cc a8 bd 67 82 85 3d 5c 05 c1 bc
       0.05004729 -0.08242177 0.06519013 -0.023562126
000310 04 f2 3b 3d cb fd 0c 3d 0e 8f ad bd 2f 5b a6 bc
       0.0458851 0.034421723 -0.08474551 -0.020307152
000320 1e ee 11 bd 33 10 9a bd 82 15 90 bd 24 d0 40 bd
       -0.035627477 -0.07522621 -0.07035352 -0.0470735
000330 92 48 ad 3d 74 ee 85 3d a9 11 27 3d 02 08 16 bc
       0.08461107 0.06539622 0.040788326 -0.009157183
000340 f8 ab 27 3d b5 1f 3a bd 56 33 8e bd 00 86 2f 3c
       0.040935487 -0.045440394 -0.06943385 0.0107131
000350 06 c7 9a bd 0b 86 ac bd d2 d5 b1 3d be eb 77 3d
       -0.07557492 -0.08424004 0.08683361 0.060527556
000360 3a a5 9f bc 17 27 b1 bd 56 24 73 3b cb a1 c3 bc
       -0.019487966 -0.08650034 0.0037100515 -0.02388086
000370 92 16 9e bc 2f ce 61 3d 73 36 8a 3d 5b 8e aa bd
       -0.019297872 0.055128273 0.067486666 -0.083279334
000380 0c 50 72 bd 40 4c 31 bb 35 34 c6 3c c6 4b 10 bd
       -0.05915837 -0.0027053505 0.024194816 -0.035228513
000390 ce cf a0 3d a8 38 23 b7 ad da d4 3c f1 11 39 3c
       0.078521356 -9.728748e-06 0.025983179 0.0112957815
0003a0 7f 00 90 3d b4 ca 71 3d f2 11 62 bd d1 c3 8d bc
       0.070313446 0.059031203 -0.055192895 -0.017305287
0003b0 0f 47 88 bd 41 e2 66 3d 74 5e 7a bd 70 4a 80 3d
       -0.06654178 0.056368116 -0.061125234 0.06264198
0003c0 b8 af 4f 3d 17 b4 67 3d d6 10 92 3c 95 8e 4a 3c
       0.050704688 0.05656823 0.017830294 0.012363096
0003d0 d5 b8 85 bd c4 03 98 3a 25 9f 91 3d 70 9c a1 bc
       -0.065293945 0.0011597802 0.071104325 -0.019727916
0003e0 d2 fc 56 3d 02 3f 0a bd dc e2 2f 3d 01 0d 26 3d
       0.052487202 -0.033751495 0.04294096 0.040539745
0003f0 2e 2f a8 bd b9 cb 68 bd d4 ce 58 3d 82 c6 18 3d
       -0.08212124 -0.05683491 0.05293162 0.037298687

rnn.bias_ih_l0 f4 [384]
000000 fb 20 54 3d 0b 16 a2 3d 90 c6 69 3d 17 35 27 3d
       0.051789265 0.079143606 0.05707413 0.040822115
000010 ba 9f 84 3d 61 c2 2f 3d d1 89 9f 3d a3 1a 89 3d
       0.06475778 0.042909984 0.07789958 0.06694534
000020 6c a5 ae bc b8 3f c1 3b 11 16 04 bc bc 65 6b 3d
       -0.021319114 0.0058974884 -0.008061902 0.05747007
000030 30 34 f3 bc d3 ab 40 3c 03 43 06 3b 5d d6 9a bd
       -0.02968797 0.011759716 0.002048672 -0.07560418
000040 cb bc 4c bd 3e 41 92 bd 71 16 8a 3b 3e 56 a2 bc
       -0.049984735 -0.0714135 0.004214101 -0.019816514
000050 e0 e5 82 bc 09 c3 32 3d 94 c4 ab 3d d8 bf 49 bd
       -0.015978754 0.04364303 0.08387104 -0.049255222
000060 f2 fa e7 bc 71 62 ae 3d 9e c2 8c bd 47 8f 71 3c
       -0.028317902 0.0851487 -0.06873058 0.014743633
000070 53 a5 62 bd 76 a9 e6 b9 c4 51 2c bd ae 6f 8e 3b
       -0.055333447 -0.00043995277 -0.042070165 0.0043468093
000080 94 83 7e 3d 02 fc 60 bc b6 96 20 bd 13 74 56 3d
       0.0621372 -0.013731958 -0.03920623 0.05235679
000090 61 2f c0 bc 30 f1 e9 bc 37 2c a9 bd cf ed a5 3d
       -0.023460092 -0.02855739 -0.082603864 0.08101999
0000a0 18 5b d2 3c 72 77 6e bd 59 60 90 bd 0e db 35 bd
       0.025678203 -0.05821938 -0.07049627 -0.04439836
0000b0 c8 45 a1 3d 52 00 cc bb e6 a3 28 bd 9e 1b 41 bd
       0.07874638 -0.006225624 -0.04117193 -0.04714548
0000c0 20 e0 84 bc 3c 15 4e bd be 1f 99 bd 1a e4 34 bd
       -0.016220152 -0.05031322 -0.074767575 -0.044162847
0000d0 af 6d 35 3d e7 bf 2d bd 61 a1 51 bd 98 55 32 bc
       0.044294056 -0.04241934 -0.051179294 -0.010884665
0000e0 40 31 ff 3b 8d e6 74 bd d4 f2 62 3b 0b ef ac bd
       0.0077878535 -0.059790183 0.00346296 -0.08444031
0000f0 9d d7 98 bd d4 b1 33 3d 65 99 ab 3d a6 80 8d bd
       -0.07463 0.043870762 0.08378867 -0.06909303
000100 a4 0f 99 3d 37 f0 a0 bd a9 ca c0 bc 1f 48 0f bd
       0.07473686 -0.07858317 -0.023534136 -0.03498089
000110 e8 fe 8d bc 2e 22 97 3d b0 73 29 bd 7e 4c 4d 3d
       -0.017333463 0.07379566 -0.041370094 0.050121777
000120 70 77 8f bd 94 5c aa bd 7a b3 26 3d c5 ff 0a bd
       -0.07005203 -0.08318439 0.040698506 -0.033935327
000130 78 53 a4 bc 1c 90 90 3d 78 f1 8a 3c 95 df 89 b8
       -0.020059332 0.07058737 0.016960844 -6.5743145e-05
000140 ce 23 57 3d 76 f3 9c bd f5 f4 b1 bd 1c e7 88 bd
       0.05252438 -0.07663624 -0.086893 -0.066847056
000150 90 06 21 bd de 41 45 bd 3f c9 d0 3c 4a 60 c2 bc
       -0.0393129 -0.04815852 0.025486587 -0.023727555
000160 4a 66 d5 3b e2 75 62 3d 75 49 0f bd cb 09 4e 3d
       0.006512438 0.055288203 -0.034982163 0.050302308
000170 8c b8 02 bd d1 2d a2 3c 78 9a 2b bd ed 2c fb bc
       -0.03191428 0.019797238 -0.04189536 -0.03066107
000180 96 f2 27 bd a3 af 8d bd 27 a5 12 3d 40 80 47 bd
       -0.041002832 -0.06918266 0.035802033 -0.048706293
000190 cc d4 77 bc 22 ca 90 3d bd 0d ad bd 35 f0 97 3d
       -0.015126418 0.07069804 -0.08449886 0.07418863
0001a0 e4 f4 b3 bd 22 a6 b4 3d 3d 9f c2 3a 8f d9 92 3d
       -0.087869436 0.0882075 0.0014848482 0.07170402
0001b0 02 20 11 bd d0 28 b3 bc 79 08 02 bd 10 c8 80 3c
       -0.035430916 -0.021870047 -0.03174636 0.015720397
0001c0 68 e2 a8 b9 9a a6 5c bd 76 41 75 bc 64 1e 02 3d
       -0.00032212143 -0.05386982 -0.01496922 0.031767264
0001d0 69 54 a1 bd 08 26 3d 3d b1 5f 92 3d e7 f4 a2 3d
       -0.07877428 0.046178848 0.07147158 0.07956868
0001e0 21 00 94 3d 1b 9d 80 3d 76 c6 1b bc 37 ce a5 b8
       0.07226587 0.062799655 -0.009507766 -7.9062236e-05
0001f0 e7 82 77 3d 50 a2 8e 3b b4 49 aa bd b5 ea a2 3c
       0.060427573 0.0043528453 -0.08314839 0.019887308
000200 11 04 51 bd b6 1b 9c 3d ca bc 0e bd af 31 80 3d
       -0.05102927 0.07622473 -0.034848012 0.062594764
000210 fe 4e 52 bd bc f4 8e bd 73 a3 94 3d 54 82 0f 3d
       -0.051344864 -0.06980273 0.07257738 0.0350364
000220 5a b5 66 3d 2d c9 c1 b8 1f 7f 11 3d d4 ea 1a bd
       0.056325294 -9.240429e-05 0.035521623 -0.037821606
000230 c9 17 0a bd 25 0b b5 bc 52 c9 a7 bd 97 8a a2 3c
       -0.03371409 -0.02210004 -0.08192696 0.019841475
000240 b4 f8 c6 bc cd 09 89 bd df 94 53 3d 66 48 90 3d
       -0.024288513 -0.066913225 0.051655646 0.07045059
000250 9f bd 9d 3c 82 60 49 3d 40 99 8e 3d 68 d4 64 3c
       0.019255457 0.049164303 0.06962824 0.013966657
000260 d6 d2 b4 bc c3 b4 9f 3d 83 1c 3c bd f3 8f 21 bd
       -0.02207319 0.077981494 -0.04592563 -0.03944392
000270 44 9a 49 3d f5 41 63 bd c6 d2 8b bd 02 cc 5e bd
       0.049219385 -0.055482823 -0.06827311 -0.054393776
000280 46 0c bf bc 24 3c f0 bc 16 fc af 3d 99 61 76 bc
       -0.023321282 -0.029325552 0.085930035 -0.0150379175
000290 6e 90 2d bd 5f 48 58 bd ef 5e 93 bd 82 9e 9e 3c
       -0.042374067 -0.052803393 -0.071958415 0.019362692
0002a0 9f 05 85 bd c6 07 5d bd e7 1a 60 3c 27 3e f6 3c
       -0.06495213 -0.05396249 0.013678289 0.030058933
0002b0 cf 03 b1 3d e1 e7 85 3d 5c ba a1 bd fb 87 81 3c
       0.086433046 0.06538368 -0.07896873 0.01581191
0002c0 83 a4 d8 bc 68 b4 83 bd 98 54 ac 3d c3 c3 0f 3d
       -0.026445633 -0.06430894 0.084145725 0.035098802
0002d0 f6 df 23 bd 3b 7b f1 3c 31 77 7f 3d ab a0 96 bd
       -0.040008508 0.029477706 0.06236953 -0.07354864
0002e0 97 1e 22 3d 63 d0 d1 3a e3 b3 11 3d a0 40 1e bd
       0.039579954 0.0016007539 0.035571944 -0.03863585
0002f0 3e 1f d6 bc 79 37 87 3d 60 c1 a0 3d d8 72 c8 bc
       -0.026137944 0.066023774 0.07849383 -0.024468824
000300 c1 d6 a2 bd 78 79 c3 3c 25 37 45 3d 77 30 95 3d
       -0.07951117 0.023861632 0.048148293 0.072846346
000310 f5 66 bf 3c 57 4e 85 bd af 87 2f 3b c6 76 24 3d
       0.023364523 -0.06509083 0.0026783755 0.040152334
000320 9a 23 95 bd a6 6b b8 bc a0 df 73 bd 4f e9 e2 3c
       -0.07282181 -0.022512268 -0.059539437 0.02769914
000330 af 32 7a 3d 2e 62 39 bc de 15 2d 3d 4c e3 a9 3c
       0.061083492 -0.011314912 0.042257182 0.020738266
000340 ea 38 2e bd cb 85 22 3d 6c e2 a6 3d 81 6f 02 bd
       -0.042534746 0.039678376 0.08148655 -0.03184462
000350 99 95 b8 3c 9f ce 84 bd de ff ce bc e8 9e 21 bd
       0.022532271 -0.06484722 -0.025268491 -0.039458185
000360 53 e7 a2 bd 0e f8 8f 3d 2f eb 85 3d 2b 08 b8 3c
       -0.07954278 0.070297346 0.06538998 0.022464832
000370 b3 6c d1 3c 21 81 f2 3c 98 91 91 3d f1 53 78 bd
       0.025564527 0.02960259 0.07107848 -0.060626928
000380 07 c0 35 bd 3d ae ac 3d 6b c1 a4 bc 8d c7 44 3d
       -0.044372585 0.08431671 -0.02011176 0.04804187
000390 ef 22 65 bd 11 2e 12 bd a1 9f 97 3d 1e d2 5c 3c
       -0.05594152 -0.035688464 0.07403494 0.01347783
0003a0 e2 97 24 bb dd 56 8e bc 86 25 a8 bd 6b 2e 8f 3d
       -0.0025114943 -0.017375404 -0.08210282 0.069912754
0003b0 20 ea 50 bc 37 70 9a bd c1 a2 91 3d e5 e7 87 3c
       -0.012751132 -0.075409345 0.07111121 0.016590068
0003c0 67 31 53 3c a4 79 10 bd 8d 1d e7 bc 58 5b 8b bc
       0.012890196 -0.035272256 -0.028212333 -0.01701133
0003d0 e5 bc 8e 3d 74 95 74 3d fc 40 97 3d aa 5d 8f bd
       0.069696225 0.059712842 0.07385442 -0.07000287
0003e0 2d 57 9b bd 79 d4 b1 3d 95 ab 8f 3d 26 f9 21 bd
       -0.07584987 0.08683104 0.070151486 -0.039544247
0003f0 59 21 3a 3d 2d c0 b1 3d 8d 19 18 bc 3a 72 a8 3d
       0.04544196 0.08679233 -0.0092834355 0.08224912

rnn.bias_hh_l0 f4 [384]
000000 29 16 ff bb 6e a1 9d bd cc 1b 10 bd 6f 17 34 bb
       -0.007784624 -0.07696806 -0.03518276 -0.0027479788
000010 ab a8 69 bd 0d d0 33 bd 45 5e 04 bd af be f2 bc
       -0.05704562 -0.043899585 -0.032316465 -0.02963194
000020 90 c8 b1 bc 15 55 a0 bd 57 e5 11 3d 56 d8 a0 ba
       -0.021702081 -0.07828728 0.035619106 -0.0012271504
000030 6a 04 f6 3c 8e 41 34 3b a2 89 a6 3b 27 ef a7 3d
       0.030031402 0.0027504894 0.005082325 0.081999116
000040 f4 75 8a bc 1b 49 6e bd a4 30 82 bc 0a 5c 91 3c
       -0.016901948 -0.058175188 -0.015892334 0.017744083
000050 37 35 2d 3d d9 de 0f 3b cb a1 4c 3d d8 4d 3d bd
       0.042287078 0.0021952896 0.049958985 -0.046216816
000060 cb ab 8a 3d 03 e0 62 bd 7e c2 92 bd b0 f8 98 3d
       0.06771048 -0.055389415 -0.07166003 0.074693084
000070 86 2e 25 3d 0c cb 87 bd 7c a1 ce bb 35 54 97 bc
       0.04032757 -0.06630525 -0.0063058715 -0.01847277
000080 12 fc a3 3d f9 80 45 bd 43 5b 54 bd 3c bc f4 bc
       0.08007063 -0.0482187 -0.051844846 -0.029874913
000090 cd 62 ac 3d ff 00 a9 bd 82 53 49 3d f8 e9 8b bd
       0.08417282 -0.08252143 0.049151905 -0.068317354
0000a0 a8 f5 86 bc 07 6d 4c bd da c4 0c 3d a1 3a 05 3d
       -0.01647456 -0.049908664 0.03436742 0.032526616
0000b0 ec 90 69 3d f1 6b ee bb 7c 59 40 bd e4 5c 87 bd
       0.057022974 -0.007276051 -0.04696034 -0.06609514
0000c0 d8 0b f1 bc e8 f8 a6 bd 85 12 03 3b b6 07 87 3d
       -0.029424593 -0.08152944 0.0020000052 0.065932676
0000d0 ea f6 7b bb d0 18 7c bd cb 65 34 3c 17 55 dd 3c
       -0.0038446733 -0.0615471 0.011010597 0.027018113
0000e0 b6 ac 37 bd 3a 80 a0 3d 6e ee 22 3d f0 cb 24 bd
       -0.044842444 0.07836957 0.039778166 -0.040233552
0000f0 29 8c 4e bb b7 00 14 bd 8a 12 0d bd 04 eb 82 bd
       -0.0031516647 -0.036133494 -0.03444151 -0.06392482
000100 ec f4 2b bd e1 96 75 bd 2b a5 45 bc 8f 6f 37 bc
       -0.041981623 -0.059958342 -0.012063305 -0.011196031
000110 4d 2d 97 bd 47 59 a4 bd 32 0d 67 bc ea 4e 7a 3d
       -0.07381687 -0.08024841 -0.014102267 0.061110415
000120 03 89 a7 bd 61 94 2a 3d 32 13 87 bd 13 a3 b1 bd
       -0.0818043 0.04164541 -0.06595458 -0.08673682
000130 24 b3 20 3d f6 32 aa 3c 8e 2d a3 3d f7 16 b4 bd
       0.03923334 0.020776253 0.07967673 -0.08793443
000140 6a c8 23 3d 2c 3c bc bc 6f 7d ac 3c 13 0b b2 bc
       0.03998605 -0.022977911 0.021055905 -0.021733796
000150 07 b9 b5 bc 18 0a 8d 3d 9e b1 12 bc ba be 57 bd
       -0.022182954 0.06886691 -0.00895348 -0.052672125
000160 fe 5f af bd ca b1 f0 3c f6 c0 43 3c 0e da 03 3c
       -0.08563231 0.029381651 0.011947861 0.008047594
000170 7b f4 25 3d a3 5e 3a 3d 2c b4 f3 bc d4 db 21 bd
       0.040516358 0.04550041 -0.029748999 -0.039516285
000180 c2 99 fc 3c 5c 75 88 bd 17 e8 7b bc 84 80 31 3d
       0.030835036 -0.066630095 -0.015375159 0.043335453
000190 67 72 81 39 76 39 63 bd 49 d5 3b bc c9 a3 ad bd
       0.00024690034 -0.05547472 -0.011464425 -0.08478505
0001a0 45 77 3b 3d 12 b6 bd 3b 05 83 9e 3d e0 df 87 bd
       0.04576804 0.0057895267 0.07739834 -0.06634498
0001b0 64 b4 61 bd c0 02 99 bd c4 57 53 3d 9d 82 3b bd
       -0.055103675 -0.07471228 0.05159737 -0.04577886
0001c0 7e de 9b 3c ea 2b 2b bd c1 fe 65 bd ba 05 9f 3d
       0.019026991 -0.041789927 -0.056151155 0.07764764
0001d0 23 ca 49 bd 8a b6 9d bd 25 a5 9f 3d 6a 11 75 bb
       -0.04926504 -0.07700832 0.07795171 -0.0037394413
0001e0 0b 96 f2 3c 08 f8 88 ba 87 ab 85 3c 62 38 53 3d
       0.029612562 -0.0010449896 0.016317142 0.051567443
0001f0 3f 15 5a bc 58 67 93 bc 2b e9 a7 3d d3 09 b3 3d
       -0.0133107295 -0.017993614 0.0819877 0.08742108
000200 c1 1f d5 3c 56 26 a0 bd 12 70 95 bd 6c 9c 94 3c
       0.026016118 -0.07819812 -0.07296766 0.018140994
000210 e3 3f 00 3d 72 23 9c 3d 43 b8 57 3d 46 58 6e bd
       0.031310927 0.07623948 0.05266596 -0.058189653
000220 a8 fb ac 3c 84 a0 8b 3c 36 3e 2b bc 62 09 39 bd
       0.021116093 0.017044313 -0.010451844 -0.045174964
000230 03 0f 16 3d 87 a3 cc 3c 0f 27 16 bd 19 7a 9e bd
       0.03663541 0.02498032 -0.036658343 -0.07738132
000240 57 bf af 3d d0 23 3d bd 1e 35 42 3c 2a 84 3c 3d
       0.08581417 -0.04617673 0.011853484 0.04602448
000250 68 27 3f 3d 72 a2 22 3d d5 8f b9 3c 14 79 b9 bc
       0.04666844 0.0397057 0.022651592 -0.022640742
000260 26 01 04 3d de 30 a6 bd 45 95 73 bd 1a 0a 0a bc
       0.032227658 -0.081147894 -0.059468526 -0.00842526
000270 ea 6c 16 bd 3c 60 8f 3d 4d bd e8 bb a2 49 9c 3d
       -0.036724962 0.07000777 -0.0071026445 0.07631232
000280 d8 8f ac 3d 1a f0 12 bd b9 cc b0 3b 66 61 c0 bc
       0.084258735 -0.03587351 0.0053954986 -0.023483943
000290 55 0b 56 bd ab bd a7 3d 82 6f 76 3c 7b e2 3c bc
       -0.0522569 0.08190473 0.015041234 -0.0115286065
0002a0 39 cf 5d bd ec f6 89 bd 5e 82 84 3d 8f 70 b4 3c
       -0.0541527 -0.0673655 0.06470178 0.022026328
0002b0 6b 19 aa bd 97 03 5c bc 35 13 b5 bd 59 99 0e bd
       -0.08305629 -0.01342859 -0.08841554 -0.034814212
0002c0 3e 3e 29 3d 6a d4 1d bc f9 d0 68 bd d0 5c 8f 3c
       0.041319124 -0.009633163 -0.056839917 0.017500311
0002d0 e5 19 01 3d 45 f1 c7 bc 06 cb 3a bd af e1 8a 3c
       0.031518836 -0.024407038 -0.045603774 0.016953317
0002e0 2f 12 7c bd c0 9b 4a bd 9e 89 cc bc 74 98 84 bd
       -0.06154078 -0.04946494 -0.024967965 -0.064743906
0002f0 c2 d1 a5 3d 77 e5 63 bd e4 2c 3b 3d d2 38 99 bd
       0.08096649 -0.055638757 0.045697108 -0.07481541
000300 14 de be bc 70 ea 72 3d 0e 03 8b 3d 59 2d 6e 3d
       -0.023299254 0.05930561 0.06787692 0.058148716
000310 28 05 34 3d 9c 2e 6d bd 8b 33 41 bd e4 6c b2 bd
       0.04395023 -0.05790578 -0.047168296 -0.087121755
000320 db e1 22 bc b0 3c 6b 3d 23 53 9e 3d 52 ee 13 bc
       -0.009941543 0.057430923 0.07730701 -0.009028988
000330 eb e3 08 3c 53 30 2f bd 26 4b 60 3d f6 ee af 3a
       0.008355121 -0.042770695 0.054759167 0.0013422656
000340 2e 30 1c 3c 78 ee be 3c 34 32 44 bd 6f 6b 9f 3d
       0.009532971 0.02330707 -0.04789944 0.07784163
000350 3b db 81 bd 0d 9f a4 bc b5 e8 9a 3d 2b bc 99 bd
       -0.06340643 -0.020095373 0.075639166 -0.07506593
000360 27 2e ae bc d8 15 85 3d f8 26 5d bc f4 b2 a8 bd
       -0.021262242 0.06498307 -0.01349806 -0.082372576
000370 0f d3 5b 3d ba 75 79 bd 91 5b d9 3b 1c cb 85 3c
       0.053668078 -0.06090329 0.00663323 0.016332202
000380 f3 b9 01 bd 73 49 20 bd 79 f4 b2 3c 08 3b 80 3d
       -0.031671476 -0.039132547 0.02184509 0.06261259
000390 3d 88 f1 3b 61 d1 1c 3d 3e 7a 38 3d 41 72 f9 bc
       0.007370977 0.038285617 0.045038454 -0.030449988
0003a0 fb 10 2e 3d ce a6 5c bd 0f 99 20 3d 7d 13 0d 3c
       0.042496663 -0.053870015 0.039208468 0.008610603
0003b0 f4 6e f8 bc 1c 76 8e bd 31 2c 4f bc 97 c8 a1 3d
       -0.030326344 -0.06956121 -0.012644813 0.078995876
0003c0 b8 bb 90 bd e0 2f 31 bd 32 fd b4 3d bc 95 9e bc
       -0.070670545 -0.043258548 0.08837356 -0.019358508
0003d0 f4 89 9d bd 18 6a 4c 3d 01 f1 4b bb f5 fe f2 bc
       -0.07692328 0.049905866 -0.0031118991 -0.029662589
0003e0 3d 84 89 bd e5 12 43 bb 86 d0 0e 3d f0 a2 30 3d
       -0.067146756 -0.00297659 0.034866832 0.04312414
0003f0 48 e1 a3 3d e0 02 a0 bc b9 9b b2 3c 1a ff 8f bd
       0.08001953 -0.01953262 0.02180277 -0.07031079

rnn.weight_ih_l1 f4 [384, 128]
000000 1b 62 da bc db 30 a1 b9 2b 66 48 bd 64 3c 9f bc
       -0.026658108 -0.00030744713 -0.04892556 -0.019437976
000010 49 6f ac 3d 14 60 e9 bc 94 41 03 3c 81 ab 9a bd
       0.084196635 -0.028488196 0.0080112405 -0.07552243
000020 c8 21 52 bd b4 07 aa 3d 4b b0 49 3c a0 45 aa 3d
       -0.051301748 0.083022505 0.012310098 0.08314061
000030 51 b5 eb 3c 9c 73 9e bd 74 0a 94 bc f0 e9 25 bc
       0.028772982 -0.077368945 -0.01807139 -0.010126576
000040 0b f9 aa bd fa de 4b 3b dc c0 0b 3d c1 ce d7 b9
       -0.083482824 0.0031108246 0.034119472 -0.0004116204
000050 e8 44 45 bd cf 26 ae 3c 44 dd 8c bd 40 f2 91 bd
       -0.048161417 0.02125874 -0.068781406 -0.07126284
000060 a9 b7 25 3d 07 1e 2f 3c 94 b3 48 3d 8e 5c 2c bd
       0.040458355 0.010688311 0.048999384 -0.042080455
000070 c9 13 a5 3d 4b a2 51 3d 3c 22 d8 3c 41 0e 6f bd
       0.08060414 0.051180165 0.026383512 -0.058363203
000080 a8 02 0b bd bd 7b a4 bd b9 60 ea bc 1f 36 25 3d
       -0.03393808 -0.08031414 -0.028610574 0.040334817
000090 76 1f 0b bd 8e b2 97 bd 7f c1 9a bd 1e 6b 28 bd
       -0.03396555 -0.074071035 -0.07556438 -0.04111778
0000a0 62 e6 ee bb 8c 1d 2c bd 5d 7d 59 bd 8f 40 ee bc
       -0.0072906474 -0.042020366 -0.05309807 -0.029083518
0000b0 b0 10 38 bd 76 cd 15 3d ca ae ea 3c a9 6f a3 3d
       -0.04493779 0.036572896 0.028647799 0.07980282
0000c0 b0 03 f7 3c 62 ac 48 3d 59 83 a7 3c a3 e9 f5 bc
       0.030153126 0.048992522 0.020448374 -0.030018633
0000d0 e0 27 58 bd 9b 34 22 3d 26 ff dd bc 29 97 6f 3c
       -0.052772403 0.03960095 -0.027099203 0.014623442
0000e0 88 42 99 3d 93 94 e1 3b c8 ac df 3c 50 7f 5e bd
       0.07483393 0.0068841665 0.027304068 -0.054320633
0000f0 ba 81 60 3b 93 b6 36 3c b1 f0 e7 bb b2 02 8e 3d
       0.003425701 0.0111519275 -0.007078253 0.06934108
000100 d8 96 a6 bd 24 39 a9 bd fe a5 16 bd f7 d1 82 bd
       -0.0813424 -0.08262852 -0.036779396 -0.06387704
000110 b7 12 14 3a f6 c6 f6 bc 5c 00 96 bd 15 cd f0 3b
       0.00056485407 -0.030124169 -0.07324287 0.0073486664
000120 ee 08 94 bb 2d 2a 5b bd 76 39 8a 3d 4b 1d ce bc
       -0.004517666 -0.05350702 0.06749241 -0.025160452
000130 10 36 4c 3d 66 b5 a6 bd db 19 9d bc 33 ed 9a 3c
       0.049856246 -0.08140068 -0.019177368 0.018911934
000140 05 f3 88 3d 3d 1e 8e bd 38 cb 8c bd 9a ca 82 bd
       0.06686977 -0.06939361 -0.068746984 -0.063862994
000150 95 f6 cd 3c 8e 5b 9d 3d 5d 80 ce 3c 1a 74 39 3d
       0.025141994 0.07683478 0.025207693 0.04527674
000160 09 10 ec bb ac 68 a0 bd 72 a1 8c bd f1 88 b3 bd
       -0.00720406 -0.078324646 -0.06866731 -0.08766354
000170 83 2b 37 bc 06 c4 f0 3c c9 d3 b4 3c 41 ab 4d bd
       -0.011179808 0.029390346 0.022073643 -0.05021215
000180 43 5d 80 bc 59 b1 ca bc 63 c5 8b bd 2e 17 c2 bb
       -0.01566947 -0.02474277 -0.06824758 -0.0059231734
000190 dc d1 aa bd f2 18 5e 3d ba 03 1e 3c 5d 3b 10 bb
       -0.08340809 0.05422301 0.009644443 -0.002200804
0001a0 62 1a 8c 3d 40 aa a4 3b b5 60 9b bd 32 ef 97 bc
       0.068409696 0.005025178 -0.07586805 -0.018546674
0001b0 c7 0f aa 3c 13 d4 5c 3d 3b 79 d1 bc f3 0b 79 3d
       0.020759476 0.053913187 -0.025570503 0.06080241
0001c0 d8 4d 4e bd 49 38 61 bb 8d 4d 6d bd cf f1 8f 3b
       -0.050367206 -0.0034365824 -0.057935286 0.0043928395
0001d0 41 63 d8 3c 52 f7 ca 3b 8f b9 2e bc c5 79 b5 3d
       0.026414515 0.0061940337 -0.010664358 0.08861116
0001e0 3e 1b 83 bd 3c 61 27 bd a1 45 a7 3d 17 9d 58 3c
       -0.064016804 -0.040864214 0.081675775 0.013221047
0001f0 fd c5 49 bd 69 d8 a5 bb 00 f3 5b bd 69 df 3a 3c
       -0.049261082 -0.0050611985 -0.05369854 0.011405804
000200 8a 00 93 bd e7 71 17 3d cd 74 40 3d 98 af b1 3d
       -0.07177837 0.03697386 0.04698639 0.0867607
000210 3e 93 9e bd 42 d4 95 bd 84 bc 96 3d 62 a5 3c ba
       -0.07742928 -0.073158756 0.07360175 -0.0007196275
000220 c9 f5 6d bd 0c 37 03 3d 51 cb cc bc 60 a6 6e bc
       -0.058095727 0.03203492 -0.024999293 -0.014566034
000230 56 b6 b1 3d 6e b0 b5 bd dc 85 8b 3d a6 d1 7b 3d
       0.08677356 -0.08871542 0.06812641 0.061479233
000240 df 39 ae bd 89 a3 b2 bd de dc 7f bd 21 f8 b2 3d
       -0.08507132 -0.08722598 -0.062466495 0.08738733
000250 37 b1 a1 bd 2a 90 12 3d 33 83 0d 3d da 1e 21 bd
       -0.07895129 0.035782017 0.03454895 -0.039336063
000260 7e 58 b1 bd 3a 25 26 3d 42 4b 3a 3d c2 3d 24 3c
       -0.08659457 0.040562846 0.045481928 0.01002449
000270 94 5b fa bc 02 85 0f 3d ff c6 e3 bc 10 02 9c 3d
       -0.030561246 0.035038956 -0.02780485 0.07617581
000280 f0 14 0b 3d e1 f5 a2 bc 5e 39 e7 3c 6c 46 2f 3d
       0.033955514 -0.019892635 0.028225597 0.04279177
000290 0e 33 d7 3a 8a 6a d3 3c ed 86 6b 3d 09 df 4c bc
       0.0016418414 0.025807638 0.057501722 -0.012504348
0002a0 bc ad 4f bd 38 ce ab bc e9 e5 31 bc d3 5f 0c bc
       -0.050702795 -0.020972356 -0.0108580375 -0.008567768
0002b0 2d 95 05 3d 10 09 50 bd 57 1a 51 bd 8a 23 1c bd
       0.03261297 -0.050789893 -0.05105051 -0.03811983
0002c0 b4 9c b3 bc 1c 4f 15 3d 78 db 8f 3c 60 7d 95 3d
       -0.021925308 0.036452398 0.017560706 0.07299304
0002d0 71 1d 34 3d fc 02 e5 3c c1 bd 94 3d 3a cd 14 bd
       0.04397339 0.027955525 0.07262755 -0.03632853
0002e0 d2 8e c9 bc c8 85 0a 3d 48 59 47 3c ec ba dd 3b
       -0.024604235 0.03381899 0.012167282 0.0067666676
0002f0 c3 6f a2 3d e9 bc aa bd 89 5c 6a bc 85 58 27 bd
       0.07931473 -0.08336813 -0.014304289 -0.040855903
000300 f3 09 6b 3d 71 14 aa 3b ff 18 57 3d 9b 1d 3d bd
       0.057382535 0.005190425 0.052514073 -0.046170812
000310 00 90 18 3d 79 dd 6e 3d 98 19 81 bd fc 67 a6 bc
       0.037246704 0.05831668 -0.0630371 -0.020313255
000320 59 e4 ab bd 1b 89 97 bd ab 89 75 3d 0b be 78 3d
       -0.08393163 -0.07399198 0.059945744 0.060728114
000330 36 63 67 3d 59 d0 83 bd ca a3 ed 3c e7 ea c0 bc
       0.0564911 -0.064362235 0.029008765 -0.02354951
000340 d5 96 1b bd 35 6c 39 3d 65 ca 57 3b c8 29 06 3d
       -0.03798564 0.04526921 0.0032927033 0.03275469
000350 e4 55 ad 3c 10 b3 95 3d b2 f4 84 bc b1 51 72 3d
       0.02115912 0.07309544 -0.016229961 0.05915994
000360 9d a9 cd 3c b2 75 37 3d e3 45 84 3d 91 02 b2 bd
       0.025105292 0.044789977 0.06458642 -0.08691896
000370 93 9e 26 bb 38 f6 68 3c da 57 3a 3c 6e 10 ab 3b
       -0.0025424107 0.014218859 0.0113734845 0.0052204644
000380 f9 0b 5e 3d 6a 0d 8b 3d 8f 96 0f bd 70 16 34 3c
       0.054210637 0.06789668 -0.035055693 0.010991678
000390 e4 99 e7 bc 51 6a 5e 3c d4 63 ae 3d b0 b7 02 bd
       -0.028271623 0.0135751525 0.085151345 -0.03191346
0003a0 a9 ee 99 bd 00 d0 5c 3d 8a 22 9c 3d cc 4e 7f bd
       -0.07516224 0.0539093 0.07623775 -0.062331006
0003b0 f4 cd b4 bd d2 f6 a7 3c 0b b8 7a 3d c8 98 97 bb
       -0.08828345 0.020503435 0.061210673 -0.0046263672
0003c0 02 d3 71 3d 56 db ba bc 31 20 b6 bd c5 c0 ce 3c
       0.059039123 -0.022809666 -0.08892859 0.025238404
0003d0 7b 6e b5 3c a3 d4 31 3d 79 7c b2 bb 9a 97 63 bd
       0.022147408 0.043415677 -0.005446967 -0.0555645
0003e0 f1 7d 79 3d 6d d9 0c 3d df dd 6e bb 2c fc 92 3d
       0.060911123 0.03438704 -0.0036448163 0.07177004
0003f0 a8 1c 97 bc be c8 aa bd 6f c1 99 3d c6 97 ad 3d
       -0.018446282 -0.0833907 0.07507598 0.08476214

rnn.weight_hh_l1 f4 [384, 128]
000000 c4 d6 03 bd e2 43 79 3c 35 38 a8 bd 33 37 58 bd
       -0.03218724 0.015213938 -0.08213846 -0.052787017
000010 79 83 31 3d fe a7 84 3d d9 a9 39 bc 50 24 fd bc
       0.043338273 0.064773545 -0.011331999 -0.030901104
000020 38 2d 79 bd ed 63 b9 3c 98 66 7d bd 18 11 02 bc
       -0.06083414 0.022630656 -0.06186542 -0.007938646
000030 6c 4b a4 3d 2e 3b 9a bd c5 0c 1f bc f0 22 e6 bc
       0.08022198 -0.07530819 -0.009707634 -0.028092831
000040 9e a4 25 3d 7f cf 05 3d f2 6e 5c bd 30 fb 94 3d
       0.040440194 0.032668587 -0.053816743 0.07274473
000050 66 cd b6 3c ab 96 3f bd 35 63 5f bd 53 a0 5e bd
       0.022314738 -0.046774548 -0.05453797 -0.054352116
000060 5d 4c 70 bd de 4f e3 bc dc 54 44 3d 1e aa 9b 3d
       -0.058666576 -0.027748045 0.04793249 0.07600807
000070 d5 37 78 3d 81 b4 8c 3d 92 62 43 3d 70 c4 94 3d
       0.06060012 0.06870366 0.047701426 0.0726403
000080 ac 05 89 bd 3b 27 92 bd f6 da 78 bd 87 fd 52 bd
       -0.06690535 -0.07136389 -0.060755692 -0.051511314
000090 8c 5c b5 bc 22 5f 5c bd 8a e6 9e 3c 3d bf c5 3b
       -0.022138856 -0.053801663 0.019397039 0.0060347603
0000a0 af 84 4e 3c 95 cc 86 3d de 27 5f 3c e8 21 19 ba
       0.012604876 0.0658199 0.013620345 -0.0005841539
0000b0 28 39 85 3c 0d 45 9e 3c b8 cc 44 bd c3 db 3b 3d
       0.016262606 0.019320035 -0.048046798 0.045863878
0000c0 18 5e 35 bd 83 37 42 3d e6 ed 17 bd 84 e1 9d bb
       -0.044279188 0.04741622 -0.037092112 -0.0048181433
0000d0 1d 0e 9e bd 03 48 45 3d b5 eb 8a bc ed ad 61 bd
       -0.07717536 0.04816438 -0.016958097 -0.05509751
0000e0 b0 4b a5 bc d0 a9 4c 3d c7 8d e7 bc 8d 8e a9 3d
       -0.020177692 0.049966633 -0.028265847 0.082791425
0000f0 fb 81 e4 bc 65 ba 14 bd 74 f1 f8 bb 09 2e 93 3d
       -0.02789401 -0.036310572 -0.007597143 0.07186515
000100 c4 5f d0 ba b1 d5 db 3b 28 cf 09 3d ac 9b a1 bd
       -0.0015897681 0.0067088236 0.033644825 -0.0789102
000110 a1 94 37 3d d4 2e 81 bb d9 dc 01 bd 7f d2 fc 3a
       0.044819478 -0.00394235 -0.031704757 0.0019288807
000120 a8 38 a2 3d 91 21 06 bc 4c 97 ec 3c 98 ed bd bb
       0.079209626 -0.008186714 0.028880738 -0.0057961456
000130 3c 3d 85 3d 88 06 79 3d d6 c3 32 3d 79 1f 10 3c
       0.0650582 0.060797244 0.043643795 0.008796566
000140 1e 3f 67 bd 43 e6 c4 39 b8 d6 1a 3d b5 d8 47 bc
       -0.056456678 0.00037555592 0.037802428 -0.012197663
000150 a4 31 e1 bc 44 1b 3a bc 4c 99 b1 bd d8 4a 8c 3d
       -0.02748949 -0.01135904 -0.08671817 0.06850213
000160 49 15 07 bd 08 82 61 3d 09 42 78 3d e9 b3 76 bd
       -0.032979283 0.055055648 0.06060985 -0.06023017
000170 e1 20 b5 bd 23 ad 11 3d 6a 33 55 3c 7a 0e c8 bc
       -0.08844162 0.035565507 0.013012746 -0.024420965
000180 44 00 bb bb a9 bb c2 bc 4a bd 9c bd fb ee b7 3b
       -0.005706819 -0.023771124 -0.076532915 0.0056132055
000190 9a b7 6e bd 7a 1a 69 bc 4e 34 1d 3d b8 e5 75 bd
       -0.058280565 -0.014227504 0.03837996 -0.06003353
0001a0 d1 6d e1 bc 90 71 3c 3d 9b 75 af bc 51 a8 ee 3b
       -0.027518185 0.04600674 -0.021418383 0.0072832485
0001b0 67 18 c6 bc be 22 8e bd 80 b1 1f bc 7a 34 81 3d
       -0.024181558 -0.0694022 -0.009746909 0.06308837
0001c0 80 f6 1b bc 30 17 61 3d 3f 56 83 bd bc c5 2f 3d
       -0.009519219 0.054953754 -0.064129345 0.042913184
0001d0 50 78 07 3d 8f 68 71 bd 8a ea 71 3d e6 26 70 3d
       0.033073723 -0.058937605 0.059061565 0.058630846
0001e0 69 ce bb bb 9a 02 7d 3d c6 d5 b0 39 56 28 97 bc
       -0.005731393 0.06177006 0.0003372861 -0.01845185
0001f0 e1 6c 1e bd 9b 61 d8 bc 80 0f 00 bd ea 31 79 bd
       -0.038678054 -0.02641373 -0.031264782 -0.060838617
000200 76 16 8f bd ce 58 a0 3d b6 d2 dc 3b ba 77 8e bd
       -0.06986706 0.07829438 0.006738986 -0.0695643
000210 63 85 c5 3c 63 5e bb 3c 84 72 2e bd 81 e7 00 bc
       0.024111455 0.022872156 -0.04258968 -0.007867695
000220 d7 0d 44 3d af 0e d2 3c b6 61 8b 3d 14 9b 18 bd
       0.04786476 0.025641767 0.06805746 -0.03725727
000230 cb e5 9d 3c 4e 4c 45 3d 6e c9 df 3c e7 55 24 bd
       0.019274613 0.048168473 0.027317729 -0.040120985
000240 85 03 91 ba f6 a7 a1 bc fc 60 6c 3c 81 f3 8c bd
       -0.0011063671 -0.01973341 0.01442742 -0.06882382
000250 27 a4 6c bd 06 99 17 3d f3 f4 80 3d 78 58 a1 3d
       -0.057773735 0.03701117 0.0629672 0.07878202
000260 31 b6 dd 3c d2 95 9e 3d 78 d2 f6 3c 3b 04 aa bd
       0.027064415 0.0774342 0.030129656 -0.08301588
000270 f6 23 54 bd 88 12 a3 bd 60 6c 45 3d b2 bb 91 bd
       -0.051792108 -0.07962519 0.048199058 -0.07115878
000280 66 e5 41 3d 51 45 41 3d 9b 21 8f 3d a1 1a 4c bd
       0.047337912 0.047185246 0.069888316 -0.049830083
000290 f1 31 30 bd 49 08 03 bd 48 b2 97 3d 91 49 7d bc
       -0.043016378 -0.031990323 0.07407051 -0.015459434
0002a0 d9 b3 17 bd a4 d9 d4 3c 83 22 ae 3d 73 03 09 3d
       -0.03703675 0.025982685 0.08502676 0.033450555
0002b0 6e 3a a0 3d 62 eb 02 bd 5b 46 fd 3c 9c e4 d1 bc
       0.078236446 -0.03196276 0.030917337 -0.025621705
0002c0 d3 7c 9c bd 4b 02 da bc 8a 45 d2 bc d0 76 b6 3c
       -0.07640996 -0.026612421 -0.025667924 0.022273451
0002d0 07 10 9d 3d 15 37 a2 bd e6 28 05 bd f7 de 53 bd
       0.076690726 -0.07920662 -0.032509707 -0.051726308
0002e0 77 f7 95 3d 1f 08 44 bd 0f 8e df bc fa 61 91 bc
       0.07322591 -0.047859307 -0.027289419 -0.017746914
0002f0 ee d5 43 3b 82 4c f9 bc e8 5d 8d 3d 73 f7 e7 bc
       0.002988215 -0.03043199 0.06902677 -0.028316235
000300 7b 50 af bd ee 7e 46 bd f9 7a 83 bd f2 ad 3c 3d
       -0.08560272 -0.048460893 -0.064199395 0.046064325
000310 45 14 88 3d ed 0e c2 bc 02 7e 91 bb bf 38 90 3d
       0.06644491 -0.023688758 -0.00444007 0.070420735
000320 c6 e2 6a 3d 03 0d f8 3c 6e ea aa bd 92 c7 a8 bd
       0.057345174 0.030279642 -0.08345495 -0.0824119
000330 2e d8 86 bc 59 f4 f4 3b af de 51 bd 15 5f 80 bd
       -0.016460504 0.0074754176 -0.05123776 -0.062681355
000340 29 7e 08 3c 62 35 dd 3a 22 f8 17 3b 1a 7f 89 3d
       0.00833086 0.0016876871 0.002318867 0.06713696
000350 a7 be 28 3b e6 f4 93 3d 8b 16 9e 3d ba ca b1 bc
       0.0025748403 0.07224445 0.077191435 -0.021703113
000360 9d 4b a7 bd 30 f2 a2 3c 65 ca 66 bb 43 ca 75 bd
       -0.08168719 0.019890875 -0.0035215851 -0.060007345
000370 e2 ea 3b bd 4e 83 82 3d 2e 67 36 3d 6c 46 7c bd
       -0.0458783 0.06372701 0.044531994 -0.061590597
000380 ea e2 65 3d 9f d6 80 3d 32 00 e4 bc 71 cb 9e 3d
       0.056124605 0.06290936 -0.027832124 0.07753647
000390 54 ff 69 3c 23 c1 96 3d db 9a bf 3b fc e7 5c 3d
       0.014282066 0.07361057 0.0058473176 0.053932175
0003a0 ab b0 0f 3d ce e4 22 bd 7a 1c e5 bc 86 34 fd 3b
       0.035080593 -0.039768986 -0.02796768 0.0077272085
0003b0 86 1c 8a bd f7 1f 52 bd 15 82 3c bd af d4 ae bd
       -0.06743722 -0.051300015 -0.046022493 -0.0853666
0003c0 dc fe 54 bd e6 e4 78 bc 0b 5d ac bc 72 c9 43 bd
       -0.052000865 -0.015191292 -0.02104046 -0.047799535
0003d0 4b b5 a4 3d df 35 ef 3c 78 cc c4 3c b6 a1 d0 3c
       0.080423914 0.029200492 0.02402328 0.025467735
0003e0 84 3f d6 bc b2 3c e6 b9 dc be 9f 3d 30 42 8b 3d
       -0.026153333 -0.0004391424 0.078000754 0.06799734
0003f0 ce d3 5f 3d 4f 79 43 3d 1a bf e6 3c 19 b0 51 3d
       0.054645352 0.04772311 0.028167296 0.05119333

rnn.bias_ih_l1 f4 [384]
000000 b4 9e 92 bd 28 d6 84 3d d8 b7 ab bc 5f 09 3d 3c
       -0.071591765 0.064861596 -0.020961687 0.011537879
000010 7d 0e 51 bd 20 da 86 3d ba 68 93 bd 23 4b c3 bb
       -0.051039208 0.06584573 -0.071977094 -0.0059598847
000020 a5 24 54 3d 11 c2 16 bc 8a a3 5d 3d f1 ed 09 3d
       0.05179276 -0.0092015425 0.05411104 0.033674184
000030 1b ce a3 bc 87 54 01 bd ec 28 4b bd 7a e0 a3 3a
       -0.01999574 -0.031574752 -0.049599573 0.0012502812
000040 cb ed 8a bd e7 aa 8e bb 6f 50 93 bd d9 ba a5 3d
       -0.06783637 -0.0043538692 -0.07193076 0.08092279
000050 b8 c1 30 3d e2 78 83 3d b1 ba 96 bd 01 28 8f bb
       0.043153495 0.06419541 -0.07359827 -0.0043687825
000060 fe d6 2c bb 4f bc 3f 3d 5e 2d 6a bc 87 d2 70 3d
       -0.0026373263 0.046810444 -0.014293043 0.058794525
000070 fd c3 af bd cc 19 9c bd 79 c4 c1 bc f3 45 fa bc
       -0.08582304 -0.07622108 -0.023653256 -0.030550933
000080 10 bb 8d bd cf 30 f1 3b 8d e0 83 bd 34 96 40 3d
       -0.06920445 0.0073605548 -0.06439314 0.047018245
000090 34 6c 20 bd 02 28 42 bd 93 21 d4 3c 9a 2d ab bc
       -0.03916569 -0.047401436 0.025894916 -0.020895768
0000a0 69 e8 0f bd 20 73 42 3d 1b fd 60 bd 99 eb 4b 3d
       -0.035133753 0.047473073 -0.05492888 0.04978523
0000b0 9c b4 91 bc ec 8e cf bc 31 d7 95 3d ce 74 70 bd
       -0.017786317 -0.025336705 0.07316435 -0.058705144
0000c0 90 d9 c3 3c 6d 9c 08 bd ce 01 0c 3c 4d da 27 3d
       0.023907453 -0.033352304 0.008545352 0.040979672
0000d0 2c 48 a5 ba f1 5e 95 bd f1 c4 53 bc 54 50 84 3d
       -0.001261001 -0.07293499 -0.012925372 0.06460634
0000e0 f5 82 14 3d c2 52 4e 3c 3f 9e 58 3d ad 15 00 3d
       0.036257703 0.012592973 0.05288529 0.03127067
0000f0 1a 64 24 3d d9 59 80 3c 4e c9 41 bd 4f 6d ad 3c
       0.040134527 0.015667843 -0.04731112 0.021170286
000100 e9 08 5b 3d 10 2c fe 3c f5 bc 54 3d 61 38 ad 3c
       0.053475294 0.03102687 0.051938016 0.021145048
000110 01 26 21 3d 0e e1 9b bd c6 ea 6d 3c 63 70 38 3d
       0.039342884 -0.07611285 0.014521306 0.045029055
000120 2d 77 9c 3c 9e fc 5a bc e5 8b 71 bd bd 0b a2 3d
       0.019099796 -0.013365893 -0.058971304 0.07912395
000130 61 59 11 bd 3d a8 0a bd a6 08 0f bd cb 3c 36 bd
       -0.03548563 -0.03385185 -0.034920357 -0.04449157
000140 b0 73 59 bc 5b 52 ba 3c 0b 08 6a bd 91 9b 19 3a
       -0.013272211 0.022744348 -0.057136577 0.0005859668
000150 1f 46 f6 3b 6d 22 c2 bc aa d0 aa bc 60 c9 86 3b
       0.0075156833 -0.023698056 -0.020851452 0.0041133612
000160 74 87 7a bd 5d 7f 96 3c 9a c2 ca 3b 20 9c 72 bd
       -0.061164334 0.018371278 0.006187749 -0.059230924
000170 ac ae 40 bd 06 1b a7 3d bd fb b0 3d cc fa af 3d
       -0.04704158 0.08159451 0.08641765 0.085927576
000180 a0 9f 94 3d 33 7c 2c bd 66 69 19 bd d0 34 6a bd
       0.072570086 -0.042110633 -0.03745403 -0.057179272
000190 47 ee 99 bd 35 a2 8c 3d e7 ba 86 3d 6d 15 a2 3c
       -0.07516151 0.06866876 0.065786175 0.019785607
0001a0 ca 6e 2c bd 69 2e a0 bd a4 82 91 3d 03 aa 8d 3c
       -0.042097844 -0.07821352 0.07104996 0.017292982
0001b0 5d 28 8a bd f6 65 2f bb 66 92 9b 3d 39 cc 59 3d
       -0.0674598 -0.0026763654 0.07596283 0.053173278
0001c0 e7 1d 90 3d 5b 4e 90 bd 9a c6 75 bd 12 25 f2 3c
       0.070369534 -0.07046195 -0.060003854 0.029558692
0001d0 a1 e6 b5 3d ec bc 16 bd b8 3b f7 3c ed 69 72 bd
       0.088818796 -0.036801264 0.030179843 -0.05918305
0001e0 5f a0 a4 bd 83 42 88 3d 92 04 ad 3d 09 84 a8 3d
       -0.08038401 0.06653311 0.08448137 0.08228309
0001f0 7b 72 ff bc b8 c0 77 3d a0 c4 74 3c 3c b4 44 3d
       -0.031182518 0.060486525 0.014939457 0.048023447
000200 ac 78 87 3d 41 dd 81 bc 1e 92 75 3d 4e 38 50 3d
       0.06614813 -0.015852572 0.0599538 0.050834946
000210 f1 08 1f bc 0a 56 83 3d f4 3b 73 bd 7b fd 6b 3d
       -0.009706722 0.06412895 -0.059383348 0.057614785
000220 95 96 c6 3c c3 cb 6e 3d 4b 39 21 bd e4 c1 47 bd
       0.024241725 0.05829979 -0.03936128 -0.048768893
000230 56 ff 93 3d 64 7a e3 bb 59 43 8e bd 14 46 b8 bc
       0.07226436 -0.0069420803 -0.06946439 -0.022494353
000240 9d 7f 48 bd 89 44 b2 bd 4c 64 cb 3c 2f 71 4c bd
       -0.048949827 -0.08704478 0.024828099 -0.049912628
000250 a0 a0 91 3d 8e 05 70 bd f8 3c 5e 3d b7 c6 a0 3d
       0.07110715 -0.058599047 0.054257363 0.07850402
000260 99 50 a2 bd 0f 1f 84 3d 49 37 b1 bd 80 1a fa bc
       -0.07925529 0.064512365 -0.08653123 -0.030530214
000270 a2 50 a2 bd ac 0c ad 3d ac 4f 31 3d 38 41 32 3a
       -0.07925536 0.084496826 0.04328887 0.00067998795
000280 fd ff 9d bd bf 11 bb 3c 16 09 92 bd 8f 2a 5d 3c
       -0.077148415 0.02283561 -0.07130639 0.013498916
000290 89 2b 71 bd ea 1b 98 3d 4d 5f 68 bc fc d8 a9 3c
       -0.05887941 0.07427199 -0.014182878 0.020733349
0002a0 b8 ce 58 3c 68 1d 90 bd bb f8 89 bc e1 a1 9e 3d
       0.013232879 -0.07036859 -0.016842237 0.0774572
0002b0 14 8e ae bd 01 ed 15 bb 42 96 56 bc 93 25 8c 3c
       -0.08523193 -0.002287686 -0.013097348 0.01710776
0002c0 70 39 b3 3d ae b0 7c 3d ae f9 55 3d 2c a5 3a 3d
       0.0875119 0.061691932 0.052240066 0.045567676
0002d0 2c 95 e8 3c 34 40 32 3d 3d 88 fd bb 5d f7 17 3d
       0.028391443 0.04351826 -0.007737188 0.03710114
0002e0 bf 54 a7 3d c2 1d 8d bd 3c 2f a0 3c f7 d1 54 3c
       0.08170461 -0.068904415 0.019553773 0.012989513
0002f0 60 47 c2 bc 13 e4 b0 3d 73 a8 77 bd e6 3c 55 bd
       -0.023715675 0.08637252 -0.06046338 -0.05206003
000300 d5 ee a3 bd e4 ec 40 3d 95 f9 7e bd ca f2 49 bd
       -0.08004538 0.047100917 -0.06224974 -0.049303807
000310 e4 28 2a bc c5 77 5e bd d9 29 8c 3d 0a e3 40 bd
       -0.010385726 -0.05431344 0.06843919 -0.04709152
000320 81 c9 a8 bd 14 4b bc bc 57 70 48 bd f1 af 95 3c
       -0.08241559 -0.022985019 -0.04893526 0.018272372
000330 f7 da 76 bc ce 50 9c 3c 36 db 67 3d 03 ae 09 bb
       -0.015066854 0.0190815 0.05660554 -0.002100826
000340 95 8a 2f bd d7 75 a4 bd 02 f3 3f 3c f0 79 4d 3d
       -0.04285677 -0.08030289 0.011715652 0.050165117
000350 ea 36 db bc a4 d1 69 3d b5 49 b0 3d 17 0d b2 3d
       -0.026759584 0.057084695 0.086078085 0.08693903
000360 96 17 a6 bd 8f a9 a9 bc db 82 19 bc 61 86 85 bd
       -0.081099674 -0.020710735 -0.009369577 -0.06519771
000370 f7 99 c8 bc 73 ad 71 bc f4 6b 7d ba 83 71 59 3b
       -0.024487479 -0.014750826 -0.00096672704 0.003317923
000380 03 84 b5 3d 3c ae 4e bd fa 01 a3 3d 0d af b5 bd
       0.0886307 -0.05045913 0.079593614 -0.08871279
000390 34 f3 1d 3d 4b 90 85 3b b2 58 10 bd 84 89 23 3c
       0.038562015 0.004076039 -0.035240836 0.009981517
0003a0 94 17 14 bd a2 37 50 bb 0e 39 a8 3d f5 89 ad bd
       -0.0361553 -0.003177144 0.08214007 -0.08473579
0003b0 95 dd 13 bd cd fa 50 3d bf 37 b1 3d 37 83 a5 3d
       -0.03609999 0.051020432 0.08653211 0.08081668
0003c0 a1 cf 45 bc ab c3 bc 3c ae bc 27 bc fe cb 35 3d
       -0.012073428 0.02304252 -0.010237856 0.044383995
0003d0 08 1e 88 3d ec e3 81 bc ce b2 a4 bd 76 f9 03 3d
       0.06646353 -0.015855752 -0.08041917 0.032220326
0003e0 0f a8 99 bc e1 94 12 3d b7 20 fc bc 76 37 96 3d
       -0.018756894 0.035786513 -0.030777318 0.07334797
0003f0 1f 02 8c bd 02 58 10 3b b7 b9 4d bd da 39 68 3d
       -0.06836342 0.0022025113 -0.05022594 0.056695797
