exps/chpts/GRU_layers2_stride5_max_lr0.0001/best_model.pth (torch, 626643 bytes, 10 tensors)

rnn.weight_ih_l0 f4 [384, 17]
0.01996118 -0.10261753 0.08083758 0.057343595 0.05347059 0.045639604 -0.07008903 -0.045179274
-0.05064185 0.008237905 -0.044816468 0.08140065 -0.0008196762 0.074974775 -0.005687281 -0.034890864
-0.08087783 0.08762158 0.036204226 -0.013397715 -0.01457925 0.07217932 0.017745143 -0.015664114
0.057663135 -0.00688647 -0.0072217733 0.05410178 -0.050241183 -0.080780715 0.045719966 -0.0005143196
0.043375317 -0.0007255964 0.05470224 0.042462744 0.015151516 -0.09355329 -0.032595396 0.046853796
0.059431437 0.014275078 -0.06547797 -0.0384629 0.055650845 0.025004823 0.010679662 0.012496451
-0.050956674 0.055486288 0.09296558 0.03032345 -0.016486093 -0.046543796 -0.06806056 0.06533154
0.024282403 0.086432256 -0.013090992 0.029993268 -0.054392967 0.0060688555 -0.017670572 0.064823516
-0.07876999 0.07655409 0.08529649 -0.029857172 -0.045264862 -0.052614298 -0.07496202 0.06611844
-0.003322053 -0.03348566 0.0554377 0.029006923 0.02912483 0.055166427 0.03871658 0.006371903
-0.07384381 0.014126717 0.09106191 0.034369413 0.009046364 0.0523583 -0.038030613 -0.024213498
0.06358148 -0.06742174 0.04750138 -0.054492533 0.04669895 -0.027320312 -0.04489639 -0.031134566
-0.027823213 0.031177144 0.03435616 0.10805642 0.084713094 -0.06657642 -0.0068699266 0.05995037
0.07658319 0.040776987 -0.0170121 0.0561924 0.046478678 0.035406657 -0.08431304 -0.061679516
-0.063072175 -0.012672807 0.032253023 0.04787569 0.035457294 -0.08350748 -0.08632437 -0.0067535695
0.07664474 -0.055480808 0.09743667 -0.05765594 -0.010781353 -0.09771343 0.05408402 -0.06551535
0.054758098 -0.015779646 -0.057618245 -0.017434483 -0.06395528 -0.08363288 0.061198745 0.076873414
0.06211906 -0.05912028 0.08052518 -0.033059306 0.0031825067 -0.013281933 -0.028140383 -0.003245612
-0.051114183 -0.0033279657 -0.039455373 -0.07089659 0.0035525374 0.0132623175 0.060276784 -0.07000384
0.08319715 -0.053507186 0.012062606 0.06756684 -0.036965404 -0.07282208 0.08537737 0.07706556
-0.0031080332 0.022703491 -0.049671635 0.028270412 0.058760244 0.06643047 -0.081314534 -0.028506745
-0.07287736 0.045019712 0.04260006 -0.04415236 0.041595213 -0.041046266 -0.05291487 0.051748168
-0.027339902 -0.055428106 -0.023931168 0.053809732 -0.02706463 -0.075231224 0.0411569 0.014390712
0.0017663039 -0.0029137935 0.023095304 0.042344965 -0.008395957 0.048245262 -0.0047449553 0.07742543
0.0863516 0.0032612707 -0.06652603 -0.06400924 0.06313545 -0.022593511 0.09383534 -0.08502143
0.03478415 -0.067369945 0.0114419535 0.016707774 -0.071206525 -0.035039738 0.077018544 0.015294312
-0.059905905 0.04138699 0.08527404 0.011742187 0.043863934 0.07591918 -0.057397474 -0.0062621715
0.026890928 0.09549712 0.01708301 -0.086378254 0.01985903 0.057591546 0.08811367 0.0013741951
-0.025062734 0.07434081 0.0020028378 0.031158812 0.016774723 0.054266244 0.0042127436 -0.034509655
0.008349999 -0.025121234 0.015919311 0.09255106 0.048409354 -0.03490409 -0.05232676 -0.054097593
0.030624367 0.1081952 0.080434464 -0.016813489 -0.006969822 -0.043209963 0.04388885 -0.0041293353
-0.004595051 -0.04610768 0.06721467 0.01757812 0.019984042 -0.020077387 -0.015250965 -0.07692701
00000000: a185 a33c 2429 d2bd 2c8e a53d 1ee1 6a3d
00000010: fa03 5b3d 98f0 3a3d d68a 8fbd e70d 39bd
00000020: d46d 4fbd 47f8 063c 7991 37bd 62b5 a63d
00000030: 8adf 56ba 608c 993d 5f5c babb b9e9 0ebd
00000040: 47a3 a5bd f172 b33d e24a 143d 1782 5bbc
00000050: cedd 6ebc c0d2 933d 435e 913c 0752 80bc
00000060: 2e30 6c3d e6a7 e1bb a0a4 ecbb d499 5d3d
00000070: b3c9 4dbd 5c70 a5bd dc44 3b3d 67d3 06ba
00000080: 51aa 313d f335 3eba 750f 603d 6aed 2d3d
00000090: 103e 783c de98 bfbd c082 05bd c4e9 3f3d
000000a0: 616e 733d 04e2 693c 5019 86bd 468b 1dbd
000000b0: 24f2 633d ead6 cc3c c0f9 2e3c eabd 4c3c
000000c0: f2b7 50bd 9745 633d bd64 be3d e268 f83c
000000d0: d80d 87bc b5a4 3ebd 5663 8bbd 8bcc 853d
000000e0: e4eb c63c 6503 b13d 9a7b 56bc 71b4 f53c
000000f0: 29cb 5ebd 40dd c63b e0c1 90bc 31c2 843d
00000100: 2952 a1bd 64c8 9c3d edaf ae3d 0797 f4bc
00000110: a667 39bd 1782 57bd b085 99bd 1b69 873d
00000120: cdb6 59bb 4228 09bd a412 633d ed9f ed3c
00000130: 3297 ee3c 31f6 613d 4795 1e3d 65cb d03b
00000140: 6c3b 97bd bf73 673c ab7e ba3d f1c6 0c3d
00000150: 3337 143c a875 563d fdc5 1bbd 635b c6bc
00000160: 0237 823d 6914 8abd cf90 423d 9033 5fbd
00000170: 6647 3f3d d9ce dfbc 47e5 37bd eb0d ffbc
00000180: 82ed e3bc 3667 ff3c 0bb9 0c3d af4c dd3d
00000190: 0f7e ad3d 3859 88bd 1f1d e1bb 858e 753d
000001a0: a6d7 9c3d c505 273d f65c 8bbc 012a 663d
000001b0: 6d60 3e3d 9206 113d 51ac acbd a9a3 7cbd
000001c0: fc2b 81bd 9ba1 4fbc bf1b 043d 4d19 443d
000001d0: ab3b 113d f805 abbd d5ca b0bd 0c4d ddbb
000001e0: ebf7 9c3d d83f 63bd e08c c73d a328 6cbd
000001f0: 46a4 30bc fb1d c8bd 3587 5d3d e92c 86bd
00000200: 074a 603d 5144 81bc 1c01 6cbd c3d2 8ebc
00000210: fcfa 82bd b747 abbd 89ab 7a3d cf6f 9d3d
00000220: 8e70 7e3d 1b28 72bd 63ea a43d 3269 07bd
00000230: 9a91 503b 779c 59bc a986 e6bc 55b4 54bb
00000240: 1b5d 51bd 001a 5abb f59b 21bd 3b32 91bd
00000250: b0d1 683b 314a 593c cae4 763d 2c5e 8fbd
00000260: 4463 aa3d 5a2a 5bbd 3da2 453c 7c60 8a3d
00000270: 0969 17bd be23 95bd 55da ae3d 8cd4 9d3d
00000280: 25b0 4bbb acfc b93c 7c74 4bbd 5a97 e73c
00000290: 95ae 703d b30c 883d 3c88 a6bd fa86 e9bc
000002a0: ba40 95bd 9766 383d 677d 2e3d 1bd9 34bd
000002b0: be5f 2a3d 2120 28bd 43bd 58bd e3f5 533d
000002c0: eef7 dfbc 9508 63bd 4c0b c4bc 9867 5c3d
000002d0: a5b6 ddbc d412 9abd 2394 283d 05c7 6b3c
000002e0: 5383 e73a 58f5 3ebb 5d32 bd3c ea71 2d3d
000002f0: 328f 09bc d39c 453d 927b 9bbb 3991 9e3d
00000300: 1cd9 b03d 0bbb 553b cd3e 88bd 4717 83bd
00000310: 294d 813d 0716 b9bc be2c c03d b71f aebd
00000320: d379 0e3d 41f9 89bd 0877 3b3c bede 883c
00000330: bad4 91bd d485 0fbd e6bb 9d3d fe94 7a3c
00000340: e55f 75bd 6885 293d 28a4 ae3d 4d62 403c
00000350: abaa 333d 847b 9b3d 9d19 6bbd e732 cdbb
00000360: 5d4a dc3c fe93 c33d abf1 8b3c 15e7 b0bd
00000370: 68af a23c 1de5 6b3d f174 b43d 561e b43a
00000380: 5d50 cdbc ff3f 983d 0b42 033b c440 ff3c
00000390: 256b 893c 4846 5e3d 0e0b 8a3b ff59 0dbd
000003a0: 6fce 083c 0ccb cdbc 3769 823c 698b bd3d
000003b0: e348 463d 97f7 0ebd 9654 56bd 7095 5dbd
000003c0: f4df fa3c 7295 dd3d d3ba a43d 71bc 89bc
000003d0: 1b63 e4bb eefc 30bd cbc4 333d 604f 87bb
000003e0: 1592 96bb 68db 3cbd d8a7 893d fdff 8f3c
000003f0: 93b5 a33c 5579 a4bc 2fdf 79bc e98b 9dbd

rnn.weight_hh_l0 f4 [384, 128]
0.04730033 -0.05545442 -0.07492213 -0.0016364334 0.0027297332 0.08021617 0.013969097 0.046197735
0.003591493 -0.031139256 -0.070116065 0.010413708 -0.004263501 0.06810328 0.07579883 -0.071427085
-0.048861556 -0.050913453 -0.077116445 0.04237594 0.020995662 0.036593586 -0.019502062 0.046109106
-0.085666284 0.039997846 0.026139228 0.09085319 0.006310952 -0.00269397 -0.109622896 -0.023077676
0.023719601 -0.04682205 0.017552558 0.023630654 0.036457498 -0.09291162 0.015284937 -0.0030509518
-0.06231061 -0.013932489 0.0006809355 -0.050690733 -0.03989804 -0.0066367025 0.013744288 0.013630264
0.06604058 -0.056174323 0.04936549 -0.0012026265 -0.04055421 0.009685742 0.030153135 0.048511792
-0.013881196 0.0028498243 0.036580537 -0.013803407 -0.027074253 -0.054237522 0.043368448 0.011760823
-0.036983386 0.05650857 0.016346134 -0.011259088 -0.010083149 -0.08260889 0.058811318 -0.03305627
-0.0344537 -0.010166864 0.07806638 -0.041038103 0.037155867 0.017109983 -0.0073396554 0.08327672
0.036118753 0.060844492 0.03619739 0.027792333 -0.009376315 0.084518865 0.07004114 -0.016725652
-0.0591486 -0.010734794 -0.08027168 -0.0044422913 0.037993606 0.05287166 0.07384659 0.02518995
-0.082476616 -0.0023108039 0.08137861 0.03544046 -0.07159241 -0.07534403 0.039653752 0.042750936
-0.063679814 -0.06568139 0.050391156 0.04430029 0.027132357 -0.02572638 -0.043059725 0.07565549
0.0024225726 0.01634259 0.08296425 0.062279932 -0.008419434 0.050231896 -0.020055471 0.046394683
-0.0034115398 0.04572824 -0.03151461 -0.02260853 0.039921537 0.030198902 -0.07168653 -0.034921557
0.09597703 -0.012794159 -0.06919406 -0.06328378 0.011567679 -0.074148275 -0.05535617 0.040955383
-0.037842248 -0.002618541 0.040794782 0.07355345 0.06531759 0.060404457 0.046493087 -0.058528278
-0.03881685 0.02375072 0.037560843 0.02330984 0.031543784 0.088029325 -0.037041936 0.034771528
0.0015201153 0.09018068 0.0034197264 0.0016735309 -0.027042735 0.053440966 -0.016818065 -0.0011398959
0.086897165 0.0035274746 -0.009432794 -0.040593944 -0.082033485 0.03138297 -0.070521265 0.0016835458
-0.045059826 -0.06042483 0.085594796 -0.022765392 -0.07665009 0.07222104 0.05437754 -0.02099677
-0.08489947 -0.028931921 -0.097687475 -0.09370648 0.0036841484 0.06700004 -0.0068878783 0.04588683
-0.034607366 0.04338072 -0.027646217 0.008094968 0.07272779 -0.021309363 0.03617913 0.017628655
0.04329332 -0.10827903 0.06913012 -0.008635748 0.038586803 0.051677164 -0.104155175 -0.029409533
-0.041354742 -0.06145666 -0.05818818 -0.067299426 0.07373201 0.07623567 0.03731678 -0.015700059
0.038642105 -0.032501973 -0.06492094 0.042110883 -0.05284036 -0.10023181 0.075416766 0.056023687
-0.030371936 -0.070252955 -0.010794128 -0.009423546 -0.018622095 0.0803241 0.052675623 -0.068683945
-0.03894244 -0.01302858 0.034448802 -0.026877722 0.07081369 0.01454788 0.026688006 0.0011997994
0.07670391 0.0653711 -0.046957415 -0.03227741 -0.063927 0.058591325 -0.089247346 0.0534322
0.065388545 0.06018816 0.031450637 -0.0017804385 -0.06333339 -0.0026680925 0.05135672 -0.016731128
0.05496085 -0.00832091 0.052180048 0.023382483 -0.059381634 -0.05652258 0.051869664 0.02623303
00000000: febd 413d 2d24 63bd c670 99bd 987d d6ba
00000010: 53e5 323b 6048 a43d a4de 643c d639 3d3d
00000020: 415f 6b3b c117 ffbc 0399 8fbd 429e 2a3c
00000030: d7b4 8bbb bc79 8b3d 6b3c 9b3d 5d48 92bd
00000040: 0e23 48bd a08a 50bd 3aef 9dbd 6592 2d3d
00000050: 18ff ab3c 28e3 153d cac2 9fbc e7dc 3c3d
00000060: ce71 afbd c8d4 233d ef21 d63c 3d11 ba3d
00000070: 1acc ce3b 518d 30bb f881 e0bd 650d bdbc
00000080: 9c4f c23c 7ac8 3fbd 62ca 8f3c 1395 c13c
00000090: 7554 153d 7348 bebd ac6d 7a3c 7af2 47bb
000000a0: 6939 7fbd 1845 64bc cf80 323a 16a1 4fbd
000000b0: 216c 23bd b278 d9bb b92f 613c 7951 5f3c
000000c0: 4940 873d 0c17 66bd 7833 4a3d 73a1 9dba
000000d0: 2c1c 26bd f2b0 1e3c b503 f73c 4db4 463d
000000e0: f56d 63bc 1ec4 3a3b 79d5 153d af27 62bc
000000f0: d3ca ddbc 2a28 5ebd 1da3 313d 78b0 403c
00000100: e47b 17bd 8875 673d 54e8 853c 0a78 38bc
00000110: cb33 25bc da2e a9bd 23e4 703d 0366 07bd
00000120: 531f 0dbd eb92 26bc 44e1 9f3d 9217 28bd
00000130: c030 183d 3c2a 8c3c 7e81 f0bb fc8c aa3d
00000140: 42f1 133d 1338 793d b743 143d bfac e33c
00000150: 1e9f 19bc 3a18 ad3d bb71 8f3d 3c04 89bc
00000160: cd45 72bd fde0 2fbc 7b65 a4bd a490 91bb
00000170: 2f9f 1b3d f48f 583d e23c 973d 275b ce3c
00000180: 80e9 a8bd db70 17bb d4a9 a63d 042a 113d
00000190: 0b9f 92bd f94d 9abd f96b 223d 9b1b 2f3d
000001a0: 906a 82bd f783 86bd f566 4e3d 3974 353d
000001b0: ad44 de3c 21c0 d2bc 655f 30bd 44f1 9a3d
000001c0: 06c4 1e3b e5e0 853c 29e9 a93d 3e19 7f3d
000001d0: aaf1 09bc f6bf 4d3d 5f4b a4bc 5a08 3e3d
000001e0: 2494 5fbb 894d 3b3d 7715 01bd 8635 b9bc
000001f0: c484 233d b063 f73c 63d0 92bd e809 0fbd
00000200: 9b8f c43d 989e 51bc 9eb5 8dbd ed9a 81bd
00000210: 5d86 3d3c 0ddb 97bd 27bd 62bd d5c0 273d
00000220: 7900 1bbd d49b 2bbb 6e18 273d 31a3 963d
00000230: 3bc5 853d aa6a 773d 896f 3e3d 59bb 6fbd
00000240: 6bfe 1ebd df90 c23c 66d9 193d 47f4 be3c
00000250: 0e34 013d b848 b43d 49b9 17bd 976c 0e3d
00000260: 9b3e c73a a6b0 b83d 7d1d 603b 615a db3a
00000270: ba88 ddbc eae4 5a3d 0ac6 89bc 8f68 95ba
00000280: 24f7 b13d 342d 673b 018c 1abc d645 26bd
00000290: 2c01 a8bd 6e8b 003d 746d 90bd 6caa dc3a
000002a0: a790 38bd 0780 77bd 534c af3d 7d7e babc
000002b0: b9fa 9cbd a0e8 933d fcba 5e3d 6b01 acbc
000002c0: c6df adbd a302 edbc 5f10 c8bd 2fe9 bfbd
000002d0: c171 713b 5137 893d b6b3 e1bb d4f3 3b3d
000002e0: 74c0 0dbd fbaf 313d 527a e2bc c2a0 043c
000002f0: 4ff2 943d f990 aebc 9130 143d f869 903c
00000300: 5654 313d 65c1 ddbd 1894 8d3d f47c 0dbc
00000310: 320d 1e3d 6fab 533d 4f4f d5bd 43ec f0bc
00000320: 9763 29bd fbb9 7bbd bb56 6ebd 48d4 89bd
00000330: cf00 973d 7221 9c3d 7bd9 183d 699d 80bc
00000340: 2f47 1e3d ca20 05bd 45f5 84bd 767c 2c3d
00000350: 226f 58bd 5646 cdbd 1b74 9a3d 1879 653d
00000360: 91ce f8bc c8e0 8fbd dbd9 30bc 3765 1abc
00000370: 5d8d 98bc f680 a43d 65c2 573d 2baa 8cbd
00000380: 1c82 1fbd d375 55bc 301a 0d3d ab2e dcbc
00000390: c506 913d 3b5a 6e3c cea0 da3c 9642 9d3a
000003a0: f116 9d3d 49e1 853d 6b56 40bd 5135 04bd
000003b0: 29ec 82bd 75fd 6f3d 50c7 b6bd b9db 5a3d
000003c0: 6eea 853d dc87 763d 62d2 003d 9a5d e9ba
000003d0: f0b4 81bd 2adb 2ebb 6d5b 523d b80f 89bc
000003e0: a11e 613d 6d54 08bc bfba 553d 9f8c bf3c
000003f0: 283a 73bd 3984 67bd 4975 543d a7e6 d63c

rnn.bias_ih_l0 f4 [384]
0.07782899 0.085413076 0.057407763 0.03621622 0.07611589 0.06378934 0.08378162 0.08034334
-0.006122829 0.013651469 -0.0060203206 0.06878068 -0.029397644 0.02375359 0.027808929 -0.07812916
-0.021247445 -0.06644932 -0.00014132222 -0.0046222396 -0.00308578 0.048770357 0.08105174 -0.026642162
-0.025132893 0.10069528 -0.055471122 0.02113124 -0.040839147 0.009212188 -0.034150153 -0.0046770666
0.06304199 -0.00889507 -0.037683267 0.056485087 0.0027101152 -0.019103523 -0.07117726 0.109600335
0.03210027 -0.050758366 -0.072395965 -0.047699306 0.09538073 0.0076711946 -0.03098159 -0.043463383
-0.001055065 -0.038991775 -0.046138287 -0.04382121 0.049394406 -0.014929282 -0.0322458 0.004801483
0.025299544 -0.05339055 0.0011722458 -0.06315523 -0.07217809 0.05466007 0.10821942 -0.056051992
0.07655595 -0.08230292 -0.016350554 -0.033274844 -0.010895309 0.09255654 -0.020500096 0.04985316
-0.07003755 -0.07055052 0.044636752 -0.009933843 -0.0059381165 0.09127113 0.01843325 0.004617056
0.058528047 -0.06335464 -0.07979703 -0.05298513 -0.00770897 -0.02703188 0.03828009 -0.0055008368
0.007273292 0.052184973 -0.01508794 0.0614675 -0.01703578 0.035373554 -0.026575157 -0.021436753
-0.030270077 -0.05959826 0.04712926 -0.029330086 -0.015145085 0.068459466 -0.068602525 0.099471234
-0.08134411 0.09447647 0.008341703 0.07860362 -0.021726558 -0.015579228 -0.010931775 0.035543237
0.010264649 -0.045269374 -0.00054026913 0.03766928 -0.0758839 0.06859279 0.07339599 0.102584265
0.07589069 0.0717819 0.007391866 0.0056031137 0.07665828 0.019116968 -0.08234673 0.029129587
-0.06735623 0.05493736 -0.0558101 0.0571496 -0.06309285 -0.08856528 0.06594105 0.031262796
0.037527125 -0.02072424 0.020367699 -0.04988421 -0.027513238 -0.020167423 -0.09411279 0.021750342
-0.04901063 -0.058549993 0.04776883 0.068338215 0.008853995 0.05654219 0.05302141 -0.009677443
-0.028284462 0.09037238 -0.049826182 -0.048731472 0.023910685 -0.07746068 -0.077550106 -0.04858926
-0.017484875 -0.026824176 0.072528705 -0.016783152 -0.054197587 -0.06861243 -0.08288515 0.028869705
-0.062147025 -0.05851228 0.001630672 0.029851723 0.061654925 0.061665043 -0.11096158 0.032690786
-0.02922483 -0.06882374 0.068761855 0.02694379 -0.021116879 0.029714663 0.07434053 -0.094234414
0.028189864 -0.004505457 0.036667094 -0.045397453 -0.03266533 0.06438401 0.06307886 -0.018611794
-0.08183335 0.019466747 0.060545977 0.061901264 0.017828897 -0.08210463 -0.014261296 0.035587486
-0.09092269 -0.027207568 -0.091909766 0.041000396 0.062188152 -0.0038207658 0.0411842 0.0107362345
-0.05831084 0.046296366 0.07539746 -0.034768425 0.007504223 -0.073040575 -0.030566474 -0.038426947
-0.05892664 0.08891659 0.07366231 0.015185842 0.010878575 0.010039912 0.080685355 -0.081452
-0.061990034 0.089962356 -0.038319934 0.048327994 -0.06984975 -0.04617613 0.07720936 -0.004919206
-0.021076696 -0.029063871 -0.062184166 0.049511705 -0.015555388 -0.07992297 0.061319124 0.00942917
0.021288574 -0.056562506 -0.045653924 -0.03831297 0.0675872 0.06065016 0.047734957 -0.09081108
-0.08684875 0.091531366 0.05349573 -0.041081082 0.04879592 0.08192503 -0.011124919 0.07268753
00000000: ce64 9f3d 0ded ae3d 6724 6b3d 7657 143d
00000010: a6e2 9b3d fca3 823d b395 ab3d 0d8b a43d
00000020: 03a2 c8bb 69aa 5f3c 1c46 c5bb e3dc 8c3d
00000030: 54d3 f0bc e496 c23c 8dcf e33c 2e02 a0bd
00000040: 1f0f aebc 9516 88bd e52f 14b9 2876 97bb
00000050: cc3a 4abb 6dc3 473d 74fe a53d aa40 dabc
00000060: 7fe3 cdbc 5439 ce3d b035 63bd 6c1b ad3c
00000070: f346 27bd b8ee 163c 08e1 0bbd 1442 99bb
00000080: 291c 813d a1bc 11bc c559 1abd e85c 673d
00000090: 309c 313b fe7e 9cbc 62c5 91bd 2476 e03d
000000a0: 937b 033d 01e8 4fbd 5644 94bd 5960 43bd
000000b0: f956 c33d a55e fb3b 1acd fdbc a906 32bd
000000c0: 1b4a 8aba d7b5 1fbd 80fb 3cbd de7d 33bd
000000d0: ca51 4a3d f299 74bc 2c14 04bd c255 9d3b
000000e0: fd40 cf3c 0db0 5abd 0ba6 993a 8757 81bd
000000f0: 1bd2 93bd 3de3 5f3d 25a2 dd3d c696 65bd
00000100: 5ec9 9c3d 6f8e a8bd 99f1 85bc 344b 08bd
00000110: 3d82 32bc 498e bd3d d1ef a7bc d432 4c3d
00000120: d96f 8fbd cb7c 90bd 07d5 363d 8fc1 22bc
00000130: 8894 c2bb 5cec ba3d 5401 973c ac4a 973b
00000140: 1bbb 6f3d 14c0 81bd a06c a3bd f006 59bd
00000150: 879b fcbb f671 ddbc 95cb 1c3d 5d40 b4bb
00000160: cc54 ee3b e9bf 553d 6833 77bc 58c5 7b3d
00000170: 9f8e 8bbc dce3 103d 25b4 d9bc 219c afbc
00000180: f4f8 f7bc 4e1d 74bd 9c0a 413d a645 f0bc
00000190: 1723 78bc 7a34 8c3d 7b7f 8cbd 93b7 cb3d
000001a0: be97 a6bd e17c c13d a3ab 083c effa a03d
000001b0: e5fb b1bc 0540 7fbc 301b 33bc c995 113d
000001c0: 0f2d 283c 616c 39bd d9a0 0dba 1a4b 1a3d
000001d0: 0569 9bbd 607a 8c3d a350 963d b317 d23d
000001e0: 946c 9b3d 6402 933d 7737 f23b 539a b73b
000001f0: 04ff 9c3d 309b 9c3c 67a5 a8bd 2ca1 ee3c
00000200: 10f2 89bd ff05 613d 2299 64bd b315 6a3d
00000210: d336 81bd b761 b5bd 1a0c 873d 6b0d 003d
00000220: 0bb6 193d e2c5 a9bc 29da a63c 6353 4cbd
00000230: 7163 e1bc 2736 a5bc 35be c0bd c62d b23c
00000240: 5fbf 48bd 1ed2 6fbd 40a9 433d e8f4 8b3d
00000250: 5910 113c c998 673d fa2c 593d 238e 1ebc
00000260: d1b4 e7bc 2815 b93d 8a16 4cbd a79a 47bd
00000270: 57e0 c33c b4a3 9ebd 97d2 9ebd 8805 47bd
00000280: 713c 8fbc 60be dbbc ee89 943d d27c 89bc
00000290: 4afe 5dbd ac84 8cbd b1bf a9bd 2980 ec3c
000002a0: e18d 7ebd 93aa 6fbd 46bc d53a 9a8b f43c
000002b0: e089 7c3d 7c94 7c3d d33f e3bd c6e6 053d
000002c0: e968 efbc 76f3 8cbd 04d3 8c3d 39b9 dc3c
000002d0: 4efd acbc 2a6c f33c d93f 983d f9fd c0bd
000002e0: 6eee e63c 83a2 93bb 3c30 163d aef2 39bd
000002f0: 15cc 05bd c4db 833d 7d2f 813d c377 98bc
00000300: 3e98 a7bd ba78 9f3c 0fff 773d 2e8c 7d3d
00000310: e80d 923c 7926 a8bd 36a8 69bc 2fc4 113d
00000320: ad35 babd 68e2 debc 303b bcbd 08f0 273d
00000330: 01b9 7e3d d065 7abb c4b0 283d 08e7 2f3c
00000340: 59d7 6ebd 42a1 3d3d fc69 9a3d 5669 0ebd
00000350: fce5 f53b 4c96 95bd 8b66 fabc 9365 1dbd
00000360: 0f5d 71bd e719 b63d 44dc 963d 0ace 783c
00000370: 0d3c 323c 717e 243c 5d3e a53d 4ed0 a6bd
00000380: 43e9 7dbd 2f3e b83d 5df5 1cbd 93f3 453d
00000390: 630d 8fbd 2f23 3dbd f11f 9e3d 4a31 a1bb
000003a0: 09a9 acbc 5b17 eebc d3b4 7ebd c9cc 4a3d
000003b0: 07dc 7ebc a7ae a3bd c329 7b3d ce7c 1a3c
000003c0: 6065 ae3c 16ae 67bd 9cff 3abd 10ee 1cbd
000003d0: 286b 8a3d 4d6c 783d bb85 433d 29fb b9bd
000003e0: c2dd b1bd cc74 bb3d 571e 5b3d a344 28bd
000003f0: 3bde 473d 4fc8 a73d 4b45 36bc 33dd 943d

rnn.bias_hh_l0 f4 [384]
0.018255027 -0.07069859 -0.034849126 -0.007353885 -0.04568745 -0.023020202 -0.026434388 -0.016233955
-0.0065057995 -0.0705333 0.037660703 0.010083443 0.030321728 0.014744361 0.03084259 0.079474136
0.011835306 -0.053211067 -0.020247767 0.032938365 0.055180024 0.007322612 0.047139686 -0.023603769
0.070895396 -0.03984294 -0.05840055 0.08108076 0.054821867 -0.056653094 0.0016141626 -0.027496673
0.08097546 -0.043381814 -0.050321884 -0.025746632 0.11034297 -0.073067546 0.060578533 -0.03973701
-0.010052444 -0.04244765 0.032467823 0.029225674 0.0736573 0.006620765 -0.03677 -0.062413074
-0.01425949 -0.070207946 0.030629309 0.06627435 0.0012556807 -0.034057043 0.029944073 0.04270428
-0.027330725 0.084769174 0.03748745 -0.018948505 -0.00069972035 -0.025344193 -0.010010781 -0.050883763
-0.04016259 -0.063678086 -0.0048797233 -0.009489969 -0.0673787 -0.061487563 0.0067677433 0.060841795
-0.081789814 0.054279335 -0.062016316 -0.06273539 0.0533545 0.041460097 0.081149064 -0.083251566
0.045989715 -0.009696363 0.028151803 -0.007871806 0.009420947 0.08999352 0.0038400192 -0.03444542
-0.0848714 0.026278414 0.031842105 0.019212758 0.055394854 0.061076693 -0.014428755 -0.030291898
0.041567784 -0.0570457 -0.0040478995 0.06271168 0.00022824995 -0.057713315 0.0044319136 -0.05950243
0.05229336 0.012058512 0.08425521 -0.059445385 -0.04139932 -0.06842139 0.07241194 -0.025956053
0.029613758 -0.03318948 -0.04172223 0.08354967 -0.046374608 -0.054594453 0.07987611 0.01927617
0.033237383 0.007937265 0.033216793 0.057249635 0.0029199899 -0.0032294865 0.08278936 0.09666337
0.009689204 -0.09948552 -0.0939296 0.012695829 0.019563004 0.05747689 0.04602966 -0.06196326
0.002317897 -0.003587524 -0.025605744 -0.057237566 0.042836256 0.026912937 -0.048844293 -0.075472504
0.061092027 -0.03781355 0.007966661 0.0439121 0.036266968 0.04708359 0.006044707 -0.04628483
0.026016383 -0.068757005 -0.0633691 -0.0177128 -0.062033664 0.04802984 -0.01637967 0.08211676
0.09009507 -0.03337211 -0.008005853 -0.025229173 -0.064080425 0.06609575 0.0041144704 -0.0020215753
-0.051347606 -0.07191528 0.052654218 0.021819092 -0.10783444 -0.01714721 -0.120408386 -0.017935323
0.03853996 -0.01414793 -0.0722238 0.009345253 0.05041048 -0.024170082 -0.03363283 -0.003732458
-0.07293085 -0.055571165 -0.023872843 -0.071505524 0.07443907 -0.057278402 0.030282112 -0.06895844
-0.025621498 0.054910783 0.08027461 0.04720363 0.03841457 -0.07491953 -0.06410798 -0.09168665
-0.028042316 0.05273562 0.04493673 0.0042723278 0.009459785 -0.035276562 0.053686183 -0.008659775
-0.006243139 0.02992504 -0.053988572 0.074917756 -0.0784345 -0.028288756 0.07034119 -0.074034594
-0.00064606447 0.08360232 -0.00522577 -0.0896516 0.038982112 -0.08046589 0.016240118 -0.0044929055
-0.04928893 -0.03348691 0.0036369124 0.06289875 -0.0065373154 0.027797956 0.04821287 -0.048846994
0.023931494 -0.06555847 0.059127193 -0.011790449 -0.03313059 -0.074074835 -0.022436924 0.07183499
-0.06227214 -0.0645488 0.070932105 -0.040660158 -0.07903231 0.050843183 -0.029231377 -0.050470836
-0.07814564 0.0017237436 0.018211108 0.041587304 0.083373435 -0.02439984 0.019961264 -0.07987238
00000000: 918b 953c 6cca 90bd f5bd 0ebd dcf8 f0bb
00000010: c322 3bbd dd94 bcbc ee8c d8bc 12fd 84bc
00000020: 9a2e d5bb c373 90bd 1c42 1a3d 0635 253c
00000030: 4665 f83c 5592 713c 99a9 fc3c 56c3 a23d
00000040: dfe8 413c d9f3 59bd a5de a5bc 61ea 063d
00000050: 7304 623d 86f2 ef3b 8b15 413d b15c c1bc
00000060: 9b31 913d 5a32 23bd 6a35 6fbd ab0d a63d
00000070: e58c 603d 130d 68bd 4f92 d33a b440 e1bc
00000080: 76d6 a53d 21b1 31bd 521e 4ebd 9aea d2bc
00000090: 7ffb e13d 70a4 95bd 3221 783d 46c3 22bd
000000a0: 02b3 24bc 96dd 2dbd fbfc 043d ae6a ef3c
000000b0: a3d9 963d 01f3 d83b 249c 16bd daa4 7fbd
000000c0: a3a0 69bc 2fc9 8fbd 51ea fa3c d9ba 873d
000000d0: a795 a43a 667f 0bbd 464d f53c afea 2e3d
000000e0: afe4 dfbc 769b ad3d 718c 193d e539 9bbc
000000f0: 706d 37ba a09e cfbc 4204 24bc 7e6b 50bd
00000100: 8781 24bd a869 82bd 16e6 9fbb d17b 1bbc
00000110: d8fd 89bd 62da 7bbd f2c3 dd3b 3f35 793d
00000120: 6b81 a7bd 0254 5e3d d204 7ebd 6a7b 80bd
00000130: 408a 5a3d 10d2 293d 7b31 a63d cc7f aabd
00000140: b65f 3c3d 7edd 1ebc 9c9e e63c bff8 00bc
00000150: 515a 1a3c 864e b83d d5a8 7b3b a416 0dbd
00000160: 0ed1 adbd d445 d73c de6c 023d 1364 9d3c
00000170: b7e5 623d 8e2b 7a3d 9666 6cbc b726 f8bc
00000180: fb42 2a3d c0a8 69bd 3ea4 84bb fb6e 803d
00000190: 6156 6f39 cc64 6cbd 9639 913b d2b8 73bd
000001a0: 9031 563d 1191 453c ff8d ac3d 017d 73bd
000001b0: 5592 29bd 8420 8cbd b64c 943d caa1 d4bc
000001c0: 8d98 f23c b1f1 07bd eee4 2abd 171c ab3d
000001d0: 4df3 3dbd 6f9e 5fbd 1696 a33d 0fe9 9d3c
000001e0: ec23 083d 4d0b 023c 550e 083d 987e 6a3d
000001f0: 4d5d 3f3b cba5 53bb 788d a93d 72f7 c53d
00000200: 78bf 1e3c 10bf cbbd 2a5e c0bd 2b02 503c
00000210: 9842 a03c e36c 6b3d 9989 3c3d 30cd 7dbd
00000220: dce7 173b aa1c 6bbb 23c3 d1bc f071 6abd
00000230: 1275 2f3d 8578 dc3c f410 48bd 5491 9abd
00000240: a23b 7a3d 62e2 1abd 9986 023c 2ddd 333d
00000250: ac8c 143d b9da 403d ad12 c63b 2995 3dbd
00000260: 4f20 d53c 79d0 8cbd a9c7 81bd 6f1a 91bc
00000270: 0317 7ebd f0ba 443d a82e 86bc d52c a83d
00000280: c483 b83d 32b1 08bd fb2a 03bc 69ad cebc
00000290: 993c 83bd 355d 873d aed2 863b 687c 04bb
000002a0: de51 52bd 5148 93bd f3ab 573d f4bd b23c
000002b0: 4ed8 dcbd 4e78 8cbc ac98 f6bd 19ed 92bc
000002c0: 14dc 1d3d b8cc 67bc 12ea 93bd d51c 193c
000002d0: 387b 4e3d 5600 c6bc 94c2 09bd 419c 74bb
000002e0: c55c 95bd 979e 63bd fb90 c3bc 7d71 92bd
000002f0: 8373 983d c29c 6abd 3112 f83c 153a 8dbd
00000300: 2de4 d1bc 21ea 603d 0467 a43d 9858 413d
00000310: 9958 1d3d 696f 99bd 0b4b 83bd 36c6 bbbd
00000320: 00b9 e5bc 4e01 583d 940f 383d e2fe 8b3b
00000330: 37fd 1a3c 287e 10bd 0be6 5b3d bbe1 0dbc
00000340: 3f93 ccbb 5c25 f53c 1f23 5dbd 7b6e 993d
00000350: 44a2 a0bd d2bd e7bc 0b0f 903d 739f 97bd
00000360: a75c 29ba b137 ab3d f03c abbb 429b b7bd
00000370: b5ab 1f3d 4dcb a4bd ff09 853c 3939 93bb
00000380: 30e3 49bd 9229 09bd 4459 6e3b 0fd1 803d
00000390: fa36 d6bb 8ab8 e33c dc7a 453d c913 48bd
000003a0: fb0b c43c 8543 86bd 5b2f 723d ba2c 41bc
000003b0: f1b3 07bd 8cb4 97bd a4cd b7bc 391e 933d
000003c0: 1211 7fbd 2932 84bd da44 913d 448b 26bd
000003d0: b1db a1bd f140 503d a476 efbc 82ba 4ebd
000003e0: d20a a0bd 3def e13a 762f 953c 7357 2a3d
000003f0: b1bf aa3d 2ce2 c7bc ce85 a33c 2194 a3bd

rnn.weight_ih_l1 f4 [384, 128]
-0.021990964 0.013515587 -0.06700113 -0.026300982 0.0791562 -0.01681953 0.0060257134 -0.08442511
-0.053605147 0.061915077 0.027963022 0.09729687 0.0328752 -0.062150907 -0.0095523 -0.0057089096
-0.0775737 0.029485026 0.051617537 -0.013622444 -0.049194902 0.042298485 -0.045989685 -0.080901824
0.05817161 0.024170864 0.04209882 -0.044432595 0.066783756 0.033440746 0.030747477 -0.062671974
-0.022153262 -0.09825561 -0.02046524 0.0512439 -0.051810805 -0.048831392 -0.085033 -0.049244527
0.005515917 -0.033483125 -0.048492003 -0.042075597 -0.05658142 0.02869996 0.016095629 0.09840231
0.053256493 0.049255967 0.02332116 -0.043987587 -0.04240259 0.046179213 -0.041878328 0.0070784623
0.06449804 0.011467108 0.0053482982 -0.039779592 -0.0047014747 0.023699874 0.0007511241 0.042412065
-0.06680744 -0.103157364 -0.031860635 -0.044149384 0.019885276 -0.014223674 -0.07980057 -0.007859041
-0.025130235 -0.0684429 0.06987265 -0.00406193 0.025955593 -0.072703496 0.006107868 0.0052558864
0.06158752 -0.06813851 -0.08665655 -0.052839514 0.0380196 0.071248546 0.03508656 0.03969242
-0.022238584 -0.08320591 -0.07077104 -0.06740399 0.002795992 0.044327173 0.031524222 -0.03660801
-0.028817518 -0.010118389 -0.06446858 -0.009232498 -0.09301371 0.043783985 -0.0016348045 0.014673644
0.05536544 0.034250367 -0.06470263 -0.008569801 0.016609717 0.059230287 -0.024578005 0.040880367
-0.03979245 0.0074920207 -0.051279265 -0.020512167 0.014425371 -0.004751951 0.013682567 0.07800171
-0.09288569 -0.01745969 0.06186332 0.014238094 -0.04956566 -0.022274625 -0.058493696 0.005761319
-0.08023943 0.018936189 0.052745048 0.08559139 -0.08549343 -0.07341887 0.06413335 -0.0040420913
-0.05976848 0.047455467 -0.038809184 -0.026342245 0.094662346 -0.08881987 0.050380718 0.05336395
-0.10169258 -0.111730315 -0.06886608 0.07719521 -0.06350811 0.03702841 0.028853316 -0.041152112
-0.08461596 0.02347732 0.042476717 0.017662773 -0.02092461 0.04142708 -0.022743046 0.07292979
0.014284085 -0.023858432 0.0164581 0.043090183 0.020487906 0.012620471 0.06596494 -0.017519956
-0.060044814 -0.02109698 -0.0124886 -0.01071916 0.046701346 -0.051170908 -0.047676925 -0.041926235
-0.019074539 0.040040344 0.013392935 0.0811471 0.024647659 0.035448357 0.07095794 -0.04201119
-0.026485544 0.026755897 0.021671057 0.006768847 0.07211573 -0.09107711 -0.017459096 -0.042677555
0.056096226 0.016709909 0.04649463 -0.047215834 0.032014612 0.049204823 -0.04813573 -0.017571462
-0.07039771 -0.07775231 0.065156676 0.05704984 0.06615916 -0.06369889 0.021491235 -0.019845307
-0.04512773 0.04280277 0.00094862 0.032937482 0.005513602 0.08309269 -0.021687033 0.066406004
0.020459622 0.0204706 0.08221248 -0.10070533 -0.018143453 0.012757089 0.028205812 0.0030822046
0.065084726 0.061294388 -0.02320938 -0.002102474 -0.022686036 0.008410853 0.07730101 -0.01833648
-0.06724851 0.04365575 0.07825673 -0.07376051 -0.09746545 0.02607268 0.060591128 0.0038147601
0.0592225 -0.031440094 -0.07273548 0.04116222 0.02769588 0.04696505 -0.011291101 -0.0563949
0.06791562 0.030417675 -0.00047803848 0.07956808 -0.024032641 -0.08628893 0.092536286 0.07662735
00000000: 6526 b4bc 7b70 5d3c e337 89bd 2875 d7bc
00000010: a51c a23d 1cc9 89bc 5973 c53b 12e7 acbd
00000020: 1291 5bbd aa9a 7d3d b512 e53c 9543 c73d
00000030: 25a8 063d f391 7ebd 4081 1cbc ce11 bbbb
00000040: f6de 9ebd 958a f13c e96c 533d ac30 5fbc
00000050: 9880 49bd 2d41 2d3d ae5f 3cbd dbaf a5bd
00000060: 5b45 6e3d fa01 c63c d06f 2c3d f4fe 35bd
00000070: ecc5 883d 2af9 083d 22e2 fb3c 2a5a 80bd
00000080: c27a b5bc 3d3a c9bd b8a6 a7bc 20e5 513d
00000090: 9137 54bd 6d03 48bd c825 aebd a1b4 49bd
000000a0: debe b43b 9a25 09bd 8d9f 46bd 7657 2cbd
000000b0: ebc1 67bd 2e1c eb3c fbda 833c 2687 c93d
000000c0: 7b23 5a3d a0c0 493d 040c bf3c 542c 34bd
000000d0: 57ae 2dbd 6a26 3d3d 9c88 2bbd 72f2 e73b
000000e0: 8c17 843d 89e0 3b3c c740 af3b edef 22bd
000000f0: d40e 9abb 3d26 c23c 16e7 443a 46b8 2d3d
00000100: 57d2 88bd 2b44 d3bd 4c80 02bd fcd5 34bd
00000110: 72e6 a23c 6a0a 69bc 7b6e a3bd 35c3 00bc
00000120: ecdd cdbc cb2b 8cbd 6419 8f3d f019 85bb
00000130: d3a0 d43c 92e5 94bd 8324 c83b 9239 ac3b
00000140: 3243 7c3d 348c 8bbd fd78 b1bd 3f6e 58bd
00000150: 71ba 1b3d c2ea 913d edb6 0f3d 8594 223d
00000160: b12d b6bc dc67 aabd 68f0 90bd 1a0b 8abd
00000170: f63c 373b 6990 353d 8b1f 013d 48f2 15bd
00000180: b712 ecbc 99c7 25bc 1a08 84bd e743 17bc
00000190: f97d bebd d656 333d f046 d6ba b969 703c
000001a0: dfc6 623d 1d4a 0c3d d082 84bd 5a68 0cbc
000001b0: 1a11 883c 759b 723d d057 c9bc 2c72 273d
000001c0: 68fd 22bd a07f f53b 350a 52bd 2209 a8bc
000001d0: 6458 6c3c 41b6 9bbb d82c 603c 5cbf 9f3d
000001e0: da3a bebd a007 8fbc 6564 7d3d e546 693c
000001f0: 5d05 4bbd 4679 b6bc 1697 6fbd 72c9 bc3b
00000200: 9254 a4bd 1120 9b3c 310b 583d 8a4a af3d
00000210: 2e17 afbd a25c 96bd 5958 833d 8573 84bb
00000220: cbcf 74bd aa60 423d 61f6 1ebd b1cb d7bc
00000230: 55de c13d 31e7 b5bd 035c 4e3d 2894 5a3d
00000240: 3344 d0bd ddd2 e4bd a909 8dbd 8618 9e3d
00000250: 8a10 82bd 1aab 173d ca5d ec3c 1e8f 28bd
00000260: 224b adbd 8253 c03c 11fc 2d3d 85b1 903c
00000270: 166a abbc 71af 293d a04f babc 375c 953d
00000280: cb07 6a3c c272 c3bc 23d3 863c 557f 303d
00000290: 41d6 a73c 18c6 4e3c a018 873d 0386 8fbc
000002a0: 8df1 75bd 93d3 acbc fc9c 4cbc 6a9f 2fbc
000002b0: e949 3f3d 9698 51bd e148 43bd d8ba 2bbd
000002c0: 3542 9cbc 5801 243d 0a6e 5b3c 7330 a63d
000002d0: e3e9 c93c 4c32 113d 6552 913d ed13 2cbd
000002e0: 36f8 d8bc 2f2f db3c 8087 b13c 34cd dd3b
000002f0: 69b1 933d a386 babd 6106 8fbc a9ce 2ebd
00000300: 28c5 653d 38e3 883c 2771 3e3d 6465 41bd
00000310: c121 033d ff8a 493d f929 45bd 07f2 8fbc
00000320: ad2c 90bd 9a3c 9fbd dd70 853d 18ad 693d
00000330: 747e 873d 9074 82bd 630e b03c a092 a2bc
00000340: dbd7 38bd f551 2f3d d0ac 783a 74e9 063d
00000350: 72ab b43b 802c aa3d 01a9 b1bc dfff 873d
00000360: f09a a73c f6b1 a73c 045f a83d 993e cebd
00000370: 94a1 94bc 1c03 513c e00f e73c d0fe 493b
00000380: 244b 853d d30f 7b3d 9921 bebc a9c9 09bb
00000390: 11d8 b9bc adcd 093c fe4f 9e3d 6336 96bc
000003a0: 96b9 89bd 5fd0 323d 1145 a03d c00f 97bd
000003b0: f79b c7bd 5f96 d53c 672e 783d 0e01 7a3b
000003c0: 4b93 723d 54c7 00bd 57f6 94bd b799 283d
000003d0: 78e2 e23c 6d5e 403d 4ffe 38bc 57fe 66bd
000003e0: 5817 8b3d 7d2e f93c 3da1 fab9 97f4 a23d
000003f0: 1ae0 c4bc 40b8 b0bd aa83 bd3d cdee 9c3d

rnn.weight_hh_l1 f4 [384, 128]
-0.013788626 0.0062339087 -0.09531364 -0.05324493 0.035590503 0.05424132 -0.017408594 -0.023267485
-0.071875736 0.008122152 -0.05622196 -0.01148774 0.094781004 -0.07055781 0.0029098296 -0.016436443
0.02943841 0.028425433 -0.069090165 0.06166772 0.03644084 -0.033705313 -0.044311587 -0.072987884
-0.06545001 -0.03867734 0.045884 0.080818176 0.064154275 0.06886185 0.05020136 0.08276805
-0.071556754 -0.09782535 -0.07535146 -0.029815376 -0.04232491 -0.043966003 0.013006586 0.017919684
0.037159864 0.073791705 0.015600586 0.014304955 0.02356965 0.024942845 -0.058194466 0.058871128
-0.05306434 0.05616124 -0.032745562 -0.015215567 -0.081977755 0.038474444 -0.018555742 -0.054844923
-0.026388474 0.04398313 -0.023462929 0.08688638 -0.015304785 -0.026296139 -0.010923553 0.08553772
-0.0071959007 0.012866898 0.057841253 -0.07204651 0.044411957 0.012091617 -0.018490762 0.008131615
0.07177022 -0.0054814676 0.041810032 0.001502334 0.06449704 0.07824495 0.0313412 0.007675694
-0.06906572 -0.0011968204 0.03681351 -0.008613009 -0.03863379 -0.008996257 -0.08894057 0.082774855
-0.03205124 0.06281938 0.048196033 -0.0584363 -0.07742654 0.033484153 -0.004810956 -0.03485492
-0.019077482 -0.024888411 -0.07258138 -0.009228268 -0.06924174 -0.016620953 0.02274525 -0.038444508
-0.01802935 0.040259074 -0.020824783 -0.001879073 -0.029001199 -0.06212128 -0.010700675 0.052326746
-0.00040684728 0.058099594 -0.07721173 0.02072121 0.024308104 -0.04998602 0.08286848 0.05031123
0.013876615 0.08851221 -0.0014635227 -0.005125383 -0.03916786 -0.007255911 -0.017578935 -0.06988912
-0.09064798 0.10502713 0.04117433 -0.07714747 0.026431322 0.027881796 -0.04007521 -0.023895822
0.037177525 0.05023524 0.08038027 -0.033557925 0.0022271315 0.03496746 0.020623513 -0.02579883
-0.0034113866 -0.016617661 0.0078032603 -0.06660728 -0.036001187 0.04483158 0.068118915 0.1121384
0.027989892 0.066813074 0.032464303 -0.07961084 -0.046744995 -0.061597347 0.050779257 -0.079681166
0.045655016 0.03105347 0.09050679 -0.054398935 -0.043109752 -0.051993664 0.09090274 -0.01781244
-0.05638389 0.014082164 0.06030443 0.02559863 0.064058155 -0.025370818 0.02688965 -0.022793183
-0.09543671 -0.026300624 -0.030812416 0.015199329 0.07463988 -0.050133523 -0.03762788 -0.054688923
0.07509483 -0.03804784 -0.02388529 0.0018911922 0.01010967 -0.017917914 0.072239265 -0.05881662
-0.09955199 -0.04545234 -0.08899002 0.038768623 0.087115616 -0.018412266 0.009128341 0.072953574
0.04936257 0.035849955 -0.0907812 -0.07571339 -0.004414731 0.009759889 -0.048198927 -0.059662983
0.0018587151 0.009036465 0.014766018 0.08368796 0.0040895967 0.064195074 0.09883393 -0.04004876
-0.05851424 0.039437685 -0.007376473 -0.05546021 -0.042216375 0.07518167 0.045067735 -0.059275083
0.07537879 0.06431433 -0.04622945 0.07808157 0.013253097 0.06491715 0.032623943 0.057366487
0.020780342 -0.012300011 -0.042935494 0.016372137 -0.066833824 -0.044015296 -0.052160192 -0.08421001
-0.05711526 -0.028477777 -0.025900356 -0.026169656 0.09492662 0.04535655 0.004000838 0.016444104
-0.037203547 -0.023149135 0.07830081 0.06622695 0.04135862 0.026523488 0.032917727 0.084931694
00000000: b0e9 61bc d145 cc3b cc33 c3bd 5b17 5abd
00000010: 59c7 113d 252c 5e3d 789c 8ebc 749b bebc
00000020: 9633 93bd c612 053c ff48 66bd 1337 3cbc
00000030: 8b1c c23d 9d80 90bd d7b2 3e3b b8a5 86bc
00000040: d228 f13c 74dc e83c 257f 8dbd 4b97 7c3d
00000050: fe42 153d 950e 0abd 1180 35bd ac7a 95bd
00000060: a80a 86bd 216c 1ebd dcf0 3b3d 0084 a53d
00000070: 5163 833d 7107 8d3d f19f 4d3d 4c82 a93d
00000080: 598c 92bd a858 c8bd de51 9abd 603f f4bc
00000090: e35c 2dbd b215 34bd 9319 553c 4dcc 923c
000000a0: f134 183d 1b20 973d 9a99 7f3c 545f 6a3c
000000b0: 2315 c13c f054 cc3c 525d 6ebd da22 713d
000000c0: fe59 59bd 5409 663d 3620 06bd b74a 79bc
000000d0: f4e3 a7bd 6197 1d3d 3602 98bc 12a5 60bd
000000e0: a42c d8bc a827 343d 5435 c0bc 7df1 b13d
000000f0: ecc0 7abc 006b d7bc b4f8 32bc 662e af3d
00000100: 97cb ebbb afcf 523c f3ea 6c3d 1f8d 93bd
00000110: 50e9 353d eb1b 463c f079 97bc 773a 053c
00000120: 44fc 923d e29d b3bb ff40 2b3d f7e9 c43a
00000130: 0617 843d e33e a03d a15f 003d 6384 fb3b
00000140: 5472 8dbd a1de 9cba c3c9 163d 941d 0dbc
00000150: 773e 1ebd 0965 13bc 7926 b6bd dd85 a93d
00000160: 2948 03bd 72a7 803d 3469 453d e75a 6fbd
00000170: ce91 9ebd ae26 093d 39a5 9dbb 08c4 0ebd
00000180: 6148 9cbc c8e2 cbbc 8ca5 94bd 2932 17bc
00000190: 9dce 8dbd aa28 88bc 3f54 ba3c fd77 1dbd
000001a0: 4ab2 93bc b3e6 243d bc98 aabc 3a4b f6ba
000001b0: ec93 edbc e272 7ebd e251 2fbc 9254 563d
000001c0: 1e4e d5b9 d7f9 6d3d 2f21 9ebd 87bf a93c
000001d0: ca21 c73c 24be 4cbd f3b6 a93d 2613 4e3d
000001e0: be5a 633c e445 b53d acd3 bfba d4f2 a7bb
000001f0: 7a6e 20bd fec2 edbb b301 90bc 0722 8fbd
00000200: a6a5 b9bd 7718 d73d 6aa6 283d 7eff 9dbd
00000210: 8086 d83c 5d68 e43c e725 24bd 2cc1 c3bc
00000220: 7647 183d 78c3 4d3d 699e a43d 0974 09bd
00000230: 11f5 113b 0a3a 0f3d a4f2 a83c 1158 d3bc
00000240: 9291 5fbb c321 88bc 7eb2 ff3b 6669 88bd
00000250: fb75 13bd 52a1 373d ee81 8b3d d1a8 e53d
00000260: 0f4b e53c 4bd5 883d 4af9 043d 020b a3bd
00000270: ae77 3fbd 804d 7cbd e9fd 4f3d e12f a3bd
00000280: c100 3b3d d963 fe3c a05b b93d 6bd1 5ebd
00000290: da93 30bd 4ff7 54bd 372b ba3d 65eb 91bc
000002a0: cbf2 66bd e0b8 663c c701 773d 38b4 d13c
000002b0: ec30 833d 76d6 cfbc af47 dc3c c5b8 babc
000002c0: 5274 c3bd 6874 d7bc 526a fcbc 9b06 793c
000002d0: cbdc 983d cf58 4dbd b11f 1abd 7e01 60bd
000002e0: 51cb 993d 0dd8 1bbd 15ab c3bc e1e1 f73a
000002f0: 08a3 253c 97c8 92bc 2ef2 933d b2e9 70bd
00000300: eae1 cbbd 3c2c 3abd 6640 b6bd d9cb 1e3d
00000310: ac69 b23d 52d5 96bc 0a8f 153c af68 953d
00000320: 6830 4a3d 67d7 123d 7eeb b9bd 9f0f 9bbd
00000330: 73a9 90bb f1e7 1f3c 3d6c 45bd 2c61 74bd
00000340: 21a0 f33a ae0d 143c 2bed 713c 9864 ab3d
00000350: 0602 863b b578 833d 7269 ca3d 2b0a 24bd
00000360: a1ac 6fbd 6989 213d 57b6 f1bb 3f2a 63bd
00000370: 14eb 2cbd d9f8 993d f298 383d 6eca 72bd
00000380: 3260 9a3d 3bb7 833d 175b 3dbd 3be9 9f3d
00000390: 8523 593c 48f3 843d afa0 053d 1ff9 6a3d
000003a0: 893b aa3c fc85 49bc 21dd 2fbd dc1e 863c
000003b0: 2ce0 88bd 6249 34bd eda5 55bd 4c76 acbd
000003c0: b1f1 69bd 3a4a e9bc fc2c d4bc bf61 d6bc
000003d0: e368 c23d cac7 393d 7619 833b c9b5 863c
000003e0: bf62 18bd 41a3 bdbc 2d5c a03d ffa1 873d
000003f0: a867 293d c947 d93c bdd4 063d abf0 ad3d

rnn.bias_ih_l1 f4 [384]
-0.06020664 0.06723397 -0.018934533 0.02082528 -0.04680238 0.08031027 -0.052965052 0.004366053
0.06504137 -0.004958585 0.08094853 0.035217468 -0.0135877 -0.03319874 -0.032913476 0.010968481
-0.06428131 -0.0059339334 -0.057505026 0.09464972 0.051112153 0.09022772 -0.062385008 0.010923788
0.0045562936 0.061759494 -0.0068339743 0.06579828 -0.089525 -0.055044167 -0.006923635 -0.017813668
-0.05625063 0.018345587 -0.062335502 0.06691844 -0.031394493 -0.028447483 0.030580552 -0.005205298
-0.021382568 0.047314197 -0.0417985 0.057338376 -0.007508423 -0.019359061 0.07478278 -0.04414225
0.018180462 -0.027706834 0.01691903 0.059763733 0.011257466 -0.05563133 -0.010530771 0.06431601
0.063146025 0.017711539 0.050787535 0.06199822 0.04183704 0.028007604 -0.039622568 0.033856083
0.052287582 0.034082208 0.06760705 0.037072074 0.06532409 -0.07100751 0.017742103 0.04903506
0.0073793423 0.0024858245 -0.056073755 0.08702431 -0.03911868 -0.011926467 -0.01766783 -0.025107136
-0.010271618 0.023574961 -0.035507374 0.01750044 0.009822657 -0.02658733 -0.013971454 0.01589822
-0.030228032 0.04197532 0.012399665 -0.040868398 -0.042218618 0.08385085 0.09178614 0.096157245
0.08603219 -0.021588374 -0.038451765 -0.047375143 -0.07160461 0.0779944 0.0840762 0.032065503
-0.01987581 -0.063957244 0.08843947 0.029560361 -0.060246002 0.023721334 0.0778861 0.05945226
0.07118121 -0.065140896 -0.05432085 0.038949605 0.12527867 -0.022980422 0.05543798 -0.048065107
-0.059903674 0.06711405 0.09457238 0.09136497 -0.01709898 0.07963522 0.04233782 0.0718525
0.044513144 -0.026065277 0.050243996 0.04905158 -0.010975941 0.06449147 -0.043494515 0.056130994
0.01429755 0.059104055 -0.051185757 -0.041916937 0.06512166 -0.0027540498 -0.0732841 -0.038549192
-0.04326707 -0.09561883 0.028560378 -0.041540623 0.08828837 -0.07162296 0.049198553 0.07207872
-0.074124575 0.06124734 -0.09454417 -0.04558953 -0.09236132 0.0706414 0.04916834 -0.008148855
-0.09353983 0.005643844 -0.078242876 0.0024042071 -0.056779526 0.06005168 -0.0343478 0.030374585
0.009203572 -0.07476292 -0.043327536 0.07370884 -0.10036076 -0.00977562 -0.008701341 0.013893548
0.075473756 0.059216604 0.040424004 0.041137196 0.037156194 0.04004931 -0.015950263 0.036945038
0.0776031 -0.07875778 0.0032780527 -0.0013609489 -0.036917053 0.07920275 -0.056048572 -0.0640752
-0.098451056 0.051979695 -0.08173624 -0.04897369 -0.037816394 -0.058040965 0.061904736 -0.04937816
-0.093984485 -0.034529798 -0.040612143 0.008284873 -0.012784381 0.00582105 0.044737745 -0.01857271
-0.060927216 -0.09636832 0.011449259 0.041655283 -0.023056762 0.053897224 0.06749511 0.07191272
-0.08221613 -0.027089085 -0.01578235 -0.08079894 -0.025423966 -0.023159716 -0.017713098 -0.0035606208
0.07605041 -0.04415877 0.069271065 -0.09045146 0.020636348 0.003956945 -0.0485557 -0.00094740494
-0.035520453 -0.025367165 0.07844934 -0.09366687 -0.047687694 0.031046312 0.08618908 0.068243735
-0.019881152 0.017093113 -0.013318553 0.05414435 0.04256287 -0.026184771 -0.08331538 0.030643899
-0.02025054 0.031008974 -0.039203323 0.06392291 -0.08142756 -0.015832223 -0.05472615 0.047033377
00000000: 3d9b 76bd f7b1 893d 981c 9bbc c799 aa3c
00000010: dab3 3fbd b679 a43d e2f1 58bd 1b11 8f3b
00000020: 6934 853d a07b a2bb 58c8 a53d 3140 103d
00000030: f29e 5ebc 67fb 07bd 48d0 06bd 25b5 333c
00000040: eba5 83bd 7171 c2bb 648a 6bbd b6d7 c13d
00000050: fa5a 513d 50c9 b83d 6c87 7fbd b0f9 323c
00000060: f64c 953b 86f7 7c3d 88ef dfbb 40c1 863d
00000070: e258 b7bd fe75 61bd a9df e2bb f8ed 91bc
00000080: 1067 66bd 7c49 963c 8353 7fbd 890c 893d
00000090: 8397 00bd b20a e9bc 1184 fa3c 3491 aabb
000000a0: 7f2a afbc 88cc 413d e734 2bbd a5db 6a3d
000000b0: 3809 f6bb e596 9ebc b727 993d 81ce 34bd
000000c0: 31ef 943c 71f9 e2bc c799 8a3c d1ca 743d
000000d0: 3c71 383c addd 63bd 4189 2cbc 1db8 833d
000000e0: b452 813d ca17 913c 9706 503d d8f1 7d3d
000000f0: 515d 2b3d 3470 e53c 464b 22bd adac 0a3d
00000100: 812b 563d c999 0b3d 9175 8a3d e3d8 173d
00000110: a3c8 853d 636c 91bd e357 913c fdd8 483d
00000120: 69ce f13b 37e9 223b 98ad 65bd cd39 b23d
00000130: e93a 20bd 3a67 43bc 20bc 90bc 7bad cdbc
00000140: 4a4a 28bc 4720 c13c 2e70 11bd 155d 8f3c
00000150: 36ef 203c accd d9bc 87e8 64bc fc3c 823c
00000160: c7a0 f7bc 50ee 2b3d f727 4b3c 9f65 27bd
00000170: 6eed 2cbd ffb9 ab3d 5ffa bb3d 17ee c43d
00000180: a531 b03d 1ada b0bc 997f 1dbd 700c 42bd
00000190: 70a5 92bd 87bb 9f3d 2530 ac3d 1e57 033d
000001a0: 98d2 a2bc 04fc 82bd c11f b53d 9228 f23c
000001b0: 83c4 76bd 3e53 c23c bf82 9f3d 3784 733d
000001c0: 74c7 913d 9768 85bd 8a7f 5ebd 9f89 1f3d
000001d0: 0d49 003e 7041 bcbc ef12 633d ebdf 44bd
000001e0: 8e5d 75bd 1773 893d 2aaf c13d 8f1d bb3d
000001f0: 2913 8cbc ca17 a33d 6c6a 2d3d 6727 933d
00000200: 6a53 363d d986 d5bc a6cc 4d3d 4fea 483d
00000210: 6fd4 33bc 1b14 843d 4e27 32bd 9de9 653d
00000220: 4540 6a3c 1817 723d 28a8 51bd 18b1 2bbd
00000230: 815e 853d 4a7d 34bb f915 96bd c2e5 1dbd
00000240: d038 31bd ced3 c3bd 74f7 e93c 8026 2abd
00000250: 88d0 b43d 0faf 92bd 6c84 493d 029e 933d
00000260: a0ce 97bd 7ede 7a3d 60a0 c1bd 16bc 3abd
00000270: ef27 bdbd 70ac 903d be64 493d c682 05bc
00000280: cf91 bfbd ffef b83b cd3d a0bd e78f 1d3b
00000290: a691 68bd c0f8 753d 47b0 0cbd 1fd4 f83c
000002a0: 94ca 163c 4d1d 99bd 3778 31bd a9f4 963d
000002b0: f189 cdbd ec29 20bc 1290 0ebc c4a1 633c
000002c0: fc91 9a3d 1c8d 723d a493 253d 7a7f 283d
000002d0: 1831 183d bf0a 243d 20aa 82bc ae53 173d
000002e0: 60ee 9e3d c24b a1bd 99d4 563b de61 b2ba
000002f0: 5636 17bd 0d35 a23d 3093 65bd dc39 83bd
00000300: b5a0 c9bd a9e8 543d 5465 a7bd a398 48bd
00000310: 5de5 1abd 5dbc 6dbd d28f 7d3d c140 4abd
00000320: f07a c0bd 1e6f 0dbd eb58 26bd 47bd 073c
00000330: 9575 51bc 82be be3b ed3e 373d cc25 98bc
00000340: d18e 79bd c15c c5bd ac95 3b3c bb9e 2a3d
00000350: 89e1 bcbc 56c3 5c3d e03a 8a3d fa46 933d
00000360: ee60 a8bd eee9 ddbc fd49 81bc ea79 a5bd
00000370: ec45 d0bc 72b9 bdbc 0f1b 91bc 4e59 69bb
00000380: 51c0 9b3d d4df 34bd fddd 8d3d 9d3e b9bd
00000390: 8f0d a93c 43a9 813b 57e2 46bd 455b 78ba
000003a0: e57d 11bd cdce cfbc 0caa a03d 6ad4 bfbd
000003b0: 2c54 43bd d654 fe3c e683 b03d 5fc3 8b3d
000003c0: ccdd a2bc db06 8c3c 0f36 5abc 77c6 5d3d
000003d0: 6756 2e3d 7281 d6bc 41a1 aabd ea08 fb3c
000003e0: 76e4 a5bc 8806 fe3c aa93 20bd 04ea 823d
000003f0: 7ec3 a6bd 94b2 81bc 8728 60bd 12a6 403d
