exps/chpts/GRU_layers2_stride5_last_lr0.0001/best_model.pth (torch, 626643 bytes, 10 tensors)

rnn.weight_ih_l0 f4 [384, 17]
0.01169139 -0.08814208 0.07524095 0.039917924 0.057530563 0.046645626 -0.078033574 -0.06314937
-0.037248872 0.005370643 -0.06297113 0.057596985 -0.025555369 0.047653098 -0.0037978806 -0.051044784
-0.08239951 0.08587791 0.02461489 -0.010513083 -0.0076809656 0.0786376 0.020148387 -0.025221651
0.07986287 -0.020928413 0.00068830664 0.046098888 -0.031365525 -0.079442486 0.04614811 -0.019307867
0.040754087 -0.016801182 0.054533485 0.049994253 0.020292036 -0.087190375 -0.024804033 0.05737053
0.061669257 0.021879733 -0.05580115 -0.03749594 0.0572808 0.029191615 0.01351829 0.00292031
-0.040855095 0.05059092 0.077902265 0.040956493 -0.0005361533 -0.067878276 -0.054338604 0.063542716
0.016379565 0.074786805 -0.008939786 0.021553256 -0.051213976 0.017680567 -0.02822759 0.064320795
-0.06685843 0.081693135 0.08226914 -0.034152288 -0.04301471 -0.058723077 -0.073938146 0.061379436
-0.01330206 -0.023290256 0.0514145 0.023238378 0.043926507 0.044253387 0.018811423 0.0123029
-0.085856654 0.016818548 0.0869124 0.04674031 0.0003826099 0.052706413 -0.05097524 -0.05241016
0.06582179 -0.08558002 0.034733683 -0.06643846 0.036486752 -0.043971915 -0.04906505 -0.04117003
-0.047912803 0.042346098 0.013793413 0.08891329 0.07072311 -0.080644295 -0.020708697 0.05325845
0.07402219 0.018050628 -0.013167073 0.07938161 0.070306025 0.033653744 -0.06391858 -0.046919804
-0.056990758 -0.009488372 0.017165504 0.04264633 0.047558773 -0.08545619 -0.08235866 -0.0117994305
0.08154266 -0.06556219 0.08689005 -0.05667493 -0.010696171 -0.08697927 0.05189051 -0.053844653
0.05413068 -0.02205143 -0.058341425 -0.03777942 -0.045260716 -0.08618218 0.059849232 0.08207299
0.055764638 -0.06676726 0.059931617 -0.010777291 -0.02260568 -0.02392861 -0.032156974 -0.006487993
-0.07533803 -0.01927743 -0.03781222 -0.07690838 -0.0026096387 0.02186194 0.051872905 -0.065049686
0.07098146 -0.06507816 7.6129814e-05 0.06352037 -0.04207973 -0.081143916 0.085799314 0.087696984
-0.00042666035 0.027740447 -0.062431097 0.02632373 0.0733117 0.072733276 -0.0692024 -0.037160013
-0.08874207 0.038210593 0.030428486 -0.055793095 0.036180384 -0.037386753 -0.06573956 0.06510294
-0.06003998 -0.0673768 -0.03715961 0.04172851 -0.025100008 -0.075752996 0.040634524 0.017643671
0.008705495 -0.00063283223 0.027798422 0.038683176 -0.013903837 0.020950967 0.0053962655 0.06840056
0.077869095 -0.008574242 -0.0740954 -0.08810717 0.053733345 -0.02954267 0.08146985 -0.08743077
0.027436243 -0.07687646 0.0058648023 0.001737814 -0.059667155 -0.043341696 0.05887334 0.014813201
-0.068445615 0.05185594 0.08537386 -0.0017947104 0.046129555 0.08783274 -0.059748568 -0.013401596
0.054574944 0.08596275 0.032888647 -0.07516086 0.014034812 0.04198203 0.08501915 -0.0025150054
-0.026595963 0.079464726 -0.02216473 0.034572944 0.0032737055 0.05029156 0.010772664 -0.039041713
0.0014304048 -0.04957755 0.026769849 0.08268197 0.042270757 -0.046319336 -0.071817905 -0.06453272
0.0025963653 0.08272972 0.05447467 -0.037484646 -0.015949083 -0.07591321 0.027427519 -0.007046965
-0.026200635 -0.069429666 0.055675436 0.008602737 0.0038635354 -0.03880974 -0.02635002 -0.065775245
00000000: 3e8d 3f3c d683 b4bd ed17 9a3d fa80 233d
00000010: 2ba5 6b3d 7c0f 3f3d 11d0 9fbd 7554 81bd
00000020: 4692 18bd 38fc af3b 02f7 80bd d1ea 6b3d
00000030: 7e59 d1bc e52f 433d dde5 78bb 5614 51bd
00000040: 13c1 a8bd c2e0 af3d 2aa5 c93c 113f 2cbc
00000050: 9cb0 fbbb c00c a13d 3b0e a53c a39d cebc
00000060: 258f a33d 1072 abbc 7a6f 343a 30d2 3c3d
00000070: 2379 00bd beb2 a2bd cd05 3d3d 882b 9ebc
00000080: c2ed 263d a2a2 89bc 815e 5f3d c6c6 4c3d
00000090: 7c3b a63c de90 b2bd d431 cbbc 5cfd 6a3d
000000a0: e798 7c3d 203d b33c bf8f 64bd 5895 19bd
000000b0: 469f 6a3d 4123 ef3c d17b 5d3c ac62 3f3b
000000c0: ac57 27bd 6d38 4f3d 398b 9f3d ffc1 273d
000000d0: a48c 0cba c403 8bbd 2892 5ebd af22 823d
000000e0: 702e 863c d329 993d 2e78 12bc 7490 b03c
000000f0: bfc5 51bd d6d6 903c 8c3d e7bc 9fba 833d
00000100: 13ed 88bd bb4e a73d b97c a83d 45e3 0bbd
00000110: 3130 30bd 9c87 70bd e26c 97bd 0169 7b3d
00000120: e2f0 59bc 35cb bebc 0398 523d 695e be3c
00000130: 48ec 333d 0a43 353d 6a1a 9a3c 1a92 493c
00000140: 9dd5 afbd 0dc7 893c 21ff b13d c472 3f3d
00000150: 0899 c839 aee2 573d 6acb 50bd 09ac 56bd
00000160: 93cd 863d 9444 afbd e844 0e3d e310 88bd
00000170: 2273 153d e51b 34bd 6ff8 48bd e8a1 28bd
00000180: 3740 44bd 1a73 2d3d c4fd 613c 2c18 b63d
00000190: 47d7 903d d628 a5bd 49a5 a9bc 8825 5a3d
000001a0: f298 973d e9de 933c b5ba 57bc d392 a23d
000001b0: 9bfc 8f3d 82d8 093d bfe7 82bd fb2e 40bd
000001c0: 246f 69bd 1e75 1bbc ac9e 8c3c ebad 2e3d
000001d0: fdcc 423d a803 afbd a8ab a8bd 6652 41bc
000001e0: d7ff a63d 7845 86bd 69f3 b13d f923 68bd
000001f0: fe3e 2fbc 3022 b2bd 258b 543d 368c 5cbd
00000200: 22b8 5d3d 33a5 b4bc 6bf7 6ebd 98be 1abd
00000210: 4d63 39bd 4880 b0bd 7824 753d e215 a83d
00000220: 7669 643d 46bd 88bd db7a 753d 3c93 30bc
00000230: 8c2f b9bc ef05 c4bc 08b7 03bd 3b99 d4bb
00000240: d34a 9abd b3eb 9dbc fde0 1abd 2482 9dbd
00000250: 7906 2bbb d017 b33c af78 543d c538 85bd
00000260: ba5e 913d b347 85bd e2a7 9f38 f816 823d
00000270: cc5b 2cbd c82e a6bd 8db7 af3d 7a9a b33d
00000280: 62b1 dfb9 ef3f e33c c0b7 7fbd dda4 d73c
00000290: 7224 963d 2ff5 943d fdb9 8dbd 1935 18bd
000002a0: 67be b5bd b682 1c3d 2945 f93c 4d87 64bd
000002b0: e231 143d da22 19bd 76a2 86bd b154 853d
000002c0: 7bec 75bd d9fc 89bd ad34 18bd 84eb 2a3d
000002d0: 889e cdbc 6324 9bbd 6370 263d 7689 903c
000002e0: 7ea1 0e3c a7e4 25ba 84b9 e33c 4072 1e3d
000002f0: ebcc 63bc 5da1 ab3c 28d3 b03b 9815 8c3d
00000300: d579 9f3d fa7a 0cbc 54bf 97bd 8871 b4bd
00000310: 7f17 5c3d 7803 f2bc aad9 a63d e70e b3bd
00000320: f9c1 e03c 6871 9dbd 872d c03b 5dc7 e33a
00000330: 8c65 74bd 1087 31bd 2c25 713d 11b3 723c
00000340: 372d 8cbd e566 543d 7ed8 ae3d 7d3c ebba
00000350: 58f2 3c3d a7e1 b33d eaba 74bd 5e92 5bbc
00000360: fa89 5f3d 3d0d b03d 3fb6 063d f0ed 99bd
00000370: 45f2 653c 59f5 2b3d 851e ae3d cad2 24bb
00000380: c7df d9bc 67be a23d cf92 b5bc 5c9c 0d3d
00000390: aa8b 563b 86fe 4d3d d47f 303c 34ea 1fbd
000003a0: 6c7c bb3a d411 4bbd 714c db3c 2a55 a93d
000003b0: 1a24 2d3d 58b9 3dbd 4415 93bd bb29 84bd
000003c0: c827 2a3b 336e a93d d520 5f3d 8089 19bd
000003d0: a7a7 82bc 6378 9bbd adaf e03c 3aea e6bb
000003e0: b7a2 d6bc 2431 8ebd ed0b 643d 7ff2 0c3c
000003f0: 5e33 7d3b f6f6 1ebd ffdb d7bc 2cb5 86bd

rnn.weight_hh_l0 f4 [384, 128]
0.070164375 -0.052861307 -0.07638556 0.0055284235 0.014101058 0.067413285 0.030437263 0.023483409
0.022468274 -0.03967259 -0.04149949 0.044251926 -0.023049567 0.055007286 0.08564928 -0.04758508
-0.051015176 -0.055687435 -0.07601338 0.013353846 0.0070743863 0.032982636 -0.01738339 0.04862132
-0.085017756 0.062395155 0.03395886 0.07289312 0.008041653 -0.016998058 -0.08026281 -0.007012772
0.040665023 -0.050878994 0.0226761 0.016211165 0.03148236 -0.072918855 0.010390934 0.0014095161
-0.07301219 -0.026501259 0.02491859 -0.052253593 -0.037840735 0.006848781 0.023526793 0.031008605
0.05229272 -0.050760288 0.0584859 -0.034360677 -0.050368547 -0.00017282789 0.042090043 0.042366486
0.009931173 -0.009154898 0.005075618 -0.022997664 -0.0254387 -0.020236896 0.03796799 -0.013767978
-0.0502051 0.06301687 -0.002074495 -0.01866899 -0.008444648 -0.06854702 0.048400264 -0.030243656
-0.02256254 -0.0014572903 0.08352831 -0.031449296 0.045042377 0.034056902 -0.008555707 0.076774
0.038800556 0.082512595 0.048543617 0.04377225 -0.010681354 0.08739871 0.058914084 -0.011588327
-0.053780608 -0.0010609445 -0.08195818 -0.008250761 0.044863734 0.054564144 0.07128935 0.0044941436
-0.06741239 -0.0017205466 0.0621263 0.049409274 -0.08210168 -0.072469115 0.018015217 0.049442865
-0.0607718 -0.058575016 0.04669294 0.038603242 0.023504585 -0.00015293952 -0.05806036 0.051848274
0.011092383 0.024844818 0.08318945 0.072123796 0.005353869 0.04852863 -0.015558887 0.0674981
-0.0051998887 0.08059939 -0.03042097 -0.006818575 0.07435058 0.026377682 -0.05949004 -0.05477582
0.07730791 -0.018448535 -0.06579707 -0.0863357 -0.013736224 -0.06240923 -0.05065915 0.02179899
-0.037605837 0.02103957 0.037101932 0.05624829 0.05127937 0.066161446 0.05621527 -0.06226383
-0.031607233 0.018804973 0.006182612 0.023231128 0.047101177 0.084351435 -0.057091605 0.010823941
0.0106485775 0.06781345 0.0024196059 0.0026691589 0.00577905 0.06315605 -0.026830114 0.0013347276
0.06964944 -0.012506982 -0.0013809538 -0.052280024 -0.04832958 0.004679135 -0.08010752 -0.027564658
-0.056228902 -0.05159739 0.069477074 -0.012711952 -0.055156644 0.0666338 0.06440661 -0.029007792
-0.059345953 -0.010354027 -0.07727759 -0.08029092 -0.015595992 0.06909012 -0.022916352 0.04354337
-0.028815487 0.035197645 -0.028378638 0.0057805288 0.06291847 -0.041468643 0.031352587 0.018894995
0.050061174 -0.08277595 0.06514879 -0.02344481 0.045900207 0.034452524 -0.08482605 -0.02032058
-0.035635363 -0.07531799 -0.07044312 -0.046641037 0.084530644 0.065337375 0.040866215 -0.009309224
0.040206257 -0.045497544 -0.06937874 0.010531893 -0.07530894 -0.084539935 0.086724035 0.060464453
-0.019622572 -0.086817645 0.003583766 -0.023865303 -0.019690735 0.05530391 0.06808731 -0.08303335
-0.059328135 -0.0026866563 0.024142567 -0.03519177 0.07858554 -9.468961e-05 0.025880324 0.011306076
0.07002474 0.05933931 -0.055155654 -0.017288893 -0.066567466 0.056873113 -0.061237063 0.06262529
0.050856255 0.05679062 0.017904729 0.012302815 -0.065333225 0.0011706277 0.07194135 -0.019757558
0.052470516 -0.033816997 0.042986814 0.040603463 -0.082152314 -0.057069175 0.052433282 0.037270542
00000000: 57b2 8f3d 1985 58bd 0870 9cbd c727 b53b
00000010: 2008 673c fa0f 8a3d 9157 f93c 4760 c03c
00000020: 630f b83c ba7f 22bd 5ffb 29bd 8241 353d
00000030: 72d2 bcbc 524f 613d e468 af3d 93e8 42bd
00000040: 4af5 50bd 8218 64bd e7ac 9bbd 17ca 5a3c
00000050: 41d0 e73b cd18 073d 9c67 8ebc 2627 473d
00000060: ca1d aebd 1092 7f3d 7218 0b3d fd48 953d
00000070: 23c1 033c 833f 8bbc d460 a4bd 65cb e5bb
00000080: 5e90 263d 7e66 50bd 3ac3 b93c 47cd 843c
00000090: a6f3 003d 7b56 95bd bc3e 2a3c 83bf b83a
000000a0: 6a87 95bd 2b19 d9bc 1222 cc3c dd07 56bd
000000b0: e3fe 1abd bd6b e03b 43bb c03c c205 fe3c
000000c0: e430 563d 05ea 4fbd e98e 6f3d c8bd 0cbd
000000d0: 404f 4ebd 2239 35b9 9c66 2c3d 7b88 2d3d
000000e0: 5cb6 223c 6dfe 15bc 5f51 a63b 9965 bcbc
000000f0: d264 d0bc d9c7 a5bc 5384 1b3d 1693 61bc
00000100: dda3 4dbd fd0e 813d 40f4 07bb b6ef 98bc
00000110: 6c5b 0abc 6162 8cbd 5b3f 463d 8bc1 f7bc
00000120: 13d5 b8bc 8c02 bfba e410 ab3d fad0 00bd
00000130: 5b7e 383d 407f 0b3d 3c2d 0cbc b03b 9d3d
00000140: 55ed 1e3d 5dfc a83d acd5 463d 884a 333d
00000150: d900 2fbc 18fe b23d e54f 713d f7dc 3dbc
00000160: 0e49 5cbd 640f 8bba b1d9 a7bd 332e 07bc
00000170: 09c3 373d a77e 5f3d 2700 923d 9c43 933b
00000180: 820f 8abd f783 e1ba 2678 7e3d 6161 4a3d
00000190: ed24 a8bd b06a 94bd a694 933c 9a84 4a3d
000001a0: daeb 78bd 5bec 6fbd 1941 3f3d 6f1e 1e3d
000001b0: b08c c03c 645e 20b9 b3d0 6dbd db5e 543d
000001c0: d4bc 353c 5c87 cb3c 3b5f aa3d a4b5 933d
000001d0: 826f af3b f5c5 463d b4ea 7ebc 723c 8a3d
000001e0: d463 aabb 4b11 a53d 6635 f9bc 5a6e dfbb
000001f0: 1e45 983d 0216 d83c d4ab 73bd 9c5c 60bd
00000200: 9c53 9e3d 6221 97bc 9dc0 86bd c5d0 b0bd
00000210: e60d 61bc d2a0 7fbd f87f 4fbd cc93 b23c
00000220: 9408 1abd 2d5b ac3c 32f8 173d 9b64 663d
00000230: 510a 523d a77f 873d fc41 663d 5c08 7fbd
00000240: 9676 01bd e30c 9a3c 8297 ca3b 354f be3c
00000250: 2aed 403d 72c0 ac3d e3d8 69bd e656 313c
00000260: 5f77 2e3c c7e1 8a3d 4092 1e3b 0eed 2e3b
00000270: 2f5e bd3b f657 813d d4ca dbbc 07f2 ae3a
00000280: 5ea4 8e3d 16ea 4cbc 1f01 b5ba 9423 56bd
00000290: 3df5 45bd 6e53 993b 690f a4bd 47cf e1bc
000002a0: 4750 66bd c957 53bd ff49 8e3d cb45 50bc
000002b0: efeb 61bd 4d77 883d 9de7 833d c0a1 edbc
000002c0: be14 73bd f0a3 29bc b743 9ebd 916f a4bd
000002d0: 5586 7fbc 1f7f 8d3d 13bb bbbc 885a 323d
000002e0: 750e ecbc 682b 103d 517a e8bc 976a bd3b
000002f0: 66db 803d 06db 29bd 926b 003d adc9 9a3c
00000300: f20c 4d3d 7086 a9bd bb6c 853d 550f c0bc
00000310: db01 3c3d 171e 0d3d 48b9 adbd 5877 a6bc
00000320: 63f6 11bd 5140 9abd 7c44 90bd ac0a 3fbd
00000330: 671e ad3d 9acf 853d 5563 273d b785 18bc
00000340: 51af 243d a25b 3abd 7116 8ebd f68d 2c3c
00000350: 933b 9abd 4623 adbd 5f9c b13d 93a9 773d
00000360: 84bf a0bc 73cd b1bd 9edd 6a3b 2b81 c3bc
00000370: 774e a1bc 5a86 623d 5c71 8b3d 640d aabd
00000380: 0f02 73bd 9d12 30bb a2c6 c53c 3f25 10bd
00000390: 75f1 a03d 1994 c6b8 f902 d43c 1f3d 393c
000003a0: 2269 8f3d c70d 733d e5ea 61bd 70a1 8dbc
000003b0: 8654 88bd c8f3 683d b7d3 7abd b041 803d
000003c0: a64e 503d 489d 683d f0ac 923c bf91 493c
000003d0: 6dcd 85bd bf6f 993a fd55 933d 9ada a1bc
000003e0: 53eb 563d b183 0abd f112 303d d14f 263d
000003f0: 793f a8bd 5ec1 69bd 48c4 563d ffa8 183d

rnn.bias_ih_l0 f4 [384]
0.05188948 0.079213515 0.05723046 0.040775243 0.06483448 0.042874843 0.07790893 0.066936366
-0.021579577 0.0058956686 -0.007755819 0.057488214 -0.029991573 0.011242085 0.0020291738 -0.07550379
-0.049833607 -0.07142148 0.0039762855 -0.019980885 -0.01593894 0.043312687 0.08383201 -0.049364626
-0.028396372 0.085196786 -0.06906653 0.014722782 -0.055301383 -0.0004192454 -0.042085655 0.0042936457
0.062121507 -0.013745015 -0.03847697 0.052303497 -0.023590116 -0.028546503 -0.082649544 0.081270956
0.025642954 -0.05822665 -0.07052794 -0.044411093 0.07874385 -0.0062140883 -0.041165464 -0.047252215
-0.016291719 -0.050297618 -0.075029254 -0.044145625 0.044449408 -0.04248647 -0.05105005 -0.010862521
0.0079643065 -0.059794795 0.003444239 -0.08420509 -0.0745735 0.043795723 0.08378258 -0.06919193
0.07474162 -0.07859461 -0.023528427 -0.034985323 -0.017342333 0.073785774 -0.041911833 0.050160564
-0.07005277 -0.08330699 0.040340822 -0.033638902 -0.019706054 0.070469394 0.017282113 9.223773e-05
0.052575994 -0.076719314 -0.08658027 -0.066999376 -0.039378326 -0.04786054 0.025933776 -0.023420827
0.006506929 0.055383377 -0.03496266 0.04966933 -0.031937715 0.019799998 -0.041948963 -0.030623231
-0.041003 -0.06892516 0.035707936 -0.049032543 -0.015091586 0.070697285 -0.084512174 0.074237645
-0.08788352 0.088199824 0.0015503565 0.071971454 -0.035403047 -0.022054259 -0.03177097 0.015900664
-0.00031212904 -0.05396416 -0.014918352 0.03177833 -0.07877628 0.04620951 0.07131153 0.079791985
0.07220497 0.063042164 -0.00951585 -6.825697e-05 0.0602758 0.004303265 -0.08316108 0.019938044
-0.051330246 0.076182336 -0.035124026 0.062069967 -0.0513164 -0.06944939 0.07298334 0.035919502
0.056763794 -0.001157932 0.03615272 -0.038367406 -0.032531627 -0.021400074 -0.08300298 0.020393316
-0.024047134 -0.0674871 0.05215398 0.07152043 0.01956748 0.048409835 0.06927387 0.014154524
-0.02245584 0.079097286 -0.046483625 -0.039127618 0.048449352 -0.055470407 -0.06895963 -0.05310821
-0.023401015 -0.029616663 0.08657535 -0.014911533 -0.041948497 -0.05330592 -0.072794944 0.020124717
-0.06510756 -0.054820288 0.013541113 0.030236464 0.08645352 0.064477794 -0.07949277 0.016758146
-0.026921274 -0.0652154 0.08395611 0.034689657 -0.040143073 0.028798971 0.06361257 -0.07362974
0.03911143 0.002380391 0.03456582 -0.03853095 -0.027057532 0.06613714 0.07877595 -0.023223894
-0.07924017 0.02333873 0.04779854 0.07355173 0.021936387 -0.06630527 0.0027031333 0.040026404
-0.073735155 -0.021742793 -0.05892884 0.027787063 0.061798237 -0.011330639 0.0422805 0.020543735
-0.042816333 0.039331984 0.082325034 -0.030968389 0.022037858 -0.06540101 -0.025689024 -0.038660266
-0.08085089 0.07096362 0.063772194 0.02237488 0.025336243 0.029800482 0.07060873 -0.059528146
-0.044652287 0.083469704 -0.020034285 0.04804972 -0.05611811 -0.036533516 0.07315054 0.012739916
-0.0019321087 -0.016838957 -0.08190924 0.070358515 -0.012298442 -0.07509337 0.07146853 0.017837727
0.013895166 -0.036328264 -0.0288533 -0.016393585 0.07017218 0.061043672 0.07318357 -0.06940313
-0.07458099 0.087196104 0.0693016 -0.04060454 0.045852184 0.08727047 -0.009185052 0.08236465
00000000: 108a 543d b23a a23d 7d6a 6a3d f103 273d
00000010: f1c7 843d 889d 2f3d b88e 9f3d ef15 893d
00000020: a7c7 b0bc 7430 c13b 8624 febb c378 6b3d
00000030: e3b0 f5bc b930 383c e3fb 043b bba1 9abd
00000040: 531e 4cbd 6d45 92bd 804b 823b f4ae a3bc
00000050: 6192 82bc a568 313d 1eb0 ab3d 9032 4abd
00000060: 829f e8bc a77b ae3d c172 8dbd d337 713c
00000070: b483 62bd 2ace dbb9 0262 2cbd b6b1 8c3b
00000080: 1f73 7e3d c532 61bc 079a 1dbd 313c 563d
00000090: 0f40 c1bc 5bda e9bc 2a44 a9bd 6371 a63d
000000a0: 2c11 d23c 117f 6ebd f470 90bd 68e8 35bd
000000b0: 7544 a13d 8d9f cbbb 1e9d 28bd 8a8b 41bd
000000c0: 3676 85bc e004 4ebd f0a8 99bd 0bd2 34bd
000000d0: 9510 363d 4b06 2ebd db19 51bd b7f8 31bc
000000e0: b97c 023c 63eb 74bd beb8 613b b873 acbd
000000f0: feb9 98bd 2563 333d 3496 ab3d 80b4 8dbd
00000100: 2212 993d 36f6 a0bd b0be c0bc c54c 0fbd
00000110: 8211 8ebc ff1c 973d beab 2bbd 2a75 4d3d
00000120: d477 8fbd db9c aabd 6b3c 253d f2c8 09bd
00000130: 976e a1bc 4252 903d 3893 8d3c c16f c138
00000140: ed59 573d 041f 9dbd ff50 b1bd f836 89bd
00000150: 2b4b 21bd 6a09 44bd 1273 d43c 09dd bfbc
00000160: 1438 d53b aed9 623d 0235 0fbd 1172 4b3d
00000170: 1fd1 02bd 9b33 a23c add2 2bbd 92dd fabc
00000180: c3f2 27bd a228 8dbd 7c42 123d 59d6 48bd
00000190: b342 77bc bdc9 903d b814 adbd e809 983d
000001a0: 46fc b3bd 1ca2 b43d 5535 cb3a c565 933d
000001b0: c902 11bd 22ab b4bc 4722 02bd 1c42 823c
000001c0: 40a5 a3b9 8609 5dbd 1a6c 74bc ff29 023d
000001d0: 7555 a1bd 2f46 3d3d c80b 923d fb69 a33d
000001e0: 33e0 933d 401c 813d 5ee8 1bbc 2f25 8fb8
000001f0: c2e3 763d 6702 8d3b 5b50 aabd 1c55 a33c
00000200: aa3f 52bd 7c05 9c3d 36de 0fbd 143d 7e3d
00000210: 2531 52bd 7b3b 8ebd 4a78 953d 5420 133d
00000220: 2781 683d c0c5 97ba e014 143d 2427 1dbd
00000230: e23f 05bd 354f afbc 77fd a9bd e20f a73c
00000240: 7ffe c4bc ad36 8abd 699f 553d 4e79 923d
00000250: fb4b a03c 6449 463d 75df 8d3d 60e8 673c
00000260: 4ff5 b7bc c2fd a13d 9d65 3ebd 4844 20bd
00000270: d472 463d f034 63bd b53a 8dbd ff87 59bd
00000280: 7cb3 bfbc a59e f2bc 6b4e b13d 814f 74bc
00000290: 30d2 2bbd 4f57 5abd 8415 95bd 97dc a43c
000002a0: 1d57 85bd 3d8b 60bd 8bdb 5d3c 76b2 f73c
000002b0: 8b0e b13d ef0c 843d 1bcd a2bd 6148 893c
000002c0: 018a dcbc a78f 85bd 2ef1 ab3d be16 0e3d
000002d0: 106d 24bd d2eb eb3c 4f47 823d 30cb 96bd
000002e0: 4f33 203d 5500 1c3b e494 0d3d a1d2 1dbd
000002f0: c2a7 ddbc e972 873d 4955 a13d 0940 bebc
00000300: ac48 a2bd dd30 bf3c 67c8 433d 4aa2 963d
00000310: f0b3 b33c 0fcb 87bd 0d27 313b baf2 233d
00000320: 7502 97bd f11d b2bc 5e5f 71bd b2a1 e33c
00000330: 2620 7d3d 25a4 39bc 512e 2d3d 564b a83c
00000340: 2e60 2fbd 931a 213d 079a a83d 6bb1 fdbc
00000350: bd88 b43c f7f0 85bd ca71 d2bc 3a5a 1ebd
00000360: 2795 a5bd 6055 913d ff9a 823d 864b b73c
00000370: f48d cf3c 2420 f43c 4f9b 903d c9d3 73bd
00000380: 51e5 36bd 2af2 aa3d f11e a4bc c8cf 443d
00000390: 1adc 65bd 2ba4 15bd f3cf 953d 15bb 503c
000003a0: cf3e fdba daf1 89bc 08c0 a7bd 2018 903d
000003b0: 687f 49bc 8eca 99bd 185e 923d 6d20 923c
000003c0: 8da8 633c f2cc 14bd c15d ecbc d74b 86bc
000003d0: 6fb6 8f3d ee08 7a3d 44e1 953d 3a23 8ebd
000003e0: ebbd 98bd df93 b23d ffed 8d3d f250 26bd
000003f0: 80cf 3b3d dcba b23d e67c 16bc ccae a83d

rnn.bias_hh_l0 f4 [384]
-0.007684411 -0.07689815 -0.035026427 -0.002794855 -0.056968912 -0.043934725 -0.032307133 -0.0296409
-0.021962544 -0.07828913 0.035925187 -0.0012089991 0.0297278 0.0022328584 0.0050628264 0.082099505
-0.016750818 -0.05818317 -0.016130148 0.017579712 0.042326894 0.0018649435 0.04991997 -0.04632622
0.067632005 -0.055341333 -0.07199598 0.07467224 0.040359635 -0.066284545 -0.006321358 -0.018525934
0.080054946 -0.04823176 -0.051115587 -0.029928213 0.0840428 -0.08251054 0.04910624 -0.06806639
-0.016509809 -0.049915932 0.034335744 0.032513883 0.05702045 -0.007264516 -0.04695387 -0.06620188
-0.02949616 -0.08151386 0.0017383274 0.0659499 -0.0036893187 -0.06161423 0.011139836 0.027040258
-0.04466599 0.07836497 0.03975945 -0.039998326 -0.0030951733 -0.036208533 -0.03444762 -0.06402372
-0.041976858 -0.059969794 -0.012057591 -0.011200467 -0.073825754 -0.080258295 -0.014644003 0.061149202
-0.08180504 0.041522797 -0.06631227 -0.08644041 0.039586615 0.020658292 0.079998 -0.08777643
0.040037666 -0.023060996 0.021368638 -0.021886107 -0.022248385 0.06916489 -0.008506295 -0.052365396
-0.08563784 0.029476825 0.011967375 0.007414612 0.040492922 0.045503166 -0.029802602 -0.03947845
0.03083486 -0.066372596 -0.015469244 0.043009203 0.0002817328 -0.055475473 -0.011477749 -0.084736034
0.04575398 0.0057818503 0.077463835 -0.066077545 -0.055075806 -0.074896485 0.051572762 -0.045598604
0.019036986 -0.041884266 -0.05610029 0.0776587 -0.04926703 -0.07697766 0.07779166 -0.0035161425
0.029551657 -0.00080247683 0.016309066 0.05157825 -0.013462501 -0.018043194 0.08197501 0.08747181
0.025715137 -0.078240514 -0.07324368 0.017616194 0.031339377 0.076592825 0.053071905 -0.05730655
0.021554591 0.015978787 -0.009820746 -0.045720764 0.037817873 0.025680287 -0.03773437 -0.07682946
0.08605558 -0.04675059 0.012351818 0.047094326 0.046980463 0.038951233 0.022297228 -0.022452878
0.03184501 -0.0800321 -0.060026523 -0.0081089465 -0.037494995 0.070020206 -0.007789174 0.077597894
0.084178984 -0.036164623 0.0060408027 -0.023357557 -0.05183133 0.081402205 0.014204701 -0.010766584
-0.054308146 -0.0682233 0.06456463 0.022203859 -0.08303582 -0.014334474 -0.08893958 -0.033867974
0.040843476 -0.010539618 -0.057029553 0.017091168 0.03138427 -0.025085773 -0.044360716 0.01687223
-0.0620093 -0.0486853 -0.02597409 -0.06463901 0.0800469 -0.055525403 0.045979235 -0.07357047
-0.023028258 0.058782708 0.06752718 0.058854077 0.042522103 -0.059120227 -0.047143538 -0.08724771
-0.010854885 0.058200397 0.07791761 -0.008941067 0.009069864 -0.042786427 0.054782484 0.0011477383
0.009251382 0.022960674 -0.04706097 0.07871785 -0.06390082 -0.02064914 0.07521863 -0.074268006
-0.022570353 0.065649346 -0.015115848 -0.08246252 0.05343978 -0.060705386 0.006163475 0.017430991
-0.031951178 -0.039979562 0.021922564 0.06262044 0.007194378 0.037440564 0.04415405 -0.031187898
0.043076042 -0.053333573 0.039402045 0.009056378 -0.029873652 -0.06924524 -0.012287497 0.08024353
-0.069665566 -0.044314556 0.08773259 -0.018740764 -0.07644732 0.051236697 -0.0037827508 -0.02906286
-0.06587788 -0.002611535 0.034016956 0.042063847 0.08042975 -0.01905447 0.021901151 -0.07019526
00000000: 83cd fbbb c77c 9dbd df77 0fbd e329 37bb
00000010: 3c58 69bd e6f4 33bd 7c54 04bd 79d1 f2bc
00000020: cbea b3bc 0d56 a0bd 4a26 133d 4777 9eba
00000030: b787 f33c 2655 123b 11e6 a53b c923 a83d
00000040: 0339 89bc 7a51 6ebd 5f23 84bc 5403 903c
00000050: f75e 2d3d 1f71 f43a e278 4c3d 90c0 3dbd
00000060: a682 8a3d 98ad 62bd a172 93bd c2ed 983d
00000070: 2550 253d 31c0 87bd 6523 cfbb b3c3 97bc
00000080: d9f3 a33d aa8e 45bd 945e 51bd 032c f5bc
00000090: a21e ac3d 49fb a8bd a023 493d 6466 8bbd
000000a0: 943f 87bc a674 4cbd a3a3 0c3d 472d 053d
000000b0: 468e 693d 2d0b eebb b452 40bd da94 87bd
000000c0: eea1 f1bc bdf0 a6bd 97d8 e33a be10 873d
000000d0: 7fc8 71bb 345f 7cbd dc83 363c 8883 dd3c
000000e0: aff3 36bd d07d a03d ceda 223d 49d5 23bd
000000f0: 64d8 4abb 664f 14bd f318 0dbd de1e 83bd
00000100: edef 2bbd e3a2 75bd 348d 45bc 2a82 37bc
00000110: f531 97bd 765e a4bd 66ed 6fbc 9677 7a3d
00000120: 6789 a7bd cf13 2a3d bace 87bd ab07 b1bd
00000130: 9325 223d 943b a93c fed5 a33d 21c4 b3bd
00000140: 89fe 233d 6aea bcbc 480d af3c 7e4a b3bc
00000150: 3f42 b6bc 52a6 8d3d fd5d 0bbc 197d 56bd
00000160: e462 afbd 6279 f13c cf12 443c 46f6 f23b
00000170: e8db 253d 8761 3a3d 9624 f4bc 28b4 21bd
00000180: 6399 fc3c 5bee 87bd b672 7dbc 6b2a 303d
00000190: 89b5 9339 403a 63bd 2b0d 3cbc 168a adbd
000001a0: 8668 3b3d ad75 bd3b 5ca5 9e3d aa53 87bd
000001b0: 2b97 61bd 5463 99bd f63d 533d 9ac5 3abd
000001c0: 74f3 9b3c d68e 2bbd 6bc9 65bd 860b 9f3d
000001d0: 3acc 49bd 77a6 9dbd 3c51 9f3d 156f 66bb
000001e0: 5116 f23c 4f5d 52ba 979a 853c b743 533d
000001f0: d291 5cbc 52cf 93bc 84e2 a73d 6c24 b33d
00000200: 8da8 d23c 903c a0bd c800 96bd d64f 903c
00000210: b85d 003d b3dc 9c3d ed61 593d 46ba 6abd
00000220: 4193 b03c f2e5 823c 32e7 20bc b245 3bbd
00000230: eae6 1a3d 775f d23c 5b8f 1abd c458 9dbd
00000240: e83d b03d 8c7d 3fbd 485f 4a3c fbe5 403d
00000250: 966e 403d 548b 1f3d ada8 b63c 19ef b7bc
00000260: ea6f 023d dfe7 a3bd 5fde 75bd 63db 04bc
00000270: 5a94 19bd c166 8f3d 543c ffbb a5eb 9e3d
00000280: 0866 ac3d 5b21 14bd edf1 c53b 5958 bfbc
00000290: 174d 54bd 33b6 a63d d6ba 683c 5466 30bc
000002a0: 3872 5ebd a8b8 8bbd 763a 843d dee4 b53c
000002b0: af0e aabd 24db 6abc f425 b6bd 25b9 0abd
000002c0: 7d4b 273d 5dae 2cbc d297 69bd c702 8c3c
000002d0: cb8c 003d ae80 cdbc 95b3 35bd a237 8a3c
000002e0: 77fd 7dbd 3d6a 47bd 9dc7 d4bc 7561 84bd
000002f0: a1ef a33d 9b6e 63bd b954 3c3d 1dac 96bd
00000300: c2a5 bcbc 23c6 703d b14b 8a3d f910 713d
00000310: a82b 2e3d 0d28 72bd 9519 41bd edae b2bd
00000320: b0d8 31bc 8a63 6e3d 4593 9f3d 8e7d 12bc
00000330: c499 143c d240 2fbd 9963 603d b56f 963a
00000340: 1c93 173c 0618 bc3c 01c3 40bd d336 a13d
00000350: 6fde 82bd 6328 a9bc 3a0c 9a3d d319 98bd
00000360: 76e5 b8bc 2a73 863d 76a8 77bc 1ce2 a8bd
00000370: ace3 5a3d 36a6 78bd faf6 c93b 70cb 8e3c
00000380: 3ddf 02bd 9cc1 23bd f396 b33c 253f 803d
00000390: d1be eb3b 475b 193d e1da 343d c37d ffbc
000003a0: 8170 303d 4e74 5abd 0a64 213d 3461 143c
000003b0: 97b9 f4bc 73d0 8dbd 7f51 49bc b856 a43d
000003c0: d2ac 8ebd 2e83 35bd 25ad b33d 3b86 99bc
000003d0: 6a90 9cbd 92dd 513d 07e8 77bb 3c15 eebc
000003e0: fbea 86bd 4926 2bbb 5d55 0b3d 244b 2c3d
000003f0: 5ab8 a43d 1f18 9cbc 0b6a b33c 88c2 8fbd

rnn.weight_ih_l1 f4 [384, 128]
-0.026456866 -0.00010021709 -0.049156956 -0.019442488 0.08397434 -0.028105117 0.008069373 -0.07547295
-0.05151839 0.08291907 0.012304405 0.083331846 0.028689869 -0.077368446 -0.018377699 -0.010240377
-0.08341719 0.0033487657 0.034130912 -0.0003123506 -0.048226804 0.021358222 -0.06863688 -0.07110197
0.040536363 0.010683733 0.04905705 -0.041493833 0.08074057 0.051451404 0.026425924 -0.058386225
-0.03448108 -0.080534264 -0.028702943 0.04038817 -0.03400331 -0.074211165 -0.07549994 -0.041097146
-0.007095631 -0.041930363 -0.052486002 -0.028802067 -0.044578463 0.03620745 0.028537078 0.07949457
0.030651659 0.04893421 0.020539857 -0.030018065 -0.052793026 0.039600022 -0.027136954 0.01514175
0.07479294 0.0070649055 0.027124582 -0.054220077 0.0033056114 0.010648025 -0.00723944 0.06952341
-0.08100471 -0.08313439 -0.03655557 -0.063887514 0.0005318302 -0.03030055 -0.0729385 0.006884489
-0.0046343077 -0.053684507 0.06745471 -0.025227066 0.04984898 -0.08183867 -0.0192531 0.018497404
0.0667253 -0.06971101 -0.0688622 -0.064449064 0.02534861 0.07674375 0.025345264 0.04525226
-0.0072040535 -0.07895643 -0.06877462 -0.0876464 -0.011167693 0.029649459 0.022494629 -0.05019551
-0.015796281 -0.024694087 -0.068313114 -0.006239317 -0.083506465 0.053852756 0.00985998 -0.001992323
0.068373695 0.0054278034 -0.075846195 -0.01799578 0.02070287 0.054089133 -0.025422657 0.060809225
-0.050557133 -0.003536545 -0.058024548 0.004248647 0.026316896 0.0059434315 -0.010092597 0.08856569
-0.064093485 -0.041830353 0.081385545 0.013224456 -0.04935702 -0.0048902337 -0.053965114 0.011666152
-0.071252644 0.037007585 0.046986487 0.0870691 -0.07746236 -0.07313717 0.07363103 -0.00073005876
-0.058087137 0.032006767 -0.024920698 -0.0142696 0.08665276 -0.0887342 0.06764487 0.06145415
-0.085130185 -0.087227166 -0.06235011 0.08732751 -0.07921109 0.035757966 0.03457737 -0.03932229
-0.08661203 0.040587034 0.045555364 0.010026603 -0.030563515 0.03496475 -0.027883407 0.0761704
0.03363653 -0.019508455 0.027907267 0.042763937 0.0016668414 0.025871564 0.05752594 -0.012432529
-0.0506577 -0.020994812 -0.01077469 -0.008532404 0.03273873 -0.05080716 -0.05094767 -0.03811401
-0.021871615 0.036208652 0.017535925 0.07286848 0.043960877 0.027942356 0.07261513 -0.036099598
-0.024668485 0.03379967 0.012104438 0.0062648864 0.079322115 -0.082937375 -0.014437974 -0.040948592
0.057374775 0.0051413462 0.052483805 -0.046162102 0.03722362 0.057917822 -0.06287967 -0.020109044
-0.08390217 -0.074015275 0.059789084 0.060766198 0.0565112 -0.064590916 0.028965795 -0.023600964
-0.03836116 0.04523377 0.0033473256 0.032744214 0.021196235 0.07304589 -0.016238257 0.059169874
0.025080603 0.044447433 0.06466614 -0.08692719 -0.0026238696 0.014069764 0.0112212375 0.005253005
0.05419021 0.067853235 -0.035117652 0.011023646 -0.028293872 0.013560365 0.085118555 -0.03183046
-0.07514986 0.053936034 0.076219834 -0.062378716 -0.088407956 0.02063841 0.060966693 -0.004666928
0.058992326 -0.022768233 -0.08864829 0.025201736 0.022162024 0.043441013 -0.0054364274 -0.05553767
0.06093081 0.034532476 -0.0036046056 0.07164646 -0.01848718 -0.08344769 0.07488321 0.08479353
00000000: 12bc d8bc a42b d2b8 ce58 49bd da45 9fbc
00000010: bdfa ab3d b43c e6bc 6735 043c 9091 9abd
00000020: f304 53bd 79d1 a93d 6a98 493c e3a9 aa3d
00000030: 0407 eb3c 5973 9ebd d48c 96bc 41c7 27bc
00000040: a2d6 aabd f776 5b3b dbcc 0b3d fdc2 a3b9
00000050: 7889 45bd 70f7 ae3c 7e91 8cbd e99d 91bd
00000060: 7509 263d d30a 2f3c 0cf0 483d 70f5 29bd
00000070: 505b a53d b5be 523d 2e7b d83c 6526 6fbd
00000080: 083c 0dbd 26ef a4bd 6f22 ebbc 116e 253d
00000090: 0e47 0bbd 06fc 97bd b69f 9abd 7b55 28bd
000000a0: 7882 e8bb 2cbf 2bbd 90fb 56bd 50f2 ebbc
000000b0: e897 36bd 434e 143d 97c6 e93c 0dce a23d
000000c0: 3019 fb3c 3d6f 483d 3443 a83c 72e8 f5bc
000000d0: 803d 58bd a233 223d 514e debc 1a15 783c
000000e0: 0a2d 993d b980 e73b 5f34 de3c df15 5ebd
000000f0: f5a2 583b 0e75 2e3c d338 edbb 4a62 8e3d
00000100: cce5 a5bd 5d42 aabd 4bbb 15bd 75d7 82bd
00000110: 856a 0b3a dc38 f8bc c860 95bd 4897 e13b
00000120: 64db 97bb 49e4 5bbd b225 8a3d fea8 cebc
00000130: 722e 4c3d 089b a7bd adb8 9dbc de87 973c
00000140: 46a7 883d a5c4 8ebd a007 8dbd dffd 83bd
00000150: e3a7 cf3c d42b 9d3d dfa0 cf3c 6f5a 393d
00000160: fb0f ecbb e9b3 a1bd b5d9 8cbd f57f b3bd
00000170: b3f8 36bc 6ce3 f23c a846 b83c cf99 4dbd
00000180: 3467 81bc 414b cabc bfe7 8bbd 2f73 ccbb
00000190: 7005 abbd b594 5c3d c18b 213c a291 02bb
000001a0: 8207 8c3d b7db b13b 4055 9bbd e36b 93bc
000001b0: 1199 a93c 918c 5d3d 2d43 d0bc 1813 793d
000001c0: ff14 4fbd 61c5 67bb 26ab 6dbd 3c38 8b3b
000001d0: 8896 d73c 1ec1 c23b 6c5b 25bc ee61 b53d
000001e0: 7243 83bd 4e56 2bbd 77ad a63d 64ab 583c
000001f0: 962a 4abd 413e a0bb 860a 5dbd 6323 3f3c
00000200: e8ec 91bd 4495 173d e774 403d 4951 b23d
00000210: 96a4 9ebd f1c8 95bd decb 963d 6a61 3fba
00000220: c7ec 6dbd 8719 033d 7e26 ccbc 0acb 69bc
00000230: 0177 b13d 47ba b5bd 6589 8a3d 59b7 7b3d
00000240: bc58 aebd 28a4 b2bd d462 7fbd c4d8 b23d
00000250: 6d39 a2bd f276 123d 00a1 0d3d 6910 21bd
00000260: a661 b1bd 973e 263d 4398 3a3d 9f46 243c
00000270: 5660 fabc 3337 0f3d be6b e4bc 3aff 9b3d
00000280: 75c6 093d 32d0 9fbc c89d e43c 3d29 2f3d
00000290: eb79 da3a 9af0 d33c 52a0 6b3d ceb1 4bbc
000002a0: 737e 4fbd 50fd abbc 5388 30bc 7fcb 0bbc
000002b0: 0c19 063d 2b1b 50bd 81ae 50bd 701d 1cbd
000002c0: 1a2c b3bc 864f 143d 80a7 8f3c 123c 953d
000002d0: 5210 343d 5ee7 e43c 3eb7 943d 2cdd 13bd
000002e0: 9015 cabc 8671 0a3d b151 463c ad49 cd3b
000002f0: a273 a23d 12db a9bd 418d 6cbc b6b9 27bd
00000300: d001 6b3d bd78 a83b 42f9 563d 7914 3dbd
00000310: cb77 183d 3d3b 6d3d 0ec7 80bd b9bb a4bc
00000320: e7d4 abbd 5295 97bd 66e5 743d fae5 783d
00000330: 4a78 673d 3e48 84bd ad49 ed3c cf56 c1bc
00000340: 9720 1dbd 0c47 393d ce5e 5b3b cc1e 063d
00000350: baa3 ad3c 1599 953d 1806 85bc 1c5c 723d
00000360: d675 cd3c 830e 363d ae6f 843d e206 b2bd
00000370: 3af5 2bbb de84 663c 48d9 373c 6621 ac3b
00000380: 8ef6 5d3d a3f6 8a3d 87d7 0fbd 869c 343c
00000390: 8dc8 e7bc 4b2c 5e3c a352 ae3d a860 02bd
000003a0: 2be8 99bd 08ec 5c3d 2519 9c3d d380 7fbd
000003b0: 3b0f b5bd e211 a93c 36b8 793d 08ed 98bb
000003c0: f0a1 713d 7284 babc 3c8d b5bd df73 ce3c
000003d0: 228d b53c 34ef 313d 0f24 b2bb 787b 63bd
000003e0: 9692 793d ed71 0d3d 3f3b 6cbb 61bb 923d
000003f0: 6d72 97bc 9fe6 aabd 5e5c 993d 3ba8 ad3d

rnn.weight_hh_l1 f4 [384, 128]
-0.032147087 0.015063535 -0.08190163 -0.05293416 0.043329034 0.06474159 -0.011317532 -0.030598216
-0.06094996 0.022722462 -0.061956957 -0.007764862 0.08030385 -0.07516993 -0.0096693635 -0.027942471
0.040660825 0.032277517 -0.053703193 0.072759256 0.022756156 -0.046749126 -0.054722797 -0.053995557
-0.05873324 -0.027904985 0.04786033 0.075609975 0.060543887 0.06887119 0.04774573 0.07253795
-0.066953965 -0.07135288 -0.06030574 -0.051645674 -0.022162125 -0.053875934 0.019648703 0.005997698
0.012580841 0.065659925 0.01386047 -0.00083034806 0.016020568 0.01960577 -0.048059236 0.04580593
-0.04425769 0.04712113 -0.03713958 -0.0048552384 -0.07665623 0.048157115 -0.016969884 -0.05507966
-0.02022212 0.050157685 -0.028413093 0.082802646 -0.027694436 -0.03621733 -0.0076568737 0.07177372
-0.0012812384 0.0067176665 0.033696815 -0.07880444 0.04485331 -0.0043692896 -0.031707488 0.0019999042
0.079211906 -0.008210873 0.028935783 -0.0060002008 0.06498474 0.060861997 0.043643646 0.008705309
-0.056445237 0.00031026054 0.03765333 -0.012460822 -0.02712326 -0.0113429865 -0.086780325 0.06852032
-0.033075307 0.055170458 0.060820807 -0.06004672 -0.088106535 0.035732098 0.013028303 -0.024500385
-0.005265593 -0.02383993 -0.07670084 0.005543361 -0.05799914 -0.014682686 0.038331542 -0.060091056
-0.027486071 0.04605262 -0.021765023 0.007216483 -0.0236887 -0.06936683 -0.009965766 0.062974304
-0.009821145 0.05471179 -0.064130224 0.042867273 0.032708507 -0.058875315 0.05922476 0.05862365
-0.005689383 0.061570067 0.0003243269 -0.018459396 -0.03863125 -0.026325384 -0.031656727 -0.061109286
-0.069858186 0.07828775 0.006795523 -0.0695689 0.024082249 0.022887582 -0.042648148 -0.007862281
0.047790445 0.025599018 0.06801577 -0.03725718 0.019347193 0.048240818 0.027229365 -0.040139977
-0.001051865 -0.020139672 0.014445426 -0.06882093 -0.057724603 0.036986925 0.06252856 0.07886157
0.02708234 0.07743831 0.03009154 -0.083092995 -0.051775414 -0.07950488 0.04831091 -0.07120928
0.047376715 0.04718103 0.069810756 -0.04992657 -0.043010507 -0.03214386 0.074056834 -0.015488937
-0.037028193 0.026037537 0.08502094 0.033485185 0.07824891 -0.03192616 0.03096078 -0.025702473
-0.07648845 -0.026656723 -0.025713094 0.022298291 0.07660503 -0.0791702 -0.032565124 -0.05176135
0.07321245 -0.047697783 -0.027439844 -0.017704004 0.0030200006 -0.030410675 0.069191754 -0.02851813
-0.085634634 -0.04843047 -0.06420702 0.046042703 0.06642661 -0.023724508 -0.004360954 0.07043057
0.057353467 0.030250145 -0.08346846 -0.082486905 -0.016449172 0.0074507813 -0.051212754 -0.06271207
0.00834378 0.0017220721 0.002210344 0.067049034 0.0028360393 0.07223823 0.0771151 -0.021708831
-0.081784666 0.019712739 -0.003624311 -0.060033973 -0.045868345 0.06370621 0.04454686 -0.061895777
0.056255024 0.062980026 -0.027817817 0.077550806 0.014636767 0.07341255 0.0058344654 0.053896915
0.035122603 -0.039762225 -0.02791863 0.0077085826 -0.06740261 -0.05126134 -0.046328302 -0.08533718
-0.05213995 -0.015446912 -0.021066902 -0.047789324 0.08039617 0.02916071 0.024088193 0.025491662
-0.026237575 -0.0005152284 0.07798449 0.06799988 0.05463741 0.04770762 0.027921893 0.05121287
00000000: aaac 03bd 0ccd 763c 0bbc a7bd 7dd1 58bd
00000010: c979 313d 3d97 843d 2b6d 39bc 1ca9 fabc
00000020: aaa6 79bd 7524 ba3c 94c6 7dbd 6270 febb
00000030: 5876 a43d b1f2 99bd 406c 1ebc 9ce7 e4bc
00000040: f78b 263d 6e35 043d e1f7 5bbd ce02 953d
00000050: 1e6b ba3c 037c 3fbd 0325 60bd 722a 5dbd
00000060: 4492 70bd ff98 e4bc 3209 443d 67d9 9a3d
00000070: defc 773d 570c 8d3d 0791 433d c78e 943d
00000080: 291f 89bd 7521 92bd 2703 77bd 6a8a 53bd
00000090: 588d b5bc 03ad 5cbd 51f6 a03c 5688 c43b
000000a0: df1f 4e3c b678 863d 0617 633c b7ab 59ba
000000b0: 913d 833c 489c a03c c3d9 44bd 009f 3b3d
000000c0: 8d47 35bd 1602 413d ac1f 18bd b118 9fbb
000000d0: f1fd 9cbd 6540 453d 6d04 8bbc 369b 61bd
000000e0: dca8 a5bc 2572 4d3d 93c2 e8bc 6f94 a93d
000000f0: 71df e2bc 9f58 14bd 83e6 fabb 1afe 923d
00000100: 3aef a7ba df1f dc3b ac05 0a3d 3964 a1bd
00000110: 1bb8 373d 422c 8fbb b6df 01bd d310 033b
00000120: da39 a23d e686 06bc bc0a ed3c 559d c4bb
00000130: b816 853d 6e4a 793d aec3 323d b6a0 0e3c
00000140: 1f33 67bd 77aa a239 613a 1a3d 7a28 4cbc
00000150: 9931 debc efd7 39bc e2b9 b1bd 6254 8c3d
00000160: f979 07bd 6bfa 613d 3d1f 793d 8df3 75bd
00000170: 3371 b4bd d25b 123d aa74 553c 08b5 c8bc
00000180: ff8a acbb f54b c3bc 5415 9dbd 15a5 b53b
00000190: 8290 6dbd a68f 70bc 8901 1d3d 0a22 76bd
000001a0: 782a e1bc aca1 3c3d 904c b2bc 3f78 ec3b
000001b0: ce0e c2bc 3210 8ebd 7447 23bc acf8 803d
000001c0: dee8 20bc 7819 603d b556 83bd 9895 2f3d
000001d0: 5bf9 053d 3e27 71bd a995 723d 5a1f 703d
000001e0: 016e babb e530 7c3d 6b0a aa39 2938 97bc
000001f0: cd3b 1ebd 55a8 d7bc 7caa 01bd bb4d 7abd
00000200: cf11 8fbd 5455 a03d fbac de3b 247a 8ebd
00000210: 2348 c53c bd7e bb3c d3af 2ebd ccd0 00bc
00000220: eabf 433d 08b5 d13c da4b 8b3d fc9a 18bd
00000230: 017e 9e3c 2a98 453d 1e10 df3c d169 24bd
00000240: bcde 89ba f4fb a4bc 82ac 6c3c fdf1 8cbd
00000250: a270 6cbd 9a7f 173d f90e 803d 2d82 a13d
00000260: c9db dd3c fa97 9e3d 8982 f63c a92c aabd
00000270: 7512 54bd 74d3 a2bd a9e1 453d 2cd6 91bd
00000280: 160e 423d e540 413d f1f8 8e3d ce7f 4cbd
00000290: c92b 30bd 48a9 03bd 1cab 973d 4fc5 7dbc
000002a0: e0aa 17bd ac4c d53c 751f ae3d c327 093d
000002b0: f740 a03d 01c5 02bd 76a1 fd3c fe8d d2bc
000002c0: faa5 9cbd 335f dabc 44a4 d2bc e8aa b63c
000002d0: 19e3 9c3d fc23 a2bd 0263 05bd b603 54bd
000002e0: 69f0 953d c05e 43bd 86c9 e0bc fd07 91bc
000002f0: 34eb 453b cf1f f9bc 68b4 8d3d da9e e9bc
00000300: 3661 afbd 075f 46bd f87e 83bd 4697 3c3d
00000310: ad0a 883d e659 c2bc 55e6 8ebb e73d 903d
00000320: 78eb 6a3d 27cf f73c 83f1 aabd e5ee a8bd
00000330: 6ac0 86bc af25 f43b 77c4 51bd 306f 80bd
00000340: 5ab4 083c 27b7 e13a 6bdb 103b 0151 893d
00000350: d8dc 393b a3f1 933d 86ee 9d3d b8d6 b1bc
00000360: b87e a7bd 9c7c a13c d985 6dbb 2fe6 75bd
00000370: 72e0 3bbd 6778 823d c576 363d 6d86 7dbd
00000380: ab6b 663d acfb 803d 31e2 e3bc f5d2 9e3d
00000390: 0dcf 6f3c 5259 963d 0b2f bf3b 03c3 5c3d
000003a0: b8dc 0f3d b7dd 22bd 9cb5 e4bc 4798 fc3b
000003b0: 610a 8abd 69f7 51bd bfc2 3dbd 42c5 aebd
000003c0: b390 55bd 0b15 7dbc 7f94 acbc bdbe 43bd
000003d0: bfa6 a43d 71e2 ee3c 9a54 c53c e4d3 d03c
000003e0: 2ff0 d6bc 6510 07ba 55b6 9f3d 8543 8b3d
000003f0: 7acb 5f3d 1169 433d 74bc e43c 96c4 513d

rnn.bias_ih_l1 f4 [384]
-0.07158516 0.06485733 -0.02098664 0.011543877 -0.05104785 0.065588385 -0.07200497 -0.0059375297
0.051564746 -0.009257077 0.05453858 0.033694852 -0.019969804 -0.03158312 -0.049607497 0.0012709288
-0.067845725 -0.004797696 -0.07193666 0.08093734 0.04297709 0.0640407 -0.07311139 -0.0043773456
-0.0025124045 0.04679445 -0.014260705 0.058777824 -0.085810274 -0.0758355 -0.02351787 -0.030140225
-0.069188856 0.007369209 -0.06438095 0.04708324 -0.039154463 -0.047316715 0.026046213 -0.020884652
-0.035202313 0.047498014 -0.05492265 0.04997226 -0.017458051 -0.025355417 0.07317651 -0.05885882
0.024010083 -0.03329882 0.008519556 0.04109638 -0.0013329686 -0.072934985 -0.012964164 0.06457454
0.036132548 0.012600988 0.052864734 0.03161601 0.040169742 0.015723666 -0.047288314 0.021555418
0.05347234 0.030920418 0.051966533 0.021088978 0.039377734 -0.07612305 0.014397424 0.04512078
0.018879976 -0.013324669 -0.059016757 0.07909429 -0.035463452 -0.03367431 -0.03494644 -0.0444432
-0.013268964 0.022737328 -0.056998614 0.0002777749 0.007916043 -0.023685409 -0.020840917 0.004110878
-0.06110697 0.018798236 0.0063197627 -0.059235 -0.047042742 0.081624225 0.08657574 0.08587307
0.072565325 -0.042221457 -0.03746507 -0.0571961 -0.07515742 0.06862743 0.06584339 0.01979128
-0.042084962 -0.07815032 0.071096204 0.01732282 -0.06745303 -0.0026778958 0.07601433 0.053190798
0.07030255 -0.07046421 -0.05998074 0.029544989 0.08881129 -0.03681412 0.030009987 -0.05913037
-0.08041091 0.066547 0.0844865 0.08228002 -0.031195432 0.060481973 0.014872477 0.048058346
0.06507771 -0.01641147 0.05881195 0.051187478 -0.008965401 0.06353427 -0.058673162 0.05696459
0.02504368 0.057739522 -0.040204097 -0.049949225 0.071512915 -0.007637714 -0.06866493 -0.02169462
-0.04866059 -0.08760934 0.02390438 -0.050674144 0.070477925 -0.057889715 0.05487894 0.07715365
-0.08009576 0.06530269 -0.087280676 -0.03003771 -0.080228746 0.083246686 0.04398111 0.000908756
-0.077586494 0.023666661 -0.071146354 0.014025831 -0.058336332 0.07330507 -0.014279016 0.021830717
0.014659114 -0.06995835 -0.017393004 0.07746072 -0.08520962 -0.0018787306 -0.014089009 0.017874315
0.087654166 0.06235605 0.051202644 0.044221003 0.027563438 0.042661685 -0.0070980014 0.03608156
0.080834545 -0.06821117 0.019710263 0.013862577 -0.023643928 0.08704426 -0.06079476 -0.053102054
-0.08075163 0.046527877 -0.06114627 -0.05042386 -0.011258759 -0.05326784 0.069560006 -0.047417358
-0.08165559 -0.023444263 -0.049303744 0.017535297 -0.016143326 0.020233057 0.05778076 -0.0031557872
-0.04138096 -0.07956622 0.0114495065 0.050359987 -0.026883243 0.05683567 0.08719377 0.08754538
-0.08201162 -0.019964233 -0.008312535 -0.06414333 -0.025040666 -0.013675192 0.00058522105 0.0036084298
0.08773657 -0.04947234 0.07831803 -0.08754467 0.038671657 0.0049710223 -0.036186498 0.00891652
-0.03590943 -0.0039580953 0.08117789 -0.08422721 -0.036069315 0.052220237 0.086017825 0.08202213
-0.012953852 0.023797676 -0.00945131 0.043868106 0.066764824 -0.015054858 -0.08038972 0.033056766
-0.018916769 0.03523482 -0.031930156 0.074212395 -0.069525346 0.002875974 -0.049799267 0.056037948
00000000: 3e9b 92bd ebd3 843d 2dec abbc 8822 3d3c
00000010: 8d17 51bd 3453 863d 5777 93bd 9c8f c2bb
00000020: 8e35 533d ffaa 17bc d963 5f3d 9d03 0a3d
00000030: b797 a3bc 4d5d 01bd 3b31 4bbd 4b95 a63a
00000040: b3f2 8abd fe35 9dbb 8753 93bd 7ac2 a53d
00000050: bf08 303d c527 833d 6dbb 95bd d66f 8fbb
00000060: 27a7 24bb 8aab 3f3d bba5 69bc 04c1 703d
00000070: 4cbd afbd a54f 9bbd 8ca8 c0bc a2e8 f6bc
00000080: e3b2 8dbd 6879 f13b 29da 83bd 5bda 403d
00000090: 6e60 20bd 2ccf 41bd de5e d53c 4a16 abbc
000000a0: 4d30 10bd 478d 423d 93f6 60bd b6af 4c3d
000000b0: 3004 8fbc 2ab6 cfbc 91dd 953d f215 71bd
000000c0: cbb0 c43c 5864 08bd 9c95 0b3c ae54 283d
000000d0: 01b7 aeba f05e 95bd a567 54bc a83f 843d
000000e0: b9ff 133d 6074 4e3c b188 583d ca7f 013d
000000f0: 0789 243d ebce 803c 64b1 41bd fd94 b03c
00000100: d005 5b3d d14c fd3c dcda 543d cbc2 ac3c
00000110: 8c4a 213d 67e6 9bbd 2ce3 6b3c 91d0 383d
00000120: 2eaa 9a3c b64f 5abc 8ebb 71bd 30fc a13d
00000130: 2042 11bd 13ee 09bd 0024 0fbd 130a 36bd
00000140: 1266 59bc a243 ba3c 6177 69bd 51a2 9139
00000150: 4ab2 013c e707 c2bc 92ba aabc 8bb4 863b
00000160: 4d4b 7abd c2fe 993c 0316 cf3b 66a0 72bd
00000170: e4af 40bd 9a2a a73d 9f4e b13d 38de af3d
00000180: 219d 943d 68f0 2cbd f974 19bd 7546 6abd
00000190: 22ec 99bd 8a8c 8c3d e6d8 863d 5321 a23c
000001a0: 4861 2cbd 460d a0bd e39a 913d 96e8 8d3c
000001b0: d024 8abd a37f 2fbb 67ad 9b3d 98de 593d
000001c0: c9fa 8f3d 8a4f 90bd 5dae 75bd 5508 f23c
000001d0: b2e2 b53d 67ca 16bd 81d7 f53c b032 72bd
000001e0: 7aae a4bd cb49 883d 4207 ad3d 6d82 a83d
000001f0: 908d ffbc f2bb 773d b1ab 733c d4d8 443d
00000200: 7647 853d 5971 86bc cde4 703d f6a9 513d
00000210: 9ee3 12bc 411e 823d 4553 70bd b453 693d
00000220: 6728 cd3c 4780 6c3d 0dad 24bd 8f97 4cbd
00000230: 5d75 923d ca45 fabb 33a0 8cbd eab8 b1bc
00000240: 5450 47bd 876c b3bd 1ed3 c33c b18f 4fbd
00000250: bb56 903d c41d 6dbd bdc8 603d bc02 9e3d
00000260: 3f09 a4bd 6bbd 853d 36c0 b2bd a511 f6bc
00000270: f84e a4bd 3d7d aa3d 8925 343d 9539 6e3a
00000280: abe5 9ebd 96e0 c13c 2eb5 91bd 99cc 653c
00000290: 14f2 6ebd f820 963d 89f2 69bc 55d6 b23c
000002a0: c82c 703c 5346 8fbd c67b 8ebc baa3 9e3d
000002b0: 6282 aebd bd3f f6ba 96d5 66bc 286d 923c
000002c0: 0784 b33d 0f69 7f3d ddb9 513d 1521 353d
000002d0: b8cc e13c 05be 2e3d 5a96 e8bb 42ca 133d
000002e0: 958c a53d 4cb2 8bbd 6b77 a13c dd1f 633c
000002f0: e9b0 c1bc 4344 b23d ed03 79bd 8a81 59bd
00000300: 1c61 a5bd 0494 3e3d 8374 7abd 4089 4ebd
00000310: a876 38bc 612f 5abd 7a75 8e3d b438 42bd
00000320: 0c3b a7bd 2f0e c0bc b9f2 49bd 2fa6 8f3c
00000330: 023f 84bc ccbf a53c 85ab 6c3d 53d1 4ebb
00000340: 157f 29bd 9df3 a2bd b696 3b3c 4646 4e3d
00000350: 3f3a dcbc 85cc 683d a692 b23d fe4a b33d
00000360: b5f5 a7bd 088c a3bc 4c31 08bc 945d 83bd
00000370: 1522 cdbc ea0d 60bc 8569 193a 687b 6c3b
00000380: 3baf b33d 82a3 4abd 3465 a03d 9f4a b3bd
00000390: 2c66 1e3d f5e3 a23b 4b38 14bd 9816 123c
000003a0: c415 13bd e9b2 81bb 9840 a63d 517f acbd
000003b0: 6bbd 13bd e3e4 553d 1d2a b03d 38fb a73d
000003c0: 653c 54bc 58f3 c23c abd9 1abc 0baf 333d
000003d0: ffbb 883d a7a8 76bc 5ea3 a4bd 8866 073d
000003e0: 57f7 9abc 6352 103d 32c9 02bd abfc 973d
000003f0: 4e63 8ebd d67a 3c3b 51fa 4bbd 0c88 653d
