exps/chpts/TCN_layers2_stride5_max_lr0.0001/best_model.pth (torch, 501357 bytes, 34 tensors)

conv.bias f4 [64]
000000 a5 f4 03 bd 65 36 95 bc 88 c4 a5 3c ac 87 5b bd
       -0.032215733 -0.018214414 0.020235315 -0.053596184
000010 6c 8a 54 bd 65 e8 6c bd 21 9f 4e 3d b5 2f a4 bc
       -0.051889822 -0.057838816 0.050444726 -0.02004228
000020 fc f3 0f 3d a8 73 85 3d 7c bf 65 3c 60 99 c0 bc
       0.03514479 0.065162 0.014022704 -0.023510635
000030 94 e4 88 3c b5 ec 8a 3c be 88 6b 3d ec db 70 bd
       0.016710557 0.016958574 0.057503454 -0.058803484
000040 3e 3c 30 bd 73 c1 73 bb 0e b9 41 3d 59 26 f8 bc
       -0.0430262 -0.0037194162 0.047295623 -0.030291723
000050 6b cb 41 3d 43 52 6b bb 19 a2 61 bd b7 72 1b bd
       0.047313135 -0.0035907186 -0.05508623 -0.037951197
000060 f0 c1 2f bd 1c d9 cd bc 87 00 8b 3d 02 9a 6f bc
       -0.042909563 -0.02512794 0.0678721 -0.014624121
000070 6d 5b 70 bd 2a e7 80 3c 13 95 46 bc 46 20 56 bd
       -0.05868094 0.015735228 -0.012120503 -0.052276872
000080 a1 09 df bc b7 76 77 bd 38 8b 56 bd 28 54 1b bc
       -0.027226271 -0.06041595 -0.052378863 -0.009480514
000090 7e 66 cf bc fa a8 7a 3d ad c8 b3 3b 92 7c 36 bc
       -0.025317427 0.061196305 0.005486569 -0.011138098
0000a0 b4 25 f7 3c 97 a4 b6 bc 7c 7d 80 3d e2 9f 2e bd
       0.030169345 -0.02229528 0.06273934 -0.042632945
0000b0 9a 32 db 3b 83 da 46 3d b9 c0 a8 3d f7 fa 8e bc
       0.006689382 0.048548233 0.08239884 -0.017453654
0000c0 93 31 6b 3c ed bf 89 39 4a 85 4c 3d 1a c7 8d 3d
       0.014355081 0.00026273672 0.0499318 0.06922741
0000d0 23 38 90 3d cd 95 0c 3d 76 62 25 3d e0 a1 58 bd
       0.07041957 0.03432255 0.040377103 -0.05288875
0000e0 64 d8 0b bd d2 6d 27 bc c9 7d 94 bc a7 1f 58 bd
       -0.034141913 -0.010219054 -0.018126385 -0.05276456
0000f0 e6 a2 42 bd 33 22 00 bd 72 86 1b 3b fd 2b 37 3d
       -0.047518633 -0.031282615 0.0023731259 0.044719685

conv.weight_g f4 [64, 1, 1]
000000 2a 12 1b 3f 6e 22 10 3f 6b 1a 11 3f 5f 61 1b 3f
       0.6057459 0.56302536 0.56680936 0.6069545
000010 ff 27 1f 3f 4d 2a 10 3f 37 8a 20 3f 9d ba 14 3f
       0.62170404 0.56314546 0.627109 0.5809725
000020 78 66 1a 3f 36 a7 1c 3f f6 cc 13 3f 78 da 1f 3f
       0.60312605 0.61192644 0.5773462 0.6244273
000030 5e ab 13 3f 6f cf 1a 3f 39 40 16 3f a8 93 16 3f
       0.5768336 0.6047277 0.58691746 0.58819056
000040 2e e3 0e 3f b4 3b 14 3f e3 af 17 3f 1a d5 15 3f
       0.558154 0.579036 0.59252757 0.5852829
000050 cd f4 1d 3f de 1e 0f 3f 6c a2 14 3f 95 0d 23 3f
       0.6170166 0.55906475 0.58060336 0.636926
000060 af 5e 13 3f f8 9f 22 3f 9f d0 17 3f 70 00 10 3f
       0.5756635 0.6352534 0.59302706 0.5625067
000070 e1 91 0f 3f 17 4f 19 3f 81 59 1c 3f 9e 87 10 3f
       0.5608197 0.59886307 0.6107407 0.56456935
000080 cb c1 1c 3f 9d fb 18 3f 00 68 1b 3f 83 8f 16 3f
       0.61233205 0.5975893 0.60705566 0.5881273
000090 48 18 18 3f c4 fa 1c 3f e3 80 20 3f 2a a2 0e 3f
       0.5941205 0.6132014 0.62696666 0.5571619
0000a0 43 54 17 3f e2 c4 14 3f a2 5c 18 3f aa 5f 16 3f
       0.5911295 0.5811292 0.59516346 0.5873972
0000b0 9c 77 15 3f 32 e2 0f 3f 85 7d 16 3f 9a 43 0f 3f
       0.58385634 0.5620452 0.5878528 0.55962527
0000c0 42 3b 1d 3f 12 f8 0e 3f 9a 44 16 3f 97 ad 19 3f
       0.61418545 0.55847275 0.5869843 0.600305
0000d0 02 d3 18 3f fa ce 14 3f a7 bf 16 3f 06 5a 18 3f
       0.5969697 0.5812832 0.5888619 0.59512365
0000e0 98 55 19 3f 73 8e 1a 3f f5 b7 19 3f b3 7d 19 3f
       0.5989623 0.6037361 0.6004632 0.59957427
0000f0 24 ad 17 3f c7 a6 17 3f 22 0f 1a 3f 1c 80 1d 3f
       0.59248567 0.5923886 0.6017934 0.61523604

conv.weight_v f4 [64, 17, 14]
000000 00 b2 19 3c a9 24 7b bd a1 1e 69 3d ed 96 fe 3c
       0.009380817 -0.06131426 0.056913976 0.031077826
000010 48 60 3b 3d d4 c0 15 3d 43 41 5d bd 66 75 33 bd
       0.045746118 0.03656085 -0.054017317 -0.04381313
000020 1b 5c e3 bc 7e 81 44 3a 19 53 47 bd fb 15 19 3d
       -0.02775388 0.00074961025 -0.048663232 0.037374478
000030 74 3b bb bc a2 b4 e6 3c 96 de 1c 3b 8d 31 f8 bc
       -0.022855498 0.028162304 0.0023936382 -0.030297065
000040 d9 c9 57 bd 71 06 8a 3d f7 0b ce 3c eb 4f 35 ba
       -0.05268273 0.0673951 0.02515219 -0.0006916511
000050 4d fd 0c 38 52 ae 6a 3d 9a a2 6f 3c fe 06 8b bc
       3.3614506e-05 0.05729515 0.01462617 -0.016971108
000060 4a 56 66 3d f5 cd 60 bc a2 7e a2 3a 85 98 09 3d
       0.056234635 -0.013720979 0.0012397359 0.03359272
000070 27 e6 94 bc 5a cc 5c bd 19 11 20 3d de 68 03 bc
       -0.018176151 -0.053905822 0.039078806 -0.008020608
000080 15 7f 19 3d 8b d6 a0 bb 8c 40 42 3d 2c ac 31 3d
       0.03747471 -0.004908388 0.047424838 0.043377087
000090 8f 88 b2 3c 16 9d 6a bd 63 31 2b bc 18 ea 50 3d
       0.021793632 -0.057278715 -0.010448786 0.0510045
0000a0 45 dc 5e 3d 86 7f c4 3c 48 ee ea bc be 6b 83 bc
       0.054409284 0.02398659 -0.028678074 -0.016042586
0000b0 c1 3c 40 3d 36 2a 03 3d 59 60 89 3c 48 8e e9 3b
       0.04693294 0.032022677 0.016769575 0.007127557
0000c0 55 d1 ad bc 66 1f 17 3d f2 5b 55 3d 9c cb e1 3c
       -0.021217981 0.03689518 0.05208964 0.027562909
0000d0 88 66 71 3b 9b 71 33 bd 69 a4 fa bc 5d cd 5c 3d
       0.0036834795 -0.043809514 -0.030595975 0.053906787
0000e0 c4 92 d8 3c 97 21 8a 3d af 6e 85 3b 7d 81 de 3c
       0.02643717 0.06744688 0.0040720324 0.027161354
0000f0 50 54 dc bc 1c 00 c2 3c d1 10 34 bc b9 a7 5e 3d
       -0.026895672 0.023681693 -0.0109903375 0.05435917
000100 80 c3 2b bd d6 0c 83 3d f9 bc 7b 3d b5 64 b3 bc
       -0.04193449 0.06398933 0.061459515 -0.021898607
000110 f2 48 e1 bc 30 71 29 bd eb 69 55 bd 58 f7 2f 3d
       -0.027500603 -0.04136771 -0.052102964 0.042960495
000120 a8 73 44 bc 86 79 87 bc 04 4f 15 3d 90 c2 82 3c
       -0.011990465 -0.01653744 0.03645231 0.015961915
000130 91 21 ff 3c df f8 ed 3c 11 c4 36 3c 1b af a9 3b
       0.031143935 0.029049335 0.011155144 0.005178345
000140 b5 42 85 bd a1 15 18 3c 41 ed 74 3d 8e 02 fe 3c
       -0.06506864 0.0092825005 0.059796575 0.031007078
000150 ea 3f 15 3a 46 44 1a 3d 93 6a fe bc 0e b8 fa bc
       0.0005693423 0.037662767 -0.031056678 -0.030605342
000160 f4 33 5b 3d 96 6d 57 bd 66 89 f9 3c b0 ed 27 bd
       0.053516343 -0.052594744 0.030461024 -0.04099816
000170 ac d7 f5 3c 76 ad d9 bc e2 79 f0 bc 7d 75 b6 bc
       0.030010067 -0.02657197 -0.029354993 -0.02227282
000180 e7 28 e2 bc bd 04 fb 3c 52 ed 58 3c 19 df 83 3d
       -0.027607394 0.030641908 0.013240175 0.06439037
000190 9b c0 58 3d 72 de 5b bd d9 ec 0f bc e5 b7 38 3d
       0.052918058 -0.053678937 -0.008784496 0.04509725
0001a0 c1 26 6f 3d d8 46 90 3c 35 3b e7 bb bb 6d 6d 3d
       0.058386568 0.017611906 -0.0070566186 0.057965975
0001b0 02 60 52 3d a4 5a c6 3c b2 7f 3f bd 69 4f 14 bd
       0.05136109 0.024213143 -0.04675264 -0.036208544
0001c0 50 ce 5c bd 66 62 ae bc 4c e1 13 bb 48 74 85 3c
       -0.053907692 -0.021287154 -0.0022564707 0.016290799
0001d0 6b 16 af 3c c2 82 92 bd 56 e8 8c bd f2 4b ab bc
       0.021372994 -0.07153846 -0.06880252 -0.020910237
0001e0 bf fa 36 3d 11 52 7b bd 4c 36 3a 3d d4 11 68 bd
       0.044672724 -0.06135756 0.045461938 -0.056657627
0001f0 14 19 bd bc ee 14 a1 bd 6b 00 0f 3d 8d d7 27 bd
       -0.023083247 -0.0786532 0.034912508 -0.04097705
000200 d3 6c 1d 3d c3 8b 86 bc 0c ab 28 bd a2 45 da bc
       0.03843386 -0.016424065 -0.041178748 -0.026644532
000210 d2 35 03 bd d0 3e 82 bd 19 29 26 3d c4 16 65 3d
       -0.03203375 -0.06359637 0.040566538 0.055929914
000220 21 8e 18 3d 56 23 48 bd cd e6 21 3d 7c c5 42 bc
       0.03724492 -0.048861824 0.03952675 -0.011887904
000230 55 f2 17 bc c3 01 1e bc b4 e5 a5 bc 4b df 02 bb
       -0.009274085 -0.009643975 -0.020251133 -0.0019969519
000240 1b 51 54 bd 22 c3 33 bc 52 b9 cd bc a8 f6 5b bd
       -0.05183516 -0.010971816 -0.025112782 -0.053702027
000250 52 df 16 ba d0 39 89 3c 4f 4e 16 3d 12 0f 39 bd
       -0.0005755323 0.0167512 0.036695775 -0.045180388
000260 63 42 52 3d e0 9f 38 bd 66 24 1c ba 33 5f 43 3d
       0.051332843 -0.045074344 -0.00059563515 0.04769821
000270 c8 90 f0 bc 3e 14 69 bd 31 d9 87 3d 45 71 8b 3d
       -0.029365912 -0.05690407 0.06633223 0.06808714
000280 67 25 23 3b 79 88 ac 3c d5 5a 32 bd f6 95 ad 3c
       0.002489412 0.021061169 -0.043543655 0.021189671
000290 ff 82 61 3d a6 d0 64 3d 8a ce 3f bd 7f 55 c4 bc
       0.05505657 0.055863045 -0.04682783 -0.023966549
0002a0 be fa 81 bd 29 10 9b 3c 25 95 8c 3c dc 74 3c bd
       -0.063466534 0.018928604 0.017160961 -0.046009883
0002b0 b4 7e 7f 3c 38 33 07 bd 4c ee 60 bd 32 01 05 3d
       0.015594173 -0.03300783 -0.054914758 0.032471843
0002c0 db 0e 55 bd aa 46 66 bd a1 d9 22 bd 18 0e 76 3c
       -0.05201612 -0.056219734 -0.03975833 0.015018009
0002d0 4a 8f f9 bc ab 3b 7e bd 2b aa 08 3d 35 44 77 3c
       -0.030463833 -0.062068623 0.03336541 0.015091945
0002e0 59 7d d8 3b 81 d4 0f ba 5a d8 a5 3c b5 90 e1 3c
       0.0066067395 -0.00054866826 0.020244766 0.027534822
0002f0 31 76 21 bc 14 37 76 3c 3e 45 fe 3b 73 d7 5f 3d
       -0.009854839 0.01502778 0.007759719 0.054648828
000300 d2 9f 77 3d 5f 7d c1 b9 b5 d9 36 bd 0c 50 5c bd
       0.06045515 -0.00036905237 -0.044641215 -0.053787276
000310 4f 41 1c 3d 7e da b1 bc 22 5a 72 3d 52 04 85 bd
       0.03814822 -0.02171063 0.05916799 -0.06494965
000320 28 67 96 3c f4 51 68 bd 9c c1 a8 3a e8 fa b1 ba
       0.018359736 -0.05671878 0.0012875083 -0.0013578804
000330 56 07 3f bd c8 3a 0e bd 6e 1f 1d 3d 47 64 6b 3b
       -0.046637855 -0.034724027 0.03836005 0.0035917924
000340 94 6d 60 bd 8f c2 eb 3c a7 50 92 3d a1 ef e2 3b
       -0.054792 0.028779296 0.071442895 0.0069255386
000350 da 5e 30 3d e2 78 93 3d 02 d0 1c bd b7 0c f1 bb
       0.043059207 0.07200791 -0.03828431 -0.007356252
000360 3d a7 27 3d c4 a5 85 3d bd af ce 3c 98 a1 5a bd
       0.040930975 0.06525758 0.025230283 -0.053376764
000370 75 ef 25 3c 29 ad f4 3c 92 b3 7a 3d a4 df ab ba
       0.010127892 0.029867725 0.061206408 -0.0013112915
000380 e0 f4 8b bc 93 a3 57 3d 2f cf 9a bc 5c 56 85 3c
       -0.017084539 0.05264623 -0.018897621 0.01627653
000390 dc fa e7 39 11 05 fd 3c ee 85 d7 3b e1 35 f1 bc
       0.00044246658 0.030886205 0.006577245 -0.029444637
0003a0 a7 46 40 bb d7 78 23 bd f2 48 0b 3c 50 56 54 3d
       -0.0029338987 -0.039910164 0.008501278 0.051840127
0003b0 4b 7e f1 3c 09 72 ee bc 4f 9a 66 bd ea 79 4b bd
       0.029479166 -0.02910711 -0.056299504 -0.049676813
0003c0 03 c9 87 3a be 84 6b 3d 6a 3d 20 3d 81 64 d3 bc
       0.0010359589 0.05749964 0.03912107 -0.02580476
0003d0 0c eb 3b bc bc e3 5b bd ab 2b a0 3c 5b f7 9e bb
       -0.011469614 -0.05368398 0.019552073 -0.0048512644
0003e0 80 43 8a bc 60 c5 42 bd 0d e0 29 3d 2a 26 01 3c
       -0.01687789 -0.047551513 0.041473437 0.007882634
0003f0 d5 a9 50 3a 8a 40 de bc 61 b3 6f bc 9c 1c 28 bd
       0.0007959877 -0.027130384 -0.01463017 -0.04104291

layers.0.0.bias f4 [64]
000000 a5 f4 03 bd 65 36 95 bc 88 c4 a5 3c ac 87 5b bd
       -0.032215733 -0.018214414 0.020235315 -0.053596184
000010 6c 8a 54 bd 65 e8 6c bd 21 9f 4e 3d b5 2f a4 bc
       -0.051889822 -0.057838816 0.050444726 -0.02004228
000020 fc f3 0f 3d a8 73 85 3d 7c bf 65 3c 60 99 c0 bc
       0.03514479 0.065162 0.014022704 -0.023510635
000030 94 e4 88 3c b5 ec 8a 3c be 88 6b 3d ec db 70 bd
       0.016710557 0.016958574 0.057503454 -0.058803484
000040 3e 3c 30 bd 73 c1 73 bb 0e b9 41 3d 59 26 f8 bc
       -0.0430262 -0.0037194162 0.047295623 -0.030291723
000050 6b cb 41 3d 43 52 6b bb 19 a2 61 bd b7 72 1b bd
       0.047313135 -0.0035907186 -0.05508623 -0.037951197
000060 f0 c1 2f bd 1c d9 cd bc 87 00 8b 3d 02 9a 6f bc
       -0.042909563 -0.02512794 0.0678721 -0.014624121
000070 6d 5b 70 bd 2a e7 80 3c 13 95 46 bc 46 20 56 bd
       -0.05868094 0.015735228 -0.012120503 -0.052276872
000080 a1 09 df bc b7 76 77 bd 38 8b 56 bd 28 54 1b bc
       -0.027226271 -0.06041595 -0.052378863 -0.009480514
000090 7e 66 cf bc fa a8 7a 3d ad c8 b3 3b 92 7c 36 bc
       -0.025317427 0.061196305 0.005486569 -0.011138098
0000a0 b4 25 f7 3c 97 a4 b6 bc 7c 7d 80 3d e2 9f 2e bd
       0.030169345 -0.02229528 0.06273934 -0.042632945
0000b0 9a 32 db 3b 83 da 46 3d b9 c0 a8 3d f7 fa 8e bc
       0.006689382 0.048548233 0.08239884 -0.017453654
0000c0 93 31 6b 3c ed bf 89 39 4a 85 4c 3d 1a c7 8d 3d
       0.014355081 0.00026273672 0.0499318 0.06922741
0000d0 23 38 90 3d cd 95 0c 3d 76 62 25 3d e0 a1 58 bd
       0.07041957 0.03432255 0.040377103 -0.05288875
0000e0 64 d8 0b bd d2 6d 27 bc c9 7d 94 bc a7 1f 58 bd
       -0.034141913 -0.010219054 -0.018126385 -0.05276456
0000f0 e6 a2 42 bd 33 22 00 bd 72 86 1b 3b fd 2b 37 3d
       -0.047518633 -0.031282615 0.0023731259 0.044719685

layers.0.0.weight_g f4 [64, 1, 1]
000000 2a 12 1b 3f 6e 22 10 3f 6b 1a 11 3f 5f 61 1b 3f
       0.6057459 0.56302536 0.56680936 0.6069545
000010 ff 27 1f 3f 4d 2a 10 3f 37 8a 20 3f 9d ba 14 3f
       0.62170404 0.56314546 0.627109 0.5809725
000020 78 66 1a 3f 36 a7 1c 3f f6 cc 13 3f 78 da 1f 3f
       0.60312605 0.61192644 0.5773462 0.6244273
000030 5e ab 13 3f 6f cf 1a 3f 39 40 16 3f a8 93 16 3f
       0.5768336 0.6047277 0.58691746 0.58819056
000040 2e e3 0e 3f b4 3b 14 3f e3 af 17 3f 1a d5 15 3f
       0.558154 0.579036 0.59252757 0.5852829
000050 cd f4 1d 3f de 1e 0f 3f 6c a2 14 3f 95 0d 23 3f
       0.6170166 0.55906475 0.58060336 0.636926
000060 af 5e 13 3f f8 9f 22 3f 9f d0 17 3f 70 00 10 3f
       0.5756635 0.6352534 0.59302706 0.5625067
000070 e1 91 0f 3f 17 4f 19 3f 81 59 1c 3f 9e 87 10 3f
       0.5608197 0.59886307 0.6107407 0.56456935
000080 cb c1 1c 3f 9d fb 18 3f 00 68 1b 3f 83 8f 16 3f
       0.61233205 0.5975893 0.60705566 0.5881273
000090 48 18 18 3f c4 fa 1c 3f e3 80 20 3f 2a a2 0e 3f
       0.5941205 0.6132014 0.62696666 0.5571619
0000a0 43 54 17 3f e2 c4 14 3f a2 5c 18 3f aa 5f 16 3f
       0.5911295 0.5811292 0.59516346 0.5873972
0000b0 9c 77 15 3f 32 e2 0f 3f 85 7d 16 3f 9a 43 0f 3f
       0.58385634 0.5620452 0.5878528 0.55962527
0000c0 42 3b 1d 3f 12 f8 0e 3f 9a 44 16 3f 97 ad 19 3f
       0.61418545 0.55847275 0.5869843 0.600305
0000d0 02 d3 18 3f fa ce 14 3f a7 bf 16 3f 06 5a 18 3f
       0.5969697 0.5812832 0.5888619 0.59512365
0000e0 98 55 19 3f 73 8e 1a 3f f5 b7 19 3f b3 7d 19 3f
       0.5989623 0.6037361 0.6004632 0.59957427
0000f0 24 ad 17 3f c7 a6 17 3f 22 0f 1a 3f 1c 80 1d 3f
       0.59248567 0.5923886 0.6017934 0.61523604

layers.0.0.weight_v f4 [64, 17, 14]
000000 00 b2 19 3c a9 24 7b bd a1 1e 69 3d ed 96 fe 3c
       0.009380817 -0.06131426 0.056913976 0.031077826
000010 48 60 3b 3d d4 c0 15 3d 43 41 5d bd 66 75 33 bd
       0.045746118 0.03656085 -0.054017317 -0.04381313
000020 1b 5c e3 bc 7e 81 44 3a 19 53 47 bd fb 15 19 3d
       -0.02775388 0.00074961025 -0.048663232 0.037374478
000030 74 3b bb bc a2 b4 e6 3c 96 de 1c 3b 8d 31 f8 bc
       -0.022855498 0.028162304 0.0023936382 -0.030297065
000040 d9 c9 57 bd 71 06 8a 3d f7 0b ce 3c eb 4f 35 ba
       -0.05268273 0.0673951 0.02515219 -0.0006916511
000050 4d fd 0c 38 52 ae 6a 3d 9a a2 6f 3c fe 06 8b bc
       3.3614506e-05 0.05729515 0.01462617 -0.016971108
000060 4a 56 66 3d f5 cd 60 bc a2 7e a2 3a 85 98 09 3d
       0.056234635 -0.013720979 0.0012397359 0.03359272
000070 27 e6 94 bc 5a cc 5c bd 19 11 20 3d de 68 03 bc
       -0.018176151 -0.053905822 0.039078806 -0.008020608
000080 15 7f 19 3d 8b d6 a0 bb 8c 40 42 3d 2c ac 31 3d
       0.03747471 -0.004908388 0.047424838 0.043377087
000090 8f 88 b2 3c 16 9d 6a bd 63 31 2b bc 18 ea 50 3d
       0.021793632 -0.057278715 -0.010448786 0.0510045
0000a0 45 dc 5e 3d 86 7f c4 3c 48 ee ea bc be 6b 83 bc
       0.054409284 0.02398659 -0.028678074 -0.016042586
0000b0 c1 3c 40 3d 36 2a 03 3d 59 60 89 3c 48 8e e9 3b
       0.04693294 0.032022677 0.016769575 0.007127557
0000c0 55 d1 ad bc 66 1f 17 3d f2 5b 55 3d 9c cb e1 3c
       -0.021217981 0.03689518 0.05208964 0.027562909
0000d0 88 66 71 3b 9b 71 33 bd 69 a4 fa bc 5d cd 5c 3d
       0.0036834795 -0.043809514 -0.030595975 0.053906787
0000e0 c4 92 d8 3c 97 21 8a 3d af 6e 85 3b 7d 81 de 3c
       0.02643717 0.06744688 0.0040720324 0.027161354
0000f0 50 54 dc bc 1c 00 c2 3c d1 10 34 bc b9 a7 5e 3d
       -0.026895672 0.023681693 -0.0109903375 0.05435917
000100 80 c3 2b bd d6 0c 83 3d f9 bc 7b 3d b5 64 b3 bc
       -0.04193449 0.06398933 0.061459515 -0.021898607
000110 f2 48 e1 bc 30 71 29 bd eb 69 55 bd 58 f7 2f 3d
       -0.027500603 -0.04136771 -0.052102964 0.042960495
000120 a8 73 44 bc 86 79 87 bc 04 4f 15 3d 90 c2 82 3c
       -0.011990465 -0.01653744 0.03645231 0.015961915
000130 91 21 ff 3c df f8 ed 3c 11 c4 36 3c 1b af a9 3b
       0.031143935 0.029049335 0.011155144 0.005178345
000140 b5 42 85 bd a1 15 18 3c 41 ed 74 3d 8e 02 fe 3c
       -0.06506864 0.0092825005 0.059796575 0.031007078
000150 ea 3f 15 3a 46 44 1a 3d 93 6a fe bc 0e b8 fa bc
       0.0005693423 0.037662767 -0.031056678 -0.030605342
000160 f4 33 5b 3d 96 6d 57 bd 66 89 f9 3c b0 ed 27 bd
       0.053516343 -0.052594744 0.030461024 -0.04099816
000170 ac d7 f5 3c 76 ad d9 bc e2 79 f0 bc 7d 75 b6 bc
       0.030010067 -0.02657197 -0.029354993 -0.02227282
000180 e7 28 e2 bc bd 04 fb 3c 52 ed 58 3c 19 df 83 3d
       -0.027607394 0.030641908 0.013240175 0.06439037
000190 9b c0 58 3d 72 de 5b bd d9 ec 0f bc e5 b7 38 3d
       0.052918058 -0.053678937 -0.008784496 0.04509725
0001a0 c1 26 6f 3d d8 46 90 3c 35 3b e7 bb bb 6d 6d 3d
       0.058386568 0.017611906 -0.0070566186 0.057965975
0001b0 02 60 52 3d a4 5a c6 3c b2 7f 3f bd 69 4f 14 bd
       0.05136109 0.024213143 -0.04675264 -0.036208544
0001c0 50 ce 5c bd 66 62 ae bc 4c e1 13 bb 48 74 85 3c
       -0.053907692 -0.021287154 -0.0022564707 0.016290799
0001d0 6b 16 af 3c c2 82 92 bd 56 e8 8c bd f2 4b ab bc
       0.021372994 -0.07153846 -0.06880252 -0.020910237
0001e0 bf fa 36 3d 11 52 7b bd 4c 36 3a 3d d4 11 68 bd
       0.044672724 -0.06135756 0.045461938 -0.056657627
0001f0 14 19 bd bc ee 14 a1 bd 6b 00 0f 3d 8d d7 27 bd
       -0.023083247 -0.0786532 0.034912508 -0.04097705
000200 d3 6c 1d 3d c3 8b 86 bc 0c ab 28 bd a2 45 da bc
       0.03843386 -0.016424065 -0.041178748 -0.026644532
000210 d2 35 03 bd d0 3e 82 bd 19 29 26 3d c4 16 65 3d
       -0.03203375 -0.06359637 0.040566538 0.055929914
000220 21 8e 18 3d 56 23 48 bd cd e6 21 3d 7c c5 42 bc
       0.03724492 -0.048861824 0.03952675 -0.011887904
000230 55 f2 17 bc c3 01 1e bc b4 e5 a5 bc 4b df 02 bb
       -0.009274085 -0.009643975 -0.020251133 -0.0019969519
000240 1b 51 54 bd 22 c3 33 bc 52 b9 cd bc a8 f6 5b bd
       -0.05183516 -0.010971816 -0.025112782 -0.053702027
000250 52 df 16 ba d0 39 89 3c 4f 4e 16 3d 12 0f 39 bd
       -0.0005755323 0.0167512 0.036695775 -0.045180388
000260 63 42 52 3d e0 9f 38 bd 66 24 1c ba 33 5f 43 3d
       0.051332843 -0.045074344 -0.00059563515 0.04769821
000270 c8 90 f0 bc 3e 14 69 bd 31 d9 87 3d 45 71 8b 3d
       -0.029365912 -0.05690407 0.06633223 0.06808714
000280 67 25 23 3b 79 88 ac 3c d5 5a 32 bd f6 95 ad 3c
       0.002489412 0.021061169 -0.043543655 0.021189671
000290 ff 82 61 3d a6 d0 64 3d 8a ce 3f bd 7f 55 c4 bc
       0.05505657 0.055863045 -0.04682783 -0.023966549
0002a0 be fa 81 bd 29 10 9b 3c 25 95 8c 3c dc 74 3c bd
       -0.063466534 0.018928604 0.017160961 -0.046009883
0002b0 b4 7e 7f 3c 38 33 07 bd 4c ee 60 bd 32 01 05 3d
       0.015594173 -0.03300783 -0.054914758 0.032471843
0002c0 db 0e 55 bd aa 46 66 bd a1 d9 22 bd 18 0e 76 3c
       -0.05201612 -0.056219734 -0.03975833 0.015018009
0002d0 4a 8f f9 bc ab 3b 7e bd 2b aa 08 3d 35 44 77 3c
       -0.030463833 -0.062068623 0.03336541 0.015091945
0002e0 59 7d d8 3b 81 d4 0f ba 5a d8 a5 3c b5 90 e1 3c
       0.0066067395 -0.00054866826 0.020244766 0.027534822
0002f0 31 76 21 bc 14 37 76 3c 3e 45 fe 3b 73 d7 5f 3d
       -0.009854839 0.01502778 0.007759719 0.054648828
000300 d2 9f 77 3d 5f 7d c1 b9 b5 d9 36 bd 0c 50 5c bd
       0.06045515 -0.00036905237 -0.044641215 -0.053787276
000310 4f 41 1c 3d 7e da b1 bc 22 5a 72 3d 52 04 85 bd
       0.03814822 -0.02171063 0.05916799 -0.06494965
000320 28 67 96 3c f4 51 68 bd 9c c1 a8 3a e8 fa b1 ba
       0.018359736 -0.05671878 0.0012875083 -0.0013578804
000330 56 07 3f bd c8 3a 0e bd 6e 1f 1d 3d 47 64 6b 3b
       -0.046637855 -0.034724027 0.03836005 0.0035917924
000340 94 6d 60 bd 8f c2 eb 3c a7 50 92 3d a1 ef e2 3b
       -0.054792 0.028779296 0.071442895 0.0069255386
000350 da 5e 30 3d e2 78 93 3d 02 d0 1c bd b7 0c f1 bb
       0.043059207 0.07200791 -0.03828431 -0.007356252
000360 3d a7 27 3d c4 a5 85 3d bd af ce 3c 98 a1 5a bd
       0.040930975 0.06525758 0.025230283 -0.053376764
000370 75 ef 25 3c 29 ad f4 3c 92 b3 7a 3d a4 df ab ba
       0.010127892 0.029867725 0.061206408 -0.0013112915
000380 e0 f4 8b bc 93 a3 57 3d 2f cf 9a bc 5c 56 85 3c
       -0.017084539 0.05264623 -0.018897621 0.01627653
000390 dc fa e7 39 11 05 fd 3c ee 85 d7 3b e1 35 f1 bc
       0.00044246658 0.030886205 0.006577245 -0.029444637
0003a0 a7 46 40 bb d7 78 23 bd f2 48 0b 3c 50 56 54 3d
       -0.0029338987 -0.039910164 0.008501278 0.051840127
0003b0 4b 7e f1 3c 09 72 ee bc 4f 9a 66 bd ea 79 4b bd
       0.029479166 -0.02910711 -0.056299504 -0.049676813
0003c0 03 c9 87 3a be 84 6b 3d 6a 3d 20 3d 81 64 d3 bc
       0.0010359589 0.05749964 0.03912107 -0.02580476
0003d0 0c eb 3b bc bc e3 5b bd ab 2b a0 3c 5b f7 9e bb
       -0.011469614 -0.05368398 0.019552073 -0.0048512644
0003e0 80 43 8a bc 60 c5 42 bd 0d e0 29 3d 2a 26 01 3c
       -0.01687789 -0.047551513 0.041473437 0.007882634
0003f0 d5 a9 50 3a 8a 40 de bc 61 b3 6f bc 9c 1c 28 bd
       0.0007959877 -0.027130384 -0.01463017 -0.04104291

layers.1.conv1.bias f4 [64]
000000 16 86 84 3d 53 6f 95 bc 79 f2 18 3d bc 89 5c 3d
       0.06470887 -0.01824156 0.037340615 0.05384229
000010 fa ef 6c 3c a7 7e f9 bc 81 36 97 bc 32 a1 45 bd
       0.014461512 -0.0304559 -0.018458607 -0.04824943
000020 df 04 8e bd 97 96 97 3d cd 2c 9b 3d 76 ff 6c bd
       -0.06934523 0.074017696 0.075769044 -0.057860814
000030 0b dd 81 3c 9d 50 87 bd 5b e6 45 3c 94 b1 ac bb
       0.015852472 -0.06607173 0.012078847 -0.0052701924
000040 db 56 d6 bc c2 fc 38 3d 66 b6 5d 3d 90 81 d4 3c
       -0.026164463 0.045162924 0.054129027 0.025940686
000050 6f 17 34 3d ce 58 ac 3c f9 71 50 bd d3 68 46 bd
       0.04396766 0.02103844 -0.050889943 -0.048439812
000060 f5 48 a8 3d 8c c8 ef 3c 56 16 92 3d 05 8d 06 3d
       0.082170404 0.029270433 0.071331665 0.03284933
000070 90 93 2b 3d 2b 44 31 3b fa 72 65 bd 24 9a 3d 3d
       0.041888773 0.0027048688 -0.056017853 0.046289578
000080 43 07 e1 ba c8 f9 b7 bc a3 ed 52 bd 0e 48 2a 3d
       -0.0017168302 -0.022457972 -0.05149616 0.041572623
000090 11 46 73 3d d4 27 7e bd e4 d8 48 bd 7d 69 ed 3c
       0.059392992 -0.0620497 -0.049034968 0.028980965
0000a0 cb 12 e2 bc ed c1 26 3c 2e cc 6a 3d 17 9c 20 bd
       -0.027596852 0.010178071 0.057323627 -0.03921136
0000b0 12 54 92 3d 9d 36 d2 3c 22 0e e0 3b 13 69 df bc
       0.071449414 0.025660807 0.0068376223 -0.027271783
0000c0 cb 15 37 3a 2d d6 af 3d 06 61 43 bd 49 d0 6e bd
       0.00069841434 0.08585773 -0.04769995 -0.058304105
0000d0 ab e7 14 3d 5d 39 ff 3c fb 71 15 3d 42 af 19 3d
       0.03635375 0.031155283 0.036485653 0.037520654
0000e0 e9 c8 91 3c 1f fc 4c 3d 59 21 c2 3c a6 91 1f bb
       0.017795997 0.05004513 0.023697542 -0.0024348288
0000f0 08 68 41 3d 01 3e ee bc e8 57 5c bd fb ee 48 bd
       0.047218353 -0.0290823 -0.05379477 -0.049056035

layers.1.conv1.weight_g f4 [64, 1, 1]
000000 ef c9 14 3f 31 d0 18 3f c6 d9 0c 3f ea 3e 19 3f
       0.58120626 0.59692675 0.55019796 0.59861624
000010 8b e9 16 3f fa 73 19 3f 57 61 1a 3f 26 f6 17 3f
       0.5895011 0.5994259 0.6030478 0.5935997
000020 b6 18 1b 3f 21 65 22 3f cd a8 14 3f dd c7 0f 3f
       0.6058458 0.6343556 0.5807007 0.5616434
000030 bc 1b 17 3f 3b e8 17 3f 1d a7 1d 3f 87 e9 13 3f
       0.59026694 0.5933873 0.6158312 0.5777821
000040 0a 69 1a 3f 6c 61 15 3f 06 48 11 3f ef d7 17 3f
       0.60316527 0.5835178 0.56750524 0.59313864
000050 27 82 17 3f e8 28 10 3f 1f ce 1b 3f 3a f3 15 3f
       0.5918297 0.5631242 0.6086139 0.5857426
000060 2a ae 1e 3f b0 0d 1d 3f d2 3a 0e 3f df d0 1f 3f
       0.61984503 0.6134901 0.555585 0.62428087
000070 b2 a9 12 3f 8b 2a 12 3f b2 1f 11 3f 72 a3 1b 3f
       0.57290184 0.57096165 0.5668899 0.6079627
000080 da 4c 1b 3f dc 5e 15 3f 3d 00 11 3f 61 9f 16 3f
       0.6066414 0.5834787 0.5664099 0.5883694
000090 6b 9f 15 3f 3f 6a 1d 3f eb d6 15 3f 89 11 11 3f
       0.5844638 0.61490244 0.58531064 0.5666738
0000a0 5e e9 17 3f 34 43 19 3f c9 0a 14 3f 4b 60 19 3f
       0.59340465 0.5986817 0.57828957 0.59912556
0000b0 eb d4 17 3f c5 c5 1d 3f ff 84 19 3f 29 41 14 3f
       0.5930926 0.616299 0.5996856 0.57911927
0000c0 f2 e0 11 3f d5 cb 1a 3f 98 95 16 3f b5 a1 10 3f
       0.56983864 0.60467273 0.5882201 0.56496745
0000d0 cb e5 14 3f 50 b1 18 3f ae d9 1d 3f 9a 2f 12 3f
       0.58163136 0.5964556 0.6166028 0.57103884
0000e0 26 0f 1c 3f 28 94 1a 3f 67 19 19 3f 7a 66 14 3f
       0.60960615 0.6038232 0.59804386 0.57968867
0000f0 5e db 0e 3f cd 24 1d 3f 83 be 11 3f d6 56 15 3f
       0.5580348 0.6138428 0.5693132 0.58335626

layers.1.conv1.weight_v f4 [64, 64, 3]
000000 52 26 3d bd d8 f8 17 3d 2e 9f f8 bc 00 74 98 ba
       -0.046179123 0.03710255 -0.03034934 -0.001163125
000010 ed c1 cd bb b2 3e 80 3c 4a 37 0c bc 49 cc d3 bc
       -0.0062792213 0.015654895 -0.008558104 -0.025854247
000020 92 b5 39 3d 9a 85 90 36 d7 b8 d2 3c 03 05 26 3d
       0.045339175 4.3070877e-06 0.025722904 0.040532123
000030 1f 66 b1 3c 01 34 52 bc 71 87 9b 3d da b1 56 3d
       0.02165514 -0.0128297815 0.07594193 0.052415706
000040 6b ee 5b bd 97 19 9f 3c e6 e4 01 bd 5a 14 0b ba
       -0.05369417 0.019421382 -0.031712435 -0.0005305462
000050 90 06 51 3d b2 cc 09 bd 0f 10 82 bd 06 b5 92 bc
       0.05103165 -0.03364248 -0.06350719 -0.017908584
000060 e1 e4 4f 3d 6e 01 11 3d 25 24 45 bd 11 5a 8a 3c
       0.050755385 0.035401754 -0.048130173 0.01688865
000070 9c 99 89 3d e0 c6 0d 3a cb 3d 0c 3d e6 0f 8a bd
       0.06718752 0.0005408358 0.034238618 -0.06741314
000080 6f f1 9e 3c fc ea 27 bd 23 2b 22 bc 45 ba b7 bb
       0.019402234 -0.040995583 -0.00989798 -0.005606922
000090 ab 33 b4 33 c9 3e a4 3d 79 2c 99 3c bf b6 bf 3c
       8.3913015e-08 0.08019788 0.018697964 0.02340257
0000a0 69 13 7f 3d 28 d7 90 3d 94 ad 20 bd 69 37 64 bd
       0.06227437 0.07072288 -0.039228037 -0.055716906
0000b0 be 7f 0e bd eb e2 2b 3b de bf 6a bd 0e be 4f bc
       -0.034789793 0.0026227783 -0.057311885 -0.01267959
0000c0 12 9d 12 b6 77 ef 08 bd 9a 1b 82 bc 8c ce 0b 3d
       -2.1847122e-06 -0.033431496 -0.015882302 0.034132525
0000d0 ff a6 89 bc 7b 7e 37 3d eb 5e 27 3d a3 1a d6 3c
       -0.016803263 0.044798356 0.040862005 0.026135748
0000e0 3c bd 71 3d 08 8a b9 3c fb 26 71 bd 73 2f 5c bd
       0.05901836 0.022648826 -0.058875065 -0.05375619
0000f0 55 bb 6f 3d 98 da ab 3c f6 4b 1d 3d 80 21 3a 3d
       0.058528263 0.020978257 0.03840252 0.045442104
000100 8d 9a d8 bc d4 78 82 bc f5 4b 45 bd 03 17 d0 3c
       -0.026440883 -0.015926756 -0.04816814 0.025401598
000110 31 c8 e1 3c e7 3d aa bc ef b4 81 bc 38 57 2b bd
       0.027561279 -0.02078147 -0.015833346 -0.041831225
000120 be ca 19 3c 47 18 d0 3c bb 05 b3 3c 6f 77 e0 b9
       0.009386716 0.025402201 0.021853318 -0.00042813594
000130 02 dc 87 bd d4 79 89 3d 0b f7 d6 33 81 95 80 bc
       -0.0663376 0.0671269 1.00100884e-07 -0.015696289
000140 22 3d 62 3d cc 30 a0 3c fb b6 0a 3c 3d 7a 11 3d
       0.055234082 0.019554518 0.0084664775 0.035516966
000150 3b b9 d8 bc f3 9a 06 3c 83 e7 42 3d f1 5e d5 3b
       -0.026455512 0.008215654 0.047584068 0.006511562
000160 6c 8f b2 3c 1c 78 07 3c 0c 2b b4 bc 4a f3 2d 3d
       0.021796905 0.008268382 -0.021993183 0.042468347
000170 8f 33 af bd eb fa e9 ba 56 7d a9 bc b9 d3 36 3c
       -0.08554756 -0.0017851269 -0.020689648 0.011158877
000180 00 60 bf af d6 af d7 bc 5d 22 9e 3b e3 32 3d bd
       -3.481091e-10 -0.026328962 0.0048258738 -0.046191107
000190 73 48 ac 3d ab 9c 4a 3d dc 62 66 3c 95 21 39 3d
       0.08412256 0.049465816 0.014061656 0.045198042
0001a0 60 e2 52 bd 30 01 e4 b4 ff cc 11 3d 52 3c 38 bd
       -0.05148542 -4.2469173e-07 0.03559589 -0.0449794
0001b0 a0 5a 13 3d 7b d0 fe bc 0e a5 3b bd a0 92 2d b4
       0.0359751 -0.03110527 -0.045811705 -1.6165222e-07
0001c0 c2 85 2b bb a0 49 bc bd ad d0 0c b9 51 87 f2 bc
       -0.0026172255 -0.0919373 -0.00013429178 -0.02960554
0001d0 20 b1 7a 3d 41 70 a2 b4 67 d6 8d 3d 53 6c 39 3d
       0.061204076 -3.0256527e-07 0.069256596 0.04526932
0001e0 f6 04 19 3d 1c 61 8b bc c6 d1 38 bc 7b e8 e2 38
       0.037358247 -0.017014079 -0.011280483 0.00010819823
0001f0 b5 b7 e4 bc d3 cd 81 bc 79 47 36 39 d1 29 a1 bd
       -0.02791963 -0.015845215 0.00017383498 -0.07869304
000200 83 6b 08 3d cc fe d7 bc 50 90 eb bc 9a 6b 95 3c
       0.033305656 -0.026366614 -0.028755337 0.018239785
000210 e0 04 32 bb d3 d4 87 3c e4 d8 2b 3c 08 bf c6 b5
       -0.002716355 0.016580975 0.0104887225 -1.4807747e-06
000220 24 2f 43 bd 77 1b ed 3c e4 dc 24 3d d2 64 81 3d
       -0.04765238 0.02894376 0.04024972 0.06318058
000230 24 0d b9 bc 22 43 06 3d ba 62 54 3d 42 00 e4 3c
       -0.022589274 0.032778867 0.051851965 0.027832154
000240 c0 e8 4f 3d 03 a8 40 bb c1 d1 ff 3c be 4c 58 bd
       0.050759077 -0.0029397018 0.031227948 -0.052807562
000250 de 8e 2a bd 61 d2 24 3d b6 18 32 bd 89 a9 87 bd
       -0.041640155 0.040239695 -0.043480597 -0.06624133
000260 db e6 6f 3c 80 c3 52 32 4f fc 04 3d dc 86 9b 3b
       0.014642443 1.226806e-08 0.032467183 0.004746301
000270 78 3d 2e bd 02 9b 38 bd 2b 32 4a bd 68 1f 3b bb
       -0.04253909 -0.045069702 -0.04936425 -0.0028552655
000280 e6 b8 88 3c 51 fc 0a 3a 8a 83 33 3d bf 30 06 bd
       0.016689729 0.00053018803 0.043826617 -0.03276133
000290 6d 8e 5f 3d 27 f6 2c 3d 9e 89 3d bd 51 76 02 bd
       0.054579187 0.042226937 -0.04627382 -0.031851117
0002a0 f9 3c de bc 5c 85 34 bd 28 6d ac 3b 6f b5 04 3d
       -0.027128683 -0.044072494 0.005262036 0.03239959
0002b0 68 c6 14 bd 88 68 11 3d 02 21 1e 3d 1e 18 a9 bc
       -0.036322027 0.03550008 0.038605697 -0.020641383
0002c0 c2 0a de 3c b0 79 f1 bb 21 82 60 3c f9 1f 8d 3d
       0.02710474 -0.0073692426 0.0137029 0.06890864
0002d0 f1 fe 30 3c 74 b0 41 3d 72 40 88 bd 53 80 63 bb
       0.01080297 0.04728742 -0.06652917 -0.0034713938
0002e0 d1 b9 26 3d 9d f6 1e bd 81 8b 60 3d 3f 4a f3 bc
       0.040704552 -0.038809408 0.05482054 -0.02969849
0002f0 04 5f e0 3c 20 a0 49 3c 21 6a 34 bd d1 b5 3a 3d
       0.027389057 0.012306243 -0.044046525 0.04558355
000300 d8 58 3a 3d 61 48 07 3d 76 29 b7 bc d2 8b 4c b6
       0.045494884 0.03302801 -0.022358637 -3.0479755e-06
000310 8e 51 cb 3c 37 65 32 bd 90 09 d3 bc fc 85 a4 3c
       0.024819162 -0.043553557 -0.025761396 0.02008342
000320 78 4e 5c 3d 56 ba a4 b5 f0 57 dd 3c 8b e7 ac bc
       0.05378577 -1.2273183e-06 0.02701947 -0.021106502
000330 77 99 c6 3c 11 75 b1 bc 90 d4 7d 3c 98 ec 4b 3d
       0.0242431 -0.021662267 0.015492573 0.04978618
000340 ae 7e 23 bc f7 30 38 bd 40 11 a8 36 45 d4 e2 bc
       -0.009978933 -0.04496857 5.0087983e-06 -0.027689109
000350 18 68 80 bd bc 7f 01 bc a6 1d be 3c 93 5d b5 3a
       -0.06269854 -0.007903989 0.023207497 0.0013837091
000360 28 6a 0b bd f7 b3 fc bc 3f 52 98 3d 9e 6b 27 3d
       -0.034036785 -0.030847533 0.07437562 0.040874116
000370 86 3c 57 bb 59 64 b1 3c 3a 2a 44 bd b6 b1 6e bd
       -0.0032842471 0.021654295 -0.047891833 -0.058274947
000380 8c 92 d9 bc 25 7b 69 3d 12 70 34 3d 1a 99 4c 3d
       -0.026559137 0.057002205 0.04405219 0.049950697
000390 bd 9b bf 3c 4e 56 53 bd 9f b1 6a bd 75 8c fd bc
       0.023389691 -0.05159598 -0.0572983 -0.030950764
0003a0 a4 4e 33 3d 83 62 bc bc 66 b2 e3 bc ca 24 26 bd
       0.04377617 -0.022996193 -0.027795028 -0.04056243
0003b0 f3 17 02 3c 00 08 43 bc 36 1f e7 3c 59 d0 3b 3d
       0.00794028 -0.011903763 0.028213125 0.045852993
0003c0 bd fa 85 3b 23 a5 80 bd 37 ca ad 3b b0 5e c4 b1
       0.004088728 -0.06281497 0.005303647 -5.7151155e-09
0003d0 23 ed 09 bd c4 35 6b 3d 8b c2 14 bd 7b 21 62 3d
       -0.033673417 0.05742432 -0.036318343 0.05520771
0003e0 a5 f0 0d 3d 8d fe e3 35 b7 6d fb 3c fb 1f 82 bd
       0.034653325 1.6986902e-06 0.030691965 -0.06353756
0003f0 4e 47 8e b7 35 18 00 3c 9d 1d 6d bc 74 e3 2c 37
       -1.6960923e-05 0.007818271 -0.014472392 1.0304957e-05

layers.1.conv2.bias f4 [64]
000000 5e 07 08 bd b0 58 2a 3d 4e 02 a9 3c dc 82 18 bd
       -0.03321015 0.041588485 0.020630982 -0.037234172
000010 88 a4 1b 3d eb 04 72 3d 6a 13 61 3d ba 45 81 bd
       0.037998706 0.05908672 0.054950155 -0.063121274
000020 24 7b 8f bd a8 15 01 bc 13 64 27 3c 36 3b 91 3d
       -0.07005909 -0.007878698 0.010216731 0.07091372
000030 6a 19 42 3d 9e a6 6d 3d 93 30 84 bc 32 64 64 bd
       0.047387518 0.058020227 -0.016136443 -0.055759616
000040 ea d8 e8 3c 11 6b 53 bd a9 7d 53 3d ce 3e 9b 3d
       0.028423745 -0.05161578 0.05163351 0.075803384
000050 a9 bb 57 3c 5a 24 6a 3d 60 13 1f bd 78 ca 98 3d
       0.0131673 0.057163574 -0.038836837 0.07460493
000060 6e 69 4d bd 9b 25 15 3d 5c ef 60 bd f7 a1 f3 bb
       -0.050149374 0.036412816 -0.05491577 -0.007435079
000070 57 3a 67 3d 24 6a 28 3d 2e ee 09 bc 85 70 13 3d
       0.05645212 0.04111685 -0.008418603 0.03599598
000080 56 7a 93 bd d0 ae 2d 3c 6c 01 1e bb 11 4c 93 bd
       -0.07201068 0.010600761 -0.0024109734 -0.07192243
000090 a4 d7 b2 bb 02 53 eb 3b d5 b7 d7 3c 6d e0 49 3d
       -0.0054578353 0.007181526 0.026332775 0.049286295
0000a0 8c 06 3b bc b0 ac 32 3c 12 ee ac bb 9d fe 8f 3c
       -0.011415135 0.01090543 -0.0052774036 0.017577464
0000b0 37 6d 5d 3c 41 3d cc 3c 71 0d 3e 3d bc 11 00 3d
       0.013514808 0.024931552 0.046399537 0.031266913
0000c0 18 ae 67 bd ac 80 7d bc 6c 88 b3 bc 97 94 d7 3c
       -0.056562513 -0.015472572 -0.021915637 0.02631597
0000d0 8d cf a5 bc ea 60 14 3c a2 6f b2 bc 88 c2 8c bd
       -0.02024057 0.009056309 -0.021781746 -0.068730414
0000e0 2a ed 45 3d 40 70 7e bc e3 39 25 bd 6e 23 f9 bb
       0.04832188 -0.015529692 -0.04033841 -0.0076031005
0000f0 2a a4 8b bc a1 83 0d 3c cb 3a 81 bd 79 89 82 3d
       -0.017046053 0.00863734 -0.06310042 0.06373877

layers.1.conv2.weight_g f4 [64, 1, 1]
000000 5d c9 15 3f 6a 0a 10 3f ec 33 13 3f 81 c8 18 3f
       0.5851038 0.5626589 0.575011 0.59680945
000010 ff 4d 0c 3f ad 03 11 3f 31 43 15 3f 79 03 16 3f
       0.5480651 0.56646234 0.5830565 0.5859905
000020 16 ef 0d 3f d2 f7 12 3f 39 a5 14 3f c0 71 1f 3f
       0.5544294 0.57409394 0.5806461 0.62282944
000030 1a c5 20 3f c8 17 1d 3f 98 06 12 3f 2d 77 0c 3f
       0.62800753 0.6136441 0.5704131 0.5486935
000040 83 7e 1e 3f e4 a8 17 3f ce 0e 15 3f 58 9e 1c 3f
       0.6191179 0.5924208 0.58225715 0.61179113
000050 ca 31 1b 3f 21 de 11 3f 8d 02 1c 3f 6e 1e 20 3f
       0.6062285 0.56979567 0.6094139 0.6254643
000060 9f 61 13 3f df 95 18 3f 4f ba 1b 3f 7f 91 0d 3f
       0.5757083 0.59603685 0.6083116 0.55300134
000070 5b 6c 1b 3f c2 0d 15 3f 11 95 17 3f b7 ef 1a 3f
       0.6071221 0.5822412 0.5921183 0.60522026
000080 19 a8 11 3f 8a 11 15 3f d1 19 17 3f c7 32 0c 3f
       0.5689712 0.5822989 0.5902377 0.5476498
000090 7e f4 16 3f 0f de 23 3f 3d 52 0d 3f e8 36 1c 3f
       0.58966815 0.6401071 0.5520361 0.6102128
0000a0 65 1d 17 3f cd 89 0e 3f b8 e4 19 3f ae a1 10 3f
       0.5902923 0.5567902 0.6011462 0.56496704
0000b0 ac f3 1c 3f 90 e1 11 3f d6 be 17 3f de 06 15 3f
       0.61309314 0.56984806 0.5927557 0.58213603
0000c0 31 fc 16 3f fa 9f 1a 3f dd a8 13 3f b5 4c 19 3f
       0.58978564 0.60400355 0.5767954 0.5988267
0000d0 2a c2 0d 3f c6 d0 14 3f d4 b4 11 3f 8c 80 0c 3f
       0.55374396 0.58131063 0.56916547 0.54883647
0000e0 3f f4 17 3f b2 35 16 3f 8c da 11 3f 8c 13 1c 3f
       0.59357065 0.5867568 0.569741 0.60967326
0000f0 17 06 18 3f a1 29 08 3f da 38 15 3f e4 e4 15 3f
       0.5938429 0.5318852 0.58289874 0.58552384

layers.1.conv2.weight_v f4 [64, 64, 3]
000000 e5 94 32 b8 a7 68 4c 3d 5b dc 19 3b 2c f2 5c 3d
       -4.2577176e-05 0.04990449 0.002347729 0.05394189
000010 c0 12 37 bd 77 f8 c2 3b c5 32 c3 3c ec bd 07 bd
       -0.044695616 0.0059500295 0.02382792 -0.033140108
000020 c0 88 87 bc 3b 62 ce 3c a2 be 24 bd 5e 35 66 3c
       -0.0165447 0.025193324 -0.040220864 0.01405081
000030 bd 6c 55 bd 73 d0 7c bb 8d e3 ce 3c d7 ed 60 bd
       -0.052105654 -0.0038576394 0.025254989 -0.05491432
000040 c8 4d 60 bc 9a 72 17 3d 2a 2a 55 3d c6 5e 43 bd
       -0.0136904195 0.036974527 0.052042164 -0.047697805
000050 6a 6f 0f bd af 8c da 38 4c 1d 19 3d f7 1f 80 bb
       -0.035018362 0.000104212544 0.037381455 -0.0039100605
000060 64 5e 51 3d 6f 9f 26 3c 8b 30 fa bb 4a 3a 15 3d
       0.05111541 0.010169848 -0.0076351813 0.036432542
000070 cd b4 cc bc aa 57 05 3c ff 15 ce 3c d4 ca a1 bc
       -0.024988556 0.0081385765 0.025156973 -0.019750036
000080 8c 03 92 3d 80 c6 0a bc 64 d9 39 bd 62 2b 3e bc
       0.07129583 -0.008470178 -0.045373335 -0.011607023
000090 99 7d 36 bd 48 51 65 bd 63 bd c3 3c 5b f1 21 bd
       -0.044553373 -0.05598572 0.023894018 -0.039536815
0000a0 26 10 18 3d 8f cc ff 3c e1 0e 4b bc 6d 40 24 3b
       0.037124775 0.03122547 -0.012393684 0.0025062815
0000b0 ab 3e a6 3d bc bf 08 3c d3 a7 40 3d b1 b9 99 bc
       0.08117422 0.008346494 0.04703505 -0.018765302
0000c0 3b bb eb b8 10 63 00 3b 7a 9d 57 3c 8a fd 21 bd
       -0.000112405476 0.0019590296 0.013160104 -0.039548434
0000d0 59 ae 79 3d 37 d7 98 3d 56 77 9d 3c 77 a3 30 3d
       0.060957287 0.07462924 0.019221943 0.043124642
0000e0 3d 11 82 3d 77 24 1d bd cc 64 1c 3a b2 e9 4a bd
       0.06350944 -0.038364854 0.00059659476 -0.049539275
0000f0 c2 56 41 3d 78 0d dc bc c4 69 62 bd cc e1 a1 bc
       0.04720188 -0.026861891 -0.055276647 -0.019760989
000100 45 03 86 bc e1 0a 4c bc ec 50 1e 3d f6 d1 7f bc
       -0.01635898 -0.012453766 0.038651392 -0.015614023
000110 09 60 2d bd f8 00 18 3d 9d 29 0f 3d ce cb 4e 3d
       -0.042327914 0.0371103 0.034951795 0.050487332
000120 4d 6f 58 bc e3 ce 2c 3d b4 eb 37 3d 0e 31 77 bb
       -0.01321013 0.04218949 0.04490252 -0.0037718448
000130 d9 aa 59 bc f7 32 2e bd 17 36 3e bd fb 7e a4 bc
       -0.013285362 -0.042529073 -0.046438303 -0.02008008
000140 f7 d0 82 bc 7b 3e 32 3c d4 a4 22 3d a5 43 e0 3c
       -0.015968783 0.010879154 0.039707974 0.027376005
000150 57 7b 73 32 e0 48 5c 3d 50 d2 91 3d 04 48 2a bd
       1.4172506e-08 0.053780437 0.07120192 -0.041572586
000160 72 fe 4a 3d 11 93 62 bd 78 fa c3 bb 46 fa c3 3b
       0.049559064 -0.055316035 -0.005980786 0.0059807627
000170 88 b7 1d bd b2 74 e7 3c e9 9b 72 bd 25 b9 d0 3c
       -0.038505107 0.028253887 -0.05923072 0.025478909
000180 94 70 16 3b 4d 31 3f 3d bf 94 bf 3c f2 4a 33 3d
       0.0022955285 0.046677876 0.023386357 0.043772645
000190 f9 cd 79 3d 8e 16 a4 bc 20 51 3c b6 80 10 4f bd
       0.060987446 -0.020030286 -2.8061404e-06 -0.050552845
0001a0 f5 4a bb 3d c6 86 12 3b 40 7a 45 bd c5 68 33 bd
       0.09145156 0.0022358163 -0.04821229 -0.043801088
0001b0 a1 56 f9 bb 1d 1a 0b bb 2d f1 dd bc 61 c2 09 bb
       -0.007609204 -0.0021225282 -0.02709254 -0.00210204
0001c0 fa 96 44 3d eb fb 3b bc 4a 41 db 3b c1 bb c5 bc
       0.047995545 -0.011473636 0.0066911327 -0.02413738
0001d0 3e be 2a bd da d4 85 3c d1 14 55 bc 8a c0 5a 3d
       -0.041685335 0.016336847 -0.013005451 0.053406276
0001e0 8c 67 70 3d 09 f1 0c bc 77 6d bb bc 77 0a 80 bc
       0.0586925 -0.008602389 -0.022879345 -0.01562999
0001f0 4b 51 62 3c a0 e4 47 3b 0d a7 56 ba 22 af d2 bb
       0.013813327 0.0030501261 -0.00081883447 -0.006429569
000200 71 4c 9e bc 25 6a 04 36 1a 05 04 bd 01 d0 42 3c
       -0.01932356 1.9731317e-06 -0.032231428 0.011890412
000210 8b ce 82 b6 6c 60 0d 3d c2 f2 b7 3c b8 7c ef bc
       -3.8983467e-06 0.034515783 0.022454623 -0.029234275
000220 54 20 49 bd c4 8d bd bc fe b4 e8 3c 39 b5 4e 3d
       -0.049103096 -0.023138888 0.028406616 0.050465796
000230 68 08 65 bb 88 5b 12 b8 ef 5f 93 bd ee 82 cd 3c
       -0.0034947637 -3.4894358e-05 -0.07196032 0.025086846
000240 60 75 c9 b3 e1 bd 17 3c 06 cc c0 bc 29 0a 52 bd
       -9.381142e-08 0.009261579 -0.023534786 -0.05127922
000250 4e a2 12 bd cd 8c 30 bb e9 9f e8 36 5e c0 8c bc
       -0.035799317 -0.0026939393 6.932755e-06 -0.017181572
000260 c5 c5 47 bd 87 37 01 33 3c c5 93 3c 85 45 ed 3c
       -0.048772592 3.0085655e-08 0.018038385 0.028963814
000270 5b a1 5f 3d b0 a6 5c 3d 84 ea 93 3d 78 05 72 bd
       0.05459724 0.053869903 0.07222465 -0.059087247
000280 0e b7 21 3c 4b 83 0a 3d 21 7d 09 3c 67 9d 5d 3d
       0.009870304 0.033816617 0.008391649 0.05410519
000290 2b cd 8d 3d b5 a6 1d bd 5b b2 59 3d 20 20 12 bd
       0.06923898 -0.038489062 0.05314861 -0.035675168
0002a0 20 ee 67 3d fb 2c 3f bd f6 61 a0 3d 02 11 2d 3d
       0.056623578 -0.046673756 0.078311846 0.042252548
0002b0 7f d4 db bc 1b 5e 02 3d 1d da 1d bd be 24 3f 3d
       -0.026834724 0.031828027 -0.038538087 0.0466659
0002c0 08 4d ad 3a 97 2e 8b b7 10 1b 6d 3c 60 f6 a9 3d
       0.001322181 -1.6591786e-05 0.014471784 0.082989454
0002d0 69 7f 6d 3d 76 f0 88 3d fe b7 02 3d 44 a9 bc bc
       0.057982836 0.06686489 0.03191375 -0.02302993
0002e0 fc 7a c2 3c 06 fb 3d bb 93 0c f0 33 72 73 38 bd
       0.023740284 -0.0028988733 1.1178158e-07 -0.045031972
0002f0 56 0a 54 bd c7 a9 2d bd c9 5b 0a 3c a5 c6 fe ba
       -0.05176767 -0.04239824 0.008444735 -0.0019437863
000300 76 99 6f 3d 22 7d 1f bd a6 7a 5f 3d fa fe c1 38
       0.05849596 -0.038937695 0.054560326 9.25045e-05
000310 aa 41 6b 3c 50 9b 35 3a 72 bf b5 3c ff 91 21 bd
       0.014358917 0.00069277454 0.022186015 -0.039445873
000320 bf 2e 6c 3d 22 14 5c bc 74 8b 04 3d da 3e 9c bd
       0.057661768 -0.013432534 0.032359555 -0.076291755
000330 a9 f0 98 3c d0 9d 01 bc 69 68 14 bd 41 6b 75 bc
       0.018669443 -0.007911161 -0.036232386 -0.014979185
000340 25 8f e2 3c 4e a2 9e bd 67 63 36 3b 2e b5 68 3d
       0.027656147 -0.07745801 0.0027830245 0.05681341
000350 b6 11 6a ba 31 d3 af 3c 4d c3 91 3b 84 8c 27 bd
       -0.0008929031 0.021463009 0.0044483305 -0.04090549
000360 39 70 ae bc ec 8b 45 bb 98 ad 5c 3d 8e a4 85 bd
       -0.021293746 -0.0030143214 0.05387649 -0.06525527
000370 dd 44 80 3c eb 6a 6b bc 02 cd 2d bd bf 4e d0 bc
       0.015657837 -0.014368753 -0.04243184 -0.025428174
000380 06 43 aa 3d 05 9a 79 bd 63 06 59 bd 5f c5 0d bd
       0.08313565 -0.0609379 -0.052984606 -0.034612056
000390 f0 db f8 3b e2 1f 37 3c 6e 64 27 3d 4e 12 b8 bc
       0.007594578 0.011177035 0.04086726 -0.022469666
0003a0 d5 54 3d 3a 94 5f c0 bd 33 7d 3b 3d cc 15 27 bb
       0.0007222419 -0.0939323 0.045773696 -0.002549517
0003b0 c2 99 76 3d f3 4f 88 3d c1 24 85 bd b2 24 47 3d
       0.06020523 0.06655874 -0.06501151 0.04861898
0003c0 0d 9b 56 3d c3 ff b4 3b ec ac a7 3c 68 07 cb 3c
       0.05239396 0.0055236532 0.020468198 0.024783805
0003d0 d5 02 42 bd c0 d1 26 3b c4 45 bc ba 1d c8 10 bd
       -0.047365982 0.002545461 -0.0014364053 -0.035347093
0003e0 56 64 9c 3b 2a 8a b9 bc e8 f4 1c 3d e3 95 7b bd
       0.004772703 -0.02264889 0.0383195 -0.06142224
0003f0 8c 7e e7 b9 9d b1 9b bc 50 bc 01 3d e7 61 6c bd
       -0.00044154038 -0.019005591 0.03167373 -0.057710554

layers.1.layers.0.0.bias f4 [64]
000000 16 86 84 3d 53 6f 95 bc 79 f2 18 3d bc 89 5c 3d
       0.06470887 -0.01824156 0.037340615 0.05384229
000010 fa ef 6c 3c a7 7e f9 bc 81 36 97 bc 32 a1 45 bd
       0.014461512 -0.0304559 -0.018458607 -0.04824943
000020 df 04 8e bd 97 96 97 3d cd 2c 9b 3d 76 ff 6c bd
       -0.06934523 0.074017696 0.075769044 -0.057860814
000030 0b dd 81 3c 9d 50 87 bd 5b e6 45 3c 94 b1 ac bb
       0.015852472 -0.06607173 0.012078847 -0.0052701924
000040 db 56 d6 bc c2 fc 38 3d 66 b6 5d 3d 90 81 d4 3c
       -0.026164463 0.045162924 0.054129027 0.025940686
000050 6f 17 34 3d ce 58 ac 3c f9 71 50 bd d3 68 46 bd
       0.04396766 0.02103844 -0.050889943 -0.048439812
000060 f5 48 a8 3d 8c c8 ef 3c 56 16 92 3d 05 8d 06 3d
       0.082170404 0.029270433 0.071331665 0.03284933
000070 90 93 2b 3d 2b 44 31 3b fa 72 65 bd 24 9a 3d 3d
       0.041888773 0.0027048688 -0.056017853 0.046289578
000080 43 07 e1 ba c8 f9 b7 bc a3 ed 52 bd 0e 48 2a 3d
       -0.0017168302 -0.022457972 -0.05149616 0.041572623
000090 11 46 73 3d d4 27 7e bd e4 d8 48 bd 7d 69 ed 3c
       0.059392992 -0.0620497 -0.049034968 0.028980965
0000a0 cb 12 e2 bc ed c1 26 3c 2e cc 6a 3d 17 9c 20 bd
       -0.027596852 0.010178071 0.057323627 -0.03921136
0000b0 12 54 92 3d 9d 36 d2 3c 22 0e e0 3b 13 69 df bc
       0.071449414 0.025660807 0.0068376223 -0.027271783
0000c0 cb 15 37 3a 2d d6 af 3d 06 61 43 bd 49 d0 6e bd
       0.00069841434 0.08585773 -0.04769995 -0.058304105
0000d0 ab e7 14 3d 5d 39 ff 3c fb 71 15 3d 42 af 19 3d
       0.03635375 0.031155283 0.036485653 0.037520654
0000e0 e9 c8 91 3c 1f fc 4c 3d 59 21 c2 3c a6 91 1f bb
       0.017795997 0.05004513 0.023697542 -0.0024348288
0000f0 08 68 41 3d 01 3e ee bc e8 57 5c bd fb ee 48 bd
       0.047218353 -0.0290823 -0.05379477 -0.049056035

layers.1.layers.0.0.weight_g f4 [64, 1, 1]
000000 ef c9 14 3f 31 d0 18 3f c6 d9 0c 3f ea 3e 19 3f
       0.58120626 0.59692675 0.55019796 0.59861624
000010 8b e9 16 3f fa 73 19 3f 57 61 1a 3f 26 f6 17 3f
       0.5895011 0.5994259 0.6030478 0.5935997
000020 b6 18 1b 3f 21 65 22 3f cd a8 14 3f dd c7 0f 3f
       0.6058458 0.6343556 0.5807007 0.5616434
000030 bc 1b 17 3f 3b e8 17 3f 1d a7 1d 3f 87 e9 13 3f
       0.59026694 0.5933873 0.6158312 0.5777821
000040 0a 69 1a 3f 6c 61 15 3f 06 48 11 3f ef d7 17 3f
       0.60316527 0.5835178 0.56750524 0.59313864
000050 27 82 17 3f e8 28 10 3f 1f ce 1b 3f 3a f3 15 3f
       0.5918297 0.5631242 0.6086139 0.5857426
000060 2a ae 1e 3f b0 0d 1d 3f d2 3a 0e 3f df d0 1f 3f
       0.61984503 0.6134901 0.555585 0.62428087
000070 b2 a9 12 3f 8b 2a 12 3f b2 1f 11 3f 72 a3 1b 3f
       0.57290184 0.57096165 0.5668899 0.6079627
000080 da 4c 1b 3f dc 5e 15 3f 3d 00 11 3f 61 9f 16 3f
       0.6066414 0.5834787 0.5664099 0.5883694
000090 6b 9f 15 3f 3f 6a 1d 3f eb d6 15 3f 89 11 11 3f
       0.5844638 0.61490244 0.58531064 0.5666738
0000a0 5e e9 17 3f 34 43 19 3f c9 0a 14 3f 4b 60 19 3f
       0.59340465 0.5986817 0.57828957 0.59912556
0000b0 eb d4 17 3f c5 c5 1d 3f ff 84 19 3f 29 41 14 3f
       0.5930926 0.616299 0.5996856 0.57911927
0000c0 f2 e0 11 3f d5 cb 1a 3f 98 95 16 3f b5 a1 10 3f
       0.56983864 0.60467273 0.5882201 0.56496745
0000d0 cb e5 14 3f 50 b1 18 3f ae d9 1d 3f 9a 2f 12 3f
       0.58163136 0.5964556 0.6166028 0.57103884
0000e0 26 0f 1c 3f 28 94 1a 3f 67 19 19 3f 7a 66 14 3f
       0.60960615 0.6038232 0.59804386 0.57968867
0000f0 5e db 0e 3f cd 24 1d 3f 83 be 11 3f d6 56 15 3f
       0.5580348 0.6138428 0.5693132 0.58335626
