exps/chpts/LSTM_layers2_stride5_last_lr0.0001/best_model.pth (torch, 834003 bytes, 10 tensors)

rnn.weight_ih_l0 f4 [512, 17]
00000000: 4ce6 3a3c 69c3 aebd 1ce1 9e3d 44b8 413d
00000010: 42c6 7f3d 7f9a 2a3d 7796 80bd a740 60bd
00000020: 68e1 24bd b882 223c 3ecc 86bd a219 863d
00000030: ff0f 18bd 3428 5d3d 8a1b e5bb 1dc7 34bd
00000040: 8245 acbd f7d3 9e3d 5ccf 503c 05f4 ceba
00000050: 3877 7cbc 0a3c a63d 5067 103d f168 a4bc
00000060: 93ef 9b3d 2c36 0abc 33ab 0ebc 4c94 193d
00000070: 4aea c8bc 7d59 aabd cf20 373d d0e0 30bc
00000080: e6cc 3b3d c876 5fbc 964a 323d ceea f63c
00000090: 28f5 6f3c ab9e cfbd 8724 dcbc de9b 4e3d
000000a0: b16b 893d a958 d93c fbbf 4fbd a6cd 1bbd
000000b0: 81f6 0d3d 4e49 be3c b1b8 063c a040 c3bb
000000c0: 89ac 78bd e4c6 0a3d 6599 9d3d 5c04 2f3d
000000d0: 9090 483b 4518 30bd f718 7fbd 876c ae3d
000000e0: ef82 e73c fd4c ab3d a295 bf3b 5250 1a3d
000000f0: ffe1 3ebd 9931 023d 6491 abbc 7e0c b43d
00000100: 748d 8dbd b61e b83d bf68 883d 7bcb dfbc
00000110: 7693 f5bc da12 2cbd 269e 87bd 2d32 a23d
00000120: baed a13a 82d6 64bc 1288 023d adca f63c
00000130: e342 5d3d 2071 4c3d 5066 ef3c 9438 843c
00000140: 5e4f 95bd d665 033d 47cc ea3d 3aa3 5a3d
00000150: 5f18 fe3b cbc5 8d3d f500 fabc 4ef6 22bd
00000160: 7794 ac3d 88ec c5bd 70bc f13c 9678 a2bd
00000170: b022 f33c 0e05 44bd 99a8 49bd 67be 0fbd
00000180: c152 50bd 98df 5c3d 8ddb 6a3c eaf0 cd3d
00000190: 4f8e a93d 0b25 b2bd 894b 02bd 9964 213d
000001a0: e123 953d e24f 8b3c d718 11bc 219d 973d
000001b0: f9d0 8c3d 821b 373d 377f 99bd a1cd 51bd
000001c0: 39f7 65bd 414d 66bc ae36 363c ba79 0f3d
000001d0: 1b4a 2c3d e156 cbbd 6f31 b8bd 8596 8cba
000001e0: 6616 b43d edd9 41bd 8f96 b83d 73dc 2cbd
000001f0: 76ad 563a 4026 c6bd a642 753d 4ca7 14bd
00000200: e3ea 6b3d 3a0e 8bbc 365a 78bd 5f95 c2bc
00000210: a897 6bbd e15b 89bd 84c8 773d 8521 a63d
00000220: a73e 5b3d 3633 6bbd 0803 913d 7e9b 3ebc
00000230: 6982 a3bc f67f 91bc 7b95 ecbc b593 8fbc
00000240: b7e6 9dbd 319d 00bd dc7c 05bd 17b4 87bd
00000250: b61b bebb 09d0 123d 4b4f 3f3d 4306 8cbd
00000260: 9653 ae3d 25e1 76bd 84c5 293c b79d 813d
00000270: e8e3 fbbc 7242 8dbd c121 ba3d f7d3 913d
00000280: c07c f9b7 6b14 c83c 32ec 82bd 034c 1a3d
00000290: b65d a33d 568a 983d 826b 67bd 8ca2 a0bc
000002a0: 334a b3bd 1f7a 233d 9523 df3c c09b 7bbd
000002b0: 045c 3e3d ee68 01bd 93b6 42bd 4913 883d
000002c0: 87eb 32bd 3ad6 16bd a156 0fbd 98cc 5e3d
000002d0: 91a2 91bc e9f2 73bd 0573 303d 44c0 de3c
000002e0: e7c5 593b 21d4 8d3b 3fc6 1d3d e387 3d3d
000002f0: b3ac c63a dce8 fa3c 68ac 16bb d688 c33d
00000300: 8efd d43d 9973 90bb 548a 86bd 67c3 afbd
00000310: 6190 743d 0a2a e2bc 52dc c13d 8877 b2bd
00000320: c502 0e3d 81be 82bd dbf2 633c e0d1 a43c
00000330: 8ea8 83bd 5923 2fbd b0b7 8d3d 1030 f43b
00000340: 4fc5 75bd 3638 643d 8dd6 f23d 9941 3d3c
00000350: dc83 693d a13b bd3d efc8 3ebd 6389 a7bc
00000360: b7db 4d3d f608 b23d 85e7 083d 82eb b6bd
00000370: a09d 1a3d b71c 2d3d e023 ba3d e85a 3f3c
00000380: d6b0 89bc 7658 b33d 195a eebc 21cc 2e3d
00000390: 84e0 783c b47c 603d 8b33 9d3c 85ac 1dbd
000003a0: 81cd ad3b ee2c 64bd 5a2c df3c d699 a93d
000003b0: 30c9 313d 2d46 75bd 63d1 37bd fcd1 0ebd
000003c0: a1c8 563c f826 c23d 4b85 803d b2f5 01bd
000003d0: 283a 8bbb a505 98bd 9c10 123d 6bf9 85bc
000003e0: d076 c0bc c0f9 6abd e61d 833d 8210 263c
000003f0: d7cf c73c 191d cbbc 3276 e0bc 26b7 61bd
0.011407446 -0.08533365 0.0775778 0.04729487 0.062444933 0.041651245 -0.06278699 -0.054749157
-0.040254027 0.009918861 -0.06581925 0.06547858 -0.03712463 0.05399342 -0.0069918083 -0.0441352
-0.08411695 0.07755273 0.012744751 -0.0015789276 -0.015409283 0.0811692 0.035254776 -0.020069571
0.076140545 -0.008435767 -0.008707809 0.037494943 -0.02452578 -0.0831785 0.044709023 -0.010795787
0.045849703 -0.0136391595 0.043528162 0.03014126 0.014645852 -0.101376854 -0.026872886 0.050441615
0.06709994 0.026531534 -0.050720196 -0.03803792 0.034658913 0.023228314 0.008222745 -0.0059586316
-0.060711417 0.033881083 0.07695273 0.042728767 0.0030603744 -0.042991895 -0.062279668 0.08516794
0.028260676 0.08364294 0.005846695 0.037674256 -0.046602245 0.03178558 -0.020943351 0.08791445
-0.06911746 0.08990233 0.06660604 -0.027318707 -0.029977541 -0.042010166 -0.06621961 0.079197265
0.0012354173 -0.013967158 0.031868048 0.03012594 0.054018866 0.049912572 0.029223591 0.01614026
-0.07290529 0.03207954 0.11464744 0.05337832 0.00775437 0.06922492 -0.030518034 -0.039785676
0.08426755 -0.096642554 0.0295088 -0.07933156 0.029679626 -0.047856383 -0.049233053 -0.03509369
-0.05086017 0.053924173 0.014334572 0.10055716 0.08279096 -0.08698472 -0.031810317 0.039402578
0.07282234 0.017005865 -0.00885602 0.07403017 0.06875796 0.044703968 -0.074949674 -0.051221494
-0.056143973 -0.014056505 0.011121435 0.035028197 0.04206286 -0.0992868 -0.08993804 -0.0010726011
0.08793335 -0.04732697 0.09013092 -0.042202424 0.00081893 -0.09675264 0.059878014 -0.03629236
0.057597052 -0.016974557 -0.060632907 -0.023752866 -0.057517678 -0.06706978 0.06049396 0.08111862
0.053526547 -0.057421885 0.07080656 -0.011633752 -0.019959645 -0.017761212 -0.028879872 -0.017526487
-0.07710021 -0.03139991 -0.03258978 -0.06626146 -0.0058016432 0.03584293 0.04670648 -0.06837132
0.085120365 -0.06027331 0.010362033 0.0632891 -0.030748323 -0.06897439 0.09088469 0.07120507
-2.9741204e-05 0.024423799 -0.06392707 0.037670147 0.07976858 0.074482605 -0.05649901 -0.019608758
-0.08754387 0.039911386 0.027238647 -0.06142783 0.04647447 -0.03159421 -0.047537398 0.06644303
-0.043681648 -0.036825396 -0.034994725 0.054394335 -0.017777713 -0.05955783 0.04307844 0.027191289
0.0033229531 0.0043282663 0.03851914 0.04627217 0.001515767 0.030628614 -0.0022990946 0.09547584
0.10399924 -0.0044083116 -0.06569353 -0.08582192 0.059708003 -0.027607936 0.09465851 -0.08714205
0.03467061 -0.06383992 0.013912882 0.020119607 -0.06428634 -0.04275832 0.06919801 0.0074520186
-0.06000262 0.05571767 0.118573286 0.011551284 0.057010517 0.09239889 -0.046578344 -0.020451253
0.050258365 0.086931154 0.03342392 -0.08931638 0.03774798 0.042263713 0.09088874 0.011679389
-0.016807955 0.08757107 -0.029095696 0.04267514 0.015190247 0.054806426 0.019189617 -0.038494606
0.005304039 -0.05570691 0.027242828 0.08281295 0.043404758 -0.059881378 -0.04487742 -0.034868225
0.013109357 0.09480089 0.062754236 -0.031728454 -0.004248876 -0.074229516 0.03566037 -0.016354283
-0.023494154 -0.057367086 0.06402187 0.010135772 0.024391098 -0.024794148 -0.02740011 -0.055106305

rnn.weight_hh_l0 f4 [512, 128]
00000000: 6cd3 9cbd 9eef 983d f568 7f3d 17a2 23bd
00000010: 6929 58bd 1132 b23d 305a 443d 94b1 063d
00000020: 8a90 50bd dd3f 42bd 4f93 63bd d860 8e3d
00000030: 9dcc bf3b efe8 a53d 1d41 10bc 93b9 b13c
00000040: b9d3 6abc c245 323c 84f4 03bb f6f8 7bbc
00000050: 39fd fdbc 2973 5dbd 268f 813d 9136 6dbd
00000060: 6310 86bd 6840 acbd 7653 9ebd 6a03 9e3d
00000070: c5d8 3bbd 7fcc 04bd ac6c 9a3d 6c1f 223d
00000080: 4499 943b 31ae 89bb 47e0 113c 7176 1c3b
00000090: dd30 82bd cbfb 5ebd 4f71 17bd b0b1 b7bd
000000a0: 74c2 733d 464b f2bc 922c 67bb a904 a5bd
000000b0: fa49 6a3d 53ee 5abd fc39 223d c255 36bd
000000c0: 0a06 b5bd 54ae 043d 25b4 863d 8bab 1fbc
000000d0: a7b6 4dbd 983e 58bd 6215 66bd 1378 a0bc
000000e0: 21b3 423c 85c2 953d 63c7 bb3c d204 a0bd
000000f0: 1b5f 883b aacf 51bd e0c4 893d b228 30bd
00000100: eab1 71bd 9919 af3d 635a 853d fe99 71bd
00000110: c4e4 983d da84 0fbd 2d1a 8fbd b79e 63bd
00000120: 6ea0 a7bb 0666 3dbd 9e48 fb3c 6ba0 8cbc
00000130: 38db 12bc a4b3 56bd 294b 7abd 38f4 a93c
00000140: 3924 5ebd 6ad9 91bc a2ce 643b 47c9 9fbd
00000150: f896 693d b18b 2dbd a7f7 383c dce4 bebd
00000160: fe3e 82bd 175d c73c 86e2 173c 94c0 92bc
00000170: d3c2 3b3d 4d11 023d cb35 1fbd b0e6 cabc
00000180: d429 5a3d b828 3ebd 8bba 02bb e487 84bd
00000190: 48f7 b23d 8e86 f0bc 0b0f ecbc fc5e af3d
000001a0: cdba 32bd 7a4b 953d 147e 1b3d 078f a63c
000001b0: af36 cebc fbe5 52bd 201e a03d b352 a53c
000001c0: e1bd 5fbd 31af 2a3d a1dd 8c3d 9f69 193d
000001d0: 7118 253d a8ab 443c ff58 d0bb 86e5 843d
000001e0: 3dba a0bc 9184 d3bd e090 86bd 85a6 d3bc
000001f0: d622 b33d e035 a1bb acca 8fbd f97f 563d
00000200: 8c7d 26bc ca08 b8bc 8ae6 683b 60c8 82bd
00000210: daa4 2fbc defe 2c3d 0cc5 e93c ea96 4bbd
00000220: d977 f7bc fa2f 9ebd a036 ae3c c139 a1bd
00000230: 4c43 8e3d 5b64 043d 0956 893c 4193 74bd
00000240: ea5a a83d 2b5a 9bbd e55f 9bbd 393e 99bb
00000250: b1cc 0c3d 1a62 c33d d16c ab3d 12a7 063d
00000260: e34d b83d e1a4 de3c 0029 64bc ec60 2dbd
00000270: 05cf 16bd 7ae1 4f3b 749b 033d df5a 6bbd
00000280: 68b7 82bd 9a9c bd3c d828 4abd 66c0 debc
00000290: 1035 263d bfba 50bd a5db 4d3d 5583 643d
000002a0: a537 1abd e0d1 423d 5ae8 483c 044b 83bd
000002b0: 13d4 d9bc 44a7 a6bd 20da f63c 0658 55bd
000002c0: a8e3 abbd d046 a6bd adae 31bd b05f 5c3d
000002d0: 03da 233d a773 a53d e765 3fbd b7b0 cf3c
000002e0: ce44 babc 179b f9bc 34cb ecbb 53c9 0abd
000002f0: 2efa 8c3d 685a 71bc 0d90 643d f68b b2bc
00000300: e431 9dbd 2603 543d 904a 9f3d 8dc7 00bc
00000310: 1e56 bc3c 3313 893c 625a ccbc 253e b83c
00000320: f452 323d e5b3 98bd d38b 84bd ec1b 29bd
00000330: 6d2f 68bd bf80 b1bd 6263 7c3d 8b5e 9f3c
00000340: 3d0c a1bd 0947 773d 55f3 b5bd 3642 9c3b
00000350: 9513 6e3d 76f3 1d3d 0c15 cabc 2eab 29bc
00000360: 5767 8e3d b7fd da3c e09b 133d 806e 7cbd
00000370: f47e 343d 4dbd f7bc 37d3 a43d 9122 b3bd
00000380: 65e3 5f3d 06c5 25bc a0f4 9cbd f7d3 7ebc
00000390: 6da5 4a3d b1c1 b3bb fd62 723c 8dd8 e73c
000003a0: 2dbd c1bc 9be0 38bd 3ddd a13d 8d2b 7b3d
000003b0: 7666 c23c 4952 7e3d 0dca 963d a2e3 5e3b
000003c0: 3c6e 5a3d fdf0 2cbd 68d4 5b3c 123e 303c
000003d0: 8e08 293d fa56 ccbc 3c21 eebc a568 78bc
000003e0: 66c5 bdbd 2444 63bb 0917 e8bb 2cc2 86bc
000003f0: bd82 0fbd ab55 aebb 5674 2d3d 8d69 dd3c
-0.07657513 0.07467578 0.062355954 -0.039949503 -0.052773867 0.08700956 0.047937572 0.032884195
-0.050919093 -0.047424186 -0.055560406 0.06952065 0.005853249 0.08101069 -0.008804587 0.021694934
-0.014332705 0.010880889 -0.0020134756 -0.015379181 -0.031004535 -0.054064903 0.063261315 -0.057913367
-0.06546094 -0.08410722 -0.07730763 0.07715495 -0.045861024 -0.032421585 0.07540259 0.039580747
0.0045348722 -0.0042016734 0.00890357 0.0023874308 -0.06356976 -0.054439347 -0.036973294 -0.08969438
0.059511617 -0.029576909 -0.0035274369 -0.080575295 0.057199456 -0.05344994 0.03960608 -0.04451538
-0.088390425 0.032392815 0.065773286 -0.009745489 -0.05022302 -0.05279407 -0.056172736 -0.019588506
0.011883528 0.07312492 0.022922223 -0.078134194 0.004161728 -0.051223435 0.06727004 -0.04300756
-0.059007563 0.08549804 0.065113805 -0.05898475 0.074655086 -0.035038806 -0.069874145 -0.055571284
-0.0051155603 -0.046239875 0.030674275 -0.017166337 -0.008963399 -0.052417412 -0.061106835 0.020746335
-0.054233763 -0.017803866 0.0034913202 -0.078020625 0.05702874 -0.04236955 0.011289514 -0.09320995
-0.06359671 0.02433638 0.009270316 -0.017914094 0.045840096 0.03175478 -0.03886966 -0.024768203
0.053262547 -0.04642555 -0.0019947614 -0.064712316 0.087385714 -0.029361036 -0.028815767 0.08563039
-0.04363518 0.07289787 0.037962034 0.020331873 -0.02517256 -0.051488858 0.07818246 0.020181036
-0.054624442 0.04167098 0.0687821 0.037454244 0.040306512 0.012003817 -0.0063582654 0.064890906
-0.019620055 -0.103280194 -0.065706015 -0.025836239 0.08746879 -0.0049197525 -0.070210785 0.052368138
-0.010161769 -0.022465128 0.0035537803 -0.06385875 -0.010720456 0.042235248 0.028536342 -0.04970447
-0.030208515 -0.077239946 0.021266282 -0.07872344 0.069464296 0.03232227 0.016764658 -0.059710745
0.082204655 -0.075855576 -0.0758665 -0.004676607 0.034374896 0.09540196 0.083703645 0.032874174
0.08999231 0.02717823 -0.013925791 -0.04232876 -0.036818523 0.0031720088 0.032130674 -0.05745971
-0.06382638 0.023145963 -0.049355358 -0.027191352 0.040577948 -0.050959345 0.050258297 0.05578931
-0.037650723 0.047563434 0.012262428 -0.064107925 -0.026590383 -0.08137372 0.030133307 -0.0520859
-0.08393031 -0.08118975 -0.043379474 0.053802192 0.040002834 0.080786996 -0.04672804 0.025352819
-0.022737887 -0.03046946 -0.007226372 -0.033883404 0.068836555 -0.014731027 0.05580144 -0.021795254
-0.076755315 0.051760815 0.077778935 -0.007860077 0.022990283 0.016732788 -0.024945442 0.02249057
0.04353614 -0.07456187 -0.06471982 -0.041286394 -0.056685854 -0.086671345 0.061618216 0.019454261
-0.078636624 0.06037048 -0.088843025 0.004768635 0.058124144 0.03856226 -0.024668239 -0.010355754
0.06953304 0.026732309 0.036037326 -0.06162882 0.044066384 -0.030241633 0.080480985 -0.087468274
0.05466022 -0.010117775 -0.07663846 -0.015553466 0.04947417 -0.0054857363 0.014794108 0.028301502
-0.023649776 -0.045136075 0.07903526 0.06132083 0.023730498 0.062090192 0.07362757 0.0034010191
0.053327784 -0.04222201 0.013417341 0.010756986 0.041267924 -0.024943817 -0.029068582 -0.015161668
-0.092661664 -0.0034678066 -0.007082824 -0.01645001 -0.03503679 -0.005320271 0.042347275 0.02702787

rnn.bias_ih_l0 f4 [512]
00000000: 7352 8e3d d401 f1bc aaf5 283d f8a1 803d
00000010: ecbb 0fbc 49dd a1bd 3957 7ebd 19ad 9a3d
00000020: 1c67 6d3d 19d1 7cbd 205b 60bc a320 bd3d
00000030: 3e6b d9bc 9bb3 8cbd 3248 aebc 9150 8ebd
00000040: cae4 9c3c 2d47 b5bc 6c4c c03c bc8f e6bb
00000050: eb12 233d 4a2a 083c 8902 75bd d6a3 d43c
00000060: eb91 973d d55a e8bb 0a0c 49bc 7f31 453d
00000070: 5d3f 1e3d 1d98 9e3d bbea b73c 7035 813d
00000080: be9e 09bd 447f 2f3d e1f5 c73d e148 993d
00000090: 2878 923d 6094 ba3d bf17 9fbc 4b95 fa3c
000000a0: d195 e3bc 4f1e 6a3c 4571 2cbc 7477 1bbd
000000b0: ec9b c03b a7a6 bf3c ab8c 0f3d 021b e13c
000000c0: 4af1 a43d 1cdf 923c d708 f53b e1a1 153d
000000d0: 6263 63bc cd99 acbd 99a1 b73c d77d 413a
000000e0: f0f4 7b3c dda6 3c3d bbd9 ac3d 7b2b b038
000000f0: d449 7abd 423b 99bd ce12 90bd 0cc8 81bd
00000100: 1aaa 4b3d 27ab 053d 9bfa fcbc e4a1 953b
00000110: 51d8 ac3d bdd1 a23d 310a 94bc 5df1 033d
00000120: 969e 9abd 74de a9bd f3d4 57bb 3eef 813c
00000130: 70c6 533d 30a0 1abd 7d20 8bbc 7122 da3b
00000140: b9b7 1fbd ac5b 413c 3341 443d 4cd8 853d
00000150: 7cb8 38bd 85d1 2cbc 8cba 84bd 50d8 4dbd
00000160: e97d a23d a186 50bd 63bc e43c e1d4 4b3d
00000170: 348d 5e3d 909b 0f3d 7674 96bd d76c 5cbd
00000180: 9f0f 913d 58f5 af3d 64db 20bd fb29 643d
00000190: ad27 053d 4c87 823c 1541 b63d 2d5e 8bbc
000001a0: 4ac0 883d f697 98bd faf2 a7bc 6d96 2bbd
000001b0: 558f ac3d 9da5 8ebd e852 ac3d ec5f ae3d
000001c0: 2077 9a3d 5786 49bd 8fa0 d2bc b1cb 603d
000001d0: b096 90bd 7876 bcbc 0242 41bd 023b 103d
000001e0: 1fc3 28bd 3530 903c e1c7 adbc 2329 db3c
000001f0: ac85 44bd b924 5cbd 02bb 29bc 0242 213d
00000200: 7598 a9bb ab26 c1bb 8c17 e439 35a9 403d
00000210: 3888 103c adc3 46bb 6d50 95bd c036 fa3c
00000220: 38d3 813d 4f37 d93c e166 67bd 7b87 10bd
00000230: 8385 a5bc 129e 233d 45a5 af3d 5b08 44bd
00000240: 5b95 2a3d eb53 073d 9dda b83d 5212 813d
00000250: e5d7 683d 8b53 10bd adeb 633d 719d 3fbb
00000260: 9a29 7d3c 851f f3bc 0e39 22bd cf7d b63d
00000270: cbae 063d d572 11bd 8665 c43d b157 313d
00000280: 4b92 0d3d 0027 35bd 913c b03b 8b2c 383a
00000290: 396c 303d b392 a43d 877d be3d edca 44bd
000002a0: 4fe3 1bbc a3de 82bd 00c9 d93b 67dc 35bc
000002b0: 8ed1 223d c807 d13c d365 babc 51ef 713c
000002c0: b558 8bbd 2bdc 9c3b 96ff 4e3d a005 38bd
000002d0: 83a9 163d 9105 9abd ea92 6b3d dd12 323d
000002e0: aff0 c1bc d0b0 5b3d 4d20 a2bd 14a8 9b3d
000002f0: 3492 473d 4a5e 9a3d ee6e d43c ab10 02bd
00000300: 9358 9fbd e40a 513c fa80 243c 719e 0b3d
00000310: b664 82bd 9464 9d3d c23a 1bbd 19b0 4f3d
00000320: c97a 093c 809a a53d bfa7 393d 9dc0 0a3d
00000330: df91 95bd da3c af3d 579e a33d 4ae9 143d
00000340: 62c3 163d d9b5 bebc fe36 9e3d a6e1 66bd
00000350: 5236 39bd bf68 c53c c876 80bd d834 9ebc
00000360: fcc1 79bd 6b73 a53d 9306 6dbd fd12 193d
00000370: b8f6 bfbc f956 823d b5f9 7bbb e8c9 343d
00000380: c776 c23d 840e af3d d627 983d e750 b43d
00000390: 9275 913d a942 a23d 54f5 0e3d 3840 85bc
000003a0: 3bdb 213d dc1f 983c f52f 043c 9762 78bd
000003b0: f1d7 433c 6bc3 66bb 412f 6abd 9f1a d7bc
000003c0: 3d4b 94bd 70d4 92bd faf4 15bd c77b 513d
000003d0: a811 bc3b c428 acbd 703e a0bd 9098 b63d
000003e0: ceca f139 2f23 853b 26ed 6ebd 22ae 20bc
000003f0: d65b 8cbd 332d b93b 618a 3a3d 2956 403d
0.0694932 -0.029419817 0.04124991 0.06280893 -0.008772831 -0.07903535 -0.0620949 0.07552547
0.05795966 -0.06172285 -0.013693601 0.092347406 -0.026540395 -0.068701945 -0.02127466 -0.069489606
0.019152064 -0.022128666 0.02347394 -0.0070361774 0.039812963 0.008310864 -0.05981687 0.02595703
0.074008785 -0.007090906 -0.012270937 0.048142906 0.038634647 0.07743857 0.022450795 0.063090205
-0.033598654 0.04284598 0.097636946 0.07484604 0.07151824 0.091103315 -0.019420503 0.030588767
-0.027781399 0.014289453 -0.010525052 -0.037955716 0.0058779623 0.023394896 0.03504626 0.027478699
0.08053835 0.017928652 0.0074778604 0.036531333 -0.013878675 -0.08427773 0.022415923 0.00073811173
0.015378222 0.04605757 0.08439966 8.400433e-05 -0.061105564 -0.07482006 -0.07034837 -0.06336984
0.04972277 0.032633927 -0.030881217 0.004566418 0.084396966 0.07950161 -0.018071266 0.032212604
-0.07549779 -0.08294383 -0.0032933324 0.01586115 0.051702917 -0.037750423 -0.016983265 0.0066569378
-0.03899357 0.011801641 0.04791374 0.06535396 -0.045097813 -0.010548 -0.064808935 -0.05025512
0.07934172 -0.050909642 0.027921861 0.049763564 0.05433388 0.035060465 -0.07346432 -0.053814735
0.070830576 0.085917175 -0.039271727 0.0557041 0.03250854 0.015933655 0.08899132 -0.01701268
0.06677301 -0.07450859 -0.020501602 -0.041891504 0.08425776 -0.06965182 0.084142506 0.085143894
0.075422525 -0.049200382 -0.025711326 0.054881755 -0.07059991 -0.023005709 -0.04718209 0.035212524
-0.041201707 0.017601112 -0.021213474 0.026753014 -0.047979042 -0.05374596 -0.010359528 0.03936959
-0.005175645 -0.005894502 0.00043505093 0.04703637 0.00882154 -0.0030329034 -0.072907306 0.030543685
0.06339115 0.026515631 -0.056494597 -0.035285454 -0.020205265 0.03994567 0.085764445 -0.04785953
0.041646343 0.033039015 0.09026072 0.063023224 0.056846518 -0.035235923 0.05564468 -0.002923813
0.015451813 -0.029678116 -0.039605193 0.08910715 0.03288154 -0.035509903 0.095896766 0.04329652
0.034563344 -0.044226646 0.005378314 0.00070256804 0.04307196 0.08035793 0.09301286 -0.048045088
-0.009514644 -0.06390121 0.0066462755 -0.011099911 0.03975063 0.025516406 -0.022753632 0.01476653
-0.06804029 0.0047869883 0.050536714 -0.04492724 0.036782753 -0.07520593 0.057513155 0.04347502
-0.023674337 0.05363542 -0.07916317 0.07600418 0.048723415 0.075375155 0.025931802 -0.031754177
-0.07780566 0.012758944 0.010040516 0.03408665 -0.06366865 0.076851994 -0.037897833 0.05070505
0.008391091 0.08086109 0.04532599 0.033875097 -0.07303213 0.085565284 0.07989185 0.036355294
0.036807425 -0.023280071 0.07725333 -0.05636754 -0.04521782 0.024097798 -0.06272656 -0.019312307
-0.060976014 0.08078655 -0.057867598 0.037371624 -0.023433074 0.06364245 -0.0038448398 0.044137865
0.09495311 0.085476905 0.07429473 0.088044934 0.07102503 0.07922871 0.034901932 -0.016265973
0.039515715 0.01856988 0.0080680745 -0.060640898 0.01195334 -0.0035211693 -0.05717397 -0.026257811
-0.07240913 -0.071694255 -0.03661058 0.051143434 0.0057394095 -0.08406213 -0.07824409 0.08915818
0.00046118203 0.004063032 -0.05833163 -0.0098071415 -0.06853454 0.00565114 0.045542125 0.04695717

rnn.bias_hh_l0 f4 [512]
00000000: 1788 8b3d 420d b23d 8296 5d3d 1f3d 85bc
00000010: 6244 b73d fd48 acbd 3d9f a1bd 4814 13bd
00000020: 6d03 833c e4ac 8e3d ea99 a13d 4c0e 5bbd
00000030: 0b86 43bd a670 723d 792e aabc 9920 dcbb
00000040: 46e2 7dbd 9305 1bbd 0b30 9dbd 0eba 903c
00000050: 001f 13bd ba7d a1bd 946d 2c3c 5861 9bbd
00000060: 2b93 513d 4959 2dbd 4f51 bb3d e2ec 153d
00000070: 0b4c 6f3d b67b 823d d76f 8e3d 11e7 a63d
00000080: 9b97 55bd a709 3f3b 00c3 843d 5635 54bd
00000090: 037e bd3c f234 b53d f7e0 88bd 36a2 3c3d
000000a0: 898d 073d d4f5 453d 7360 9bbd 6621 55bd
000000b0: aa07 323b ec3b 87bd a56e e63c 907d c03d
000000c0: e640 443d a401 1c3d 9e28 14bd d9e1 87bd
000000d0: cb53 f03c d47c 653d 47cd 833d dca0 8e3d
000000e0: a133 77bd 28ad b43c b7fc 40bd 2a72 443d
000000f0: fd43 c73d a909 aa3d f1ca 4d3b 5edf b0bc
00000100: 8086 913d bbeb bc3d a680 5abd 20b8 a83d
00000110: 4c55 59bc edd3 773d e78f 643d 979c 7bbd
00000120: 9b6f 8dbd c4cd b93d 64d0 9d3a b81e 35bc
00000130: a4ad 653d 902b b53d 6c91 0e3d 2d25 363c
00000140: 4cd3 88bb a5f1 8bbc caf4 d4ba d282 03bd
00000150: 6d84 b83d fe18 8f3d 13d3 5a3d 8dd3 85bd
00000160: b3bf 59bc c63a 27bd dd27 88bd f7ea 0fbd
00000170: a057 3c3d 1503 4cbd 3ebe b43d 0c73 2c3d
00000180: e5da a13d 1f64 37bb 2898 abbc 7eb8 9a3d
00000190: 7247 b9bc 796c b83c e54f 95b9 c948 803d
000001a0: 086b d9bc b198 b23d 37b5 7ebb 0da6 233d
000001b0: 4687 283c 9bb3 3e3d 98f0 9e3d 686f a0bd
000001c0: 9082 533d fde5 f0bc 893e 863d 55bb 4e3d
000001d0: d61a c0bb f308 9cbb 96c3 15bd 615c febc
000001e0: fc44 6d3c ef64 a1bd ffc4 6abd a171 d7bc
000001f0: 6b70 62bd f3ec 88bd 3080 96bc 077c 5abd
00000200: a2dc 1ebd 1e8b 4b3c 285f 743d ac24 7c3d
00000210: f9e8 923a a9c8 163d 6d33 a2bd c98e b63d
00000220: 5f1b 103c 848a 673c 99cd 88bb 7759 653d
00000230: 5559 46ba 1d75 dbbc 4b86 d13d 5d6e 713d
00000240: b9bc a53d e0e4 ad3d 32bf fbba 7882 713d
00000250: 1d4f 763c c643 ae3d c6a9 983d 7107 c53d
00000260: 6e22 873d 9eae 1ebd 6509 a03c 974b e13b
00000270: 88b9 de3c 8b4b c8bc 9c97 bc3c 2763 9c3d
00000280: d405 0d3b 12a9 2c3d aeb4 d43c 9bd5 b7bc
00000290: 7480 a2bd 7e79 1e3d b3c1 96bd 1d61 3dbd
000002a0: 5916 52bd eff2 ac3c 86c0 4d3d a6c7 9fbc
000002b0: 9d98 82bb 7949 893c e7bb a23d 8990 a63d
000002c0: 579f acbb c205 c03c 8f42 683d 7306 3b3c
000002d0: 113a 453d 603d 403d aa21 30bd 84cf f83c
000002e0: 59f0 60bd cdfb 8bbd 8cd0 d33c 753c 283a
000002f0: bf3b 853d 17b2 b23d 46ee 7fbd 1319 9e3d
00000300: ffee 633c 06aa 653d 0812 e8bb 69d4 54bd
00000310: 9771 ba3c 564d 313d f974 583d 48a0 a63c
00000320: cfc3 a2bd f12c 433d bab0 5cbd ec80 bf3d
00000330: fc75 1f3c e76e 04bd 0ee3 dc3d 381e 97bd
00000340: c9da cb3b da1a adbd 2f33 95bd c8de 5fbd
00000350: 7a0a 513d d302 58bd d8d4 9abd 7b9e 8fbd
00000360: 6240 ae3d 06e3 553d 6c0b aabc 7194 8abd
00000370: cee0 ba3c ada6 913b c371 2f3d 241f 563d
00000380: 0e87 f7bc 882e dc3c 36ac d63c abe2 893d
00000390: b28c 35bd 0ecb b13b 2278 59bb e426 9dbd
000003a0: 4099 a33c ba55 d6bc b3cf 11bb 2d4d fcbc
000003b0: 3531 8cbc a963 b13d b4c0 9dbc c897 b9bc
000003c0: 3a9e ca3d 07e7 64bd 7621 a23d 653f 353d
000003d0: aa00 7bbd 205d 883d 9b01 643d eaa4 21bd
000003e0: 676b a43c 09c0 363c 049d 4fbd 4f4a 59bd
000003f0: a97a f4bc 6a8b 393d 1779 3c3d c8e1 2f3d
0.068130665 0.08693935 0.054098614 -0.016264496 0.0894859 -0.08412359 -0.078917004 -0.035908014
0.015992844 0.0696657 0.07890685 -0.05348043 -0.047735255 0.05918946 -0.020774113 -0.006717753
-0.06198337 -0.037847113 -0.07675179 0.017666843 -0.035918236 -0.078853086 0.010524172 -0.07586926
0.05116574 -0.042321477 0.09146368 0.036602862 0.05842213 0.06371252 0.069549255 0.08149541
-0.052146535 0.002915004 0.06482506 -0.051808678 0.023131376 0.08847989 -0.06683534 0.046053134
0.033093963 0.048330143 -0.075867556 -0.052033804 0.0027165213 -0.06603226 0.028128931 0.09398949
0.047913454 0.038087502 -0.036171548 -0.06634874 0.02933683 0.05602725 0.06435638 0.06964275
-0.06035197 0.022055224 -0.047116008 0.047960438 0.097297646 0.08302624 0.003140148 -0.021590885
0.07105732 0.092246495 -0.053345345 0.08238244 -0.013264965 0.060504843 0.0558013 -0.061428633
-0.06906053 0.0907245 0.0012040255 -0.011054687 0.0560738 0.088461995 0.034806654 0.011117262
-0.004175579 -0.017082999 -0.0016247269 -0.03210718 0.09009633 0.06987189 0.053423952 -0.06534491
-0.013290334 -0.040827535 -0.06648228 -0.03513619 0.045982003 -0.049807627 0.08825348 0.042101905
0.07903079 -0.002798326 -0.020946577 0.0755472 -0.022617076 0.022512661 -0.0002847902 0.06263883
-0.026540294 0.0872053 -0.0038865337 0.03995328 0.010286158 0.046558004 0.07760733 -0.07833749
0.051638186 -0.029406542 0.065548964 0.050471622 -0.005862574 -0.004761809 -0.03656348 -0.03104991
0.014481779 -0.0788058 -0.057316776 -0.0262993 -0.05528299 -0.066858195 -0.018371671 -0.053340938
-0.03878463 0.012423305 0.05966106 0.06155841 0.0011208347 0.03681246 -0.07919965 0.08913953
0.008795588 0.014132146 -0.0041749 0.055993523 -0.0007566412 -0.026789242 0.102306925 0.05894314
0.080926366 0.0849092 -0.0019206761 0.058962315 0.0150335105 0.085090205 0.07454257 0.0962056
0.06598364 -0.038740747 0.01953573 0.006875466 0.027188078 -0.024450084 0.023021512 0.07636099
0.0021518366 0.042153426 0.025965061 -0.022440722 -0.07934657 0.038690083 -0.07361164 -0.046235193
-0.051290844 0.021111934 0.050232433 -0.01950438 -0.003985478 0.016758667 0.07945996 0.08133037
-0.005268018 0.023440246 0.0567041 0.011415112 0.04815108 0.04693353 -0.043000855 0.030372389
-0.054916713 -0.068351366 0.025856279 0.00064177 0.06505536 0.08725374 -0.062483095 0.07719626
0.013911962 0.05607035 -0.0070822276 -0.051960383 0.022759242 0.043286644 0.05284593 0.0203401
-0.07947504 0.04765028 -0.053879477 0.09350762 0.0097327195 -0.032332327 0.10785495 -0.07378811
0.0062211496 -0.08452387 -0.07285153 -0.05465582 0.05103538 -0.05273707 -0.07560128 -0.070126496
0.08508374 0.05221846 -0.0207574 -0.06766594 0.022812273 0.004444918 0.0428331 0.05227579
-0.030215766 0.026877657 0.026205163 0.067326866 -0.04432363 0.0054258173 -0.0033183177 -0.076734334
0.019970536 -0.026163924 -0.0022249043 -0.030798519 -0.017113307 0.08661587 -0.019256927 -0.022655383
0.098934606 -0.055884387 0.079165384 0.04424991 -0.06127993 0.06658387 0.055665594 -0.039463915
0.020070745 0.011154183 -0.05068685 -0.05304938 -0.029843645 0.04529897 0.046013918 0.04293993

rnn.weight_ih_l1 f4 [512, 128]
00000000: 719e 9ebd 2dd0 26bd 9fab 883d 56f3 e13b
00000010: a5d5 313d c851 95bc b4de 2dbd a7b5 973c
00000020: 7f9b 943d 7084 52bd 87b0 e23a f181 0c3c
00000030: 3351 843d 9b92 9a3b bb84 093d 5fe3 453d
00000040: 3f4b d5bb 4eff 3dbd 0b89 423c 8f1c 9d3d
00000050: d4a1 afbc ade4 22bb 975f 7a3d dd3c 6039
00000060: 5a83 b03c f4f0 b5bb 1f27 583d 74a6 86bc
00000070: b4cb 713d 0ee3 453d d982 9d3d c1dc 453d
00000080: 2c58 a53d 1e2b 27bd 7907 afbd e59d 1bbd
00000090: 6a1c b6bd fd58 073d f525 88bd 4e96 9dbd
000000a0: eda8 8fbb e11c ac3d f63a 63bd 84bf b0bd
000000b0: d3f6 bd3c 5d32 36bd 6ccf ad3d 80bb 1dbd
000000c0: ac07 20bd 97c1 d73b bfbd bcbc 29e9 8c3a
000000d0: 5cd2 353c 7c64 d7bb 8f71 00bc 285b 953c
000000e0: 6ab4 fb3c a075 3d3d dd33 ca3c 47ac 0d3d
000000f0: bdd2 d63b 2482 553d 1cdf aabb 6f9f 68bd
00000100: f288 193a 95a5 2d3d 679f 163d 8a1d 413d
00000110: 68bf 003c 385f 083d d77a 0d3d e77a 89bd
00000120: 2beb 20bd b2d6 5b3d 89ef 013d e50c 1e3d
00000130: 9fd4 863d 6bec c9bc f089 a93d 2197 a8bc
00000140: fcef 7c3a a270 573d e642 a2bd 2b64 a73d
00000150: 1e6f 81bc aa67 40bc 8ec7 87bd 323a a33d
00000160: 21cc 8bbd f828 16bd b619 573d 3a8e f1bc
00000170: b070 3d3d 0e40 ce3a 3564 8d3d 600e 513d
00000180: 646d 643d 2488 b63d 057b 6abd cb67 58bd
00000190: cc7d b63c 783d b6bd f86b 2dbc ce5a 93bd
000001a0: 1f58 9f3d 091e 433c 10b1 113d 1bea 163d
000001b0: 435d 703d 390d a2bd 2be0 3b3d 876f 03bc
000001c0: 856d febc ecfe 973d 631d 123d aae0 513c
000001d0: aa7d 2bbd a777 1cbd a194 ed3c 7ba1 2c3d
000001e0: 3bfd ab3d 54f1 343a b040 0f3d de74 04bd
000001f0: 316a 913d 98e5 393c 6e41 81bd 7d59 67bd
00000200: a5b0 b53d 4cfa b4bb 1378 86bb 1fec 12bd
00000210: 31ef 813d 32b2 b9bd 148e 19bd 6d36 57bd
00000220: 3e48 fc3c 2f7b 493d 6630 aa3c de1e 7f3b
00000230: e51b 78bb f6b0 87bc e53e 74bc efc1 a33d
00000240: 96aa c0bd 01a4 fbbc 0e2b 6cbd c13d b43d
00000250: c9cd 89bd ad1e b03d 27ff e93c e1a7 1bbd
00000260: 64c1 6bbc 36ce 24bd bd82 3cbd 900e 73bd
00000270: ce59 97bd bd10 57bd 7430 7f3b 53d4 32bd
00000280: 4c60 31bd de25 8a3d a618 7a3b 81b0 6fbc
00000290: fd82 033d aaa5 a33d c3ec 073c 5f78 1fbd
000002a0: aaf9 283c edf2 a2bc 895e 47bd 88b1 c03c
000002b0: 60fb 773d b44a 803b fccd 4b3c 9c8a cabb
000002c0: d304 803c 8eaa 7cbd e11c 74bd 248d cb3c
000002d0: ad37 47bd 5df0 b9bd b1ae 0fbd 2a55 dbbc
000002e0: 36b4 0c3d d959 6d3d 6a3f bfbd f067 8bbd
000002f0: d696 20bd 6433 fcbc e17e efbc 372d a3bc
00000300: b4de 25bd 4f37 7ebd 0a99 12bc 983c a7bd
00000310: 98bb a33d 7603 b63d 5305 46bc c3f0 bfbc
00000320: 727f 23bd 9ef2 81bd b2f0 94bd 2636 0ab8
00000330: 436a 99bb 4658 163c 695f 5e3d 571f 60bd
00000340: 0239 973d a1f4 043c 9341 3bbd 0e57 ac3c
00000350: b49e 523c 0d85 0fbd 0d9e 403c 0c5d 60bd
00000360: b98e 963c 5858 4ebd 56c2 85bc 1681 61bc
00000370: 4fad 03bd 6de1 8dbd 179c aebd 1722 e4bb
00000380: e1ab 423d e224 ebbc ae60 70bd 4bd8 00bb
00000390: c82c 4abb b693 a1ba ccca 8fbd d6ec 92bd
000003a0: daaa 5d3c 562d 43bd c245 743c 6b0e bb3d
000003b0: c877 de3c 3239 52bd c571 693d 4ddd 92bd
000003c0: df7c 8dbc 18f8 4a3d 0cd3 28bd e3bb 873d
000003d0: e2a4 a2bd 15a0 debc 9eb8 29bc 13e0 af3d
000003e0: bbed ccbc b3c0 9d3d 7905 6cbd 094f 923d
000003f0: b89a 33bd 6044 a8bc 4b0b 92bd c9ed 5bbd
-0.07745064 -0.040725876 0.06673359 0.006895463 0.043416638 -0.018227473 -0.042448714 0.018519236
0.07256221 -0.051395833 0.0017295041 0.008575902 0.064608 0.0047171838 0.033573847 0.04831254
-0.006509214 -0.046386056 0.011873494 0.07671463 -0.02143947 -0.002485554 0.061126318 0.00021384978
0.021547008 -0.0055524055 0.052771684 -0.016436793 0.059032157 0.04831224 0.07690973 0.04830623
0.08073458 -0.040812604 -0.08546347 -0.037992377 -0.08892138 0.03304385 -0.06647865 -0.07694684
-0.004384151 0.08403946 -0.05547615 -0.08630279 0.023188984 -0.044481624 0.08486828 -0.038508892
-0.039069816 0.006584357 -0.023039697 0.001075064 0.011097517 -0.006573258 -0.0078395745 0.018231943
0.030725677 0.046254754 0.024682933 0.034588125 0.0065558837 0.052126065 -0.005214585 -0.056792673
0.0005856893 0.04239424 0.03677311 0.04714731 0.007858135 0.033293933 0.034540977 -0.06712895
-0.039286774 0.053671546 0.03172258 0.038586516 0.06583523 -0.024648866 0.082782626 -0.020579876
0.00096487976 0.05259765 -0.07922916 0.081734024 -0.015800055 -0.011743465 -0.06629859 0.07970084
-0.06826044 -0.036660165 0.052514754 -0.029486764 0.046250045 0.0015735643 0.069038786 0.0510391
0.055768386 0.089126855 -0.057246227 -0.05283336 0.022276781 -0.08898443 -0.010584824 -0.07195054
0.0778048 0.011909016 0.03556925 0.036844354 0.05868269 -0.07912678 0.04586808 -0.008022196
-0.031058082 0.07421669 0.035672557 0.012809912 -0.04186789 -0.038200047 0.029001536 0.042146187
0.08397909 0.0006902416 0.0349738 -0.032338016 0.071003325 0.011346243 -0.06311308 -0.056481827
0.08871583 -0.005523002 -0.0041036694 -0.035869714 0.0634445 -0.09067191 -0.037489012 -0.05254214
0.030796167 0.049189743 0.020775031 0.003892831 -0.0037858423 -0.016563874 -0.014907573 0.07995974
-0.09407537 -0.030717852 -0.057658248 0.08800841 -0.067287035 0.08599601 0.028564049 -0.0380019
-0.01438937 -0.04023572 -0.04602312 -0.05934006 -0.07390176 -0.052506197 0.0038938792 -0.04365952
-0.043304726 0.06745504 0.0038161664 -0.014629484 0.032107342 0.07990582 0.0082961945 -0.038933154
0.010313431 -0.019891227 -0.04867414 0.023522153 0.060542464 0.0039151553 0.012439247 -0.0061810743
0.0156273 -0.06168609 -0.059597854 0.024847575 -0.04863708 -0.09079049 -0.035078708 -0.026774008
0.03435155 0.057947014 -0.09338267 -0.06806934 -0.03920635 -0.030786224 -0.029235305 -0.019919021
-0.04049559 -0.062064465 -0.00894762 -0.08165854 0.07994765 0.08887379 -0.01208623 -0.023430234
-0.039916463 -0.06345104 -0.072724715 -3.2952194e-05 -0.004681857 0.009176319 0.05429021 -0.054717388
0.0738392 0.008114965 -0.045716833 0.021037605 0.012855221 -0.035038996 0.011756432 -0.054776236
0.018378602 -0.05037722 -0.016328018 -0.013763687 -0.0321477 -0.06927762 -0.085258655 -0.0069620716
0.047527198 -0.02870411 -0.05868595 -0.001966017 -0.0030849446 -0.0012327346 -0.07021102 -0.07174079
0.013529504 -0.047650658 0.01490921 0.091336094 0.027156726 -0.051324077 0.056993265 -0.07171116
-0.017271457 0.049553007 -0.041216895 0.066276334 -0.07941605 -0.027175942 -0.010358958 0.08587661
-0.025015702 0.0770277 -0.057622407 0.07143981 -0.043848723 -0.020540416 -0.0713106 -0.053693566

rnn.weight_hh_l1 f4 [512, 128]
00000000: 97b4 c0bc 8c99 363d 93c1 1c3d ab95 a6bd
00000010: 1bf1 d83c bc1b 2e3c efd8 5c3d 1d93 183d
00000020: 9967 8e3c 9bfe 26bd 2864 513a 666a cdbc
00000030: ce9a f4ba f9e6 f23c 2961 1cbd 9e52 19bd
00000040: 3059 473d b8ef 603c c493 163c d2b3 26bd
00000050: 6c32 233d 1030 db3b 8c43 9d3c 1748 933d
00000060: 16f2 38bc a0e9 b63d 6e7c 9b3c 8421 8f3d
00000070: 934e 8cbc 9f53 4e3d 0ce0 e73b a9d3 1c3d
00000080: 75e8 e7bb dc54 dd3b c4ce 7e3d 9b8b c9b9
00000090: 3a09 a93d e74d 83bb 1902 f93c cd70 803d
000000a0: b3e8 9fbc 2b3d bf3d 1ddb 09bd 9300 8f3d
000000b0: 3618 9f3d 733e 8dbd 1002 97bd 5c7d 923d
000000c0: b362 c3bb 59bd 773d 5cc2 7c3d 9419 333d
000000d0: 6eec 3cbd c8b6 223d f009 9fbd 3f89 a33c
000000e0: f7e8 333c 3553 17bd bd9e 7fbd a210 543d
000000f0: 50a6 423d 9a71 523d 7fcf 253c d7ba 45bd
00000100: 9ef2 953d e52a a43d 3a5f 913d 4e2b cabc
00000110: a848 963d b041 ba3d f0f8 e9bc 5773 b53d
00000120: 7e34 e9bb 5df3 7a3c 8bd9 a8bd c23e 5abd
00000130: 5df3 3cbd 97e7 8abc c36a 413c 193a 3e3c
00000140: c7d5 94bd d0a4 623d c11e 81bd b883 e1bc
00000150: 7bd2 923d 8721 15bd 5385 c33c f57b 8dbd
00000160: 7fde 883d 1723 9abb cf24 6cbd 6f4c afbc
00000170: 3d4a 39bd 324e b9bd 4a41 17bc f581 fcbc
00000180: 8623 8dbd fc10 103d 35ef c1bc 22af 213c
00000190: 9a2e e43c df58 b3bc d5fd c3bc 5465 0dbc
000001a0: 7d91 90bd a11b 9ebd c5d8 a7bd 6ed8 423d
000001b0: a5da 9bbd 653f 2b3c 8e44 9abd 4ab2 813d
000001c0: ba01 55bd 0e9e 1fbd 9a4f a83d c7e2 8fbd
000001d0: 5491 a2bd d431 41bc 0352 aabd 1e45 243c
000001e0: e1bd a23d 6e53 2ebd 59f7 b3bd d97f 6ebd
000001f0: 5b9a bb3c 1a9c 99bd d229 62bc 2885 8c3c
00000200: aaf5 b13d 083c a83d 2330 073d 58ad 9fbd
00000210: 7e0d a23d 4232 33bd 2a97 3f3d 9099 b7bc
00000220: b2c7 82bc d43d 52bd d95d 03bc dc0e 463d
00000230: 43b7 ba3d 69dd 9a3d 9549 d13c d30b 87bd
00000240: 3473 abbd d8f4 393d 7fa9 9bbc c153 1dbd
00000250: b35b 58bd 33be cd3a 9e01 543d 2041 cdbc
00000260: 7ab1 70bd ff9b 87bd d721 ebbc 6815 8c3c
00000270: 3b11 e9bc 9716 cabc 1220 a13d 21fe efbc
00000280: 636c 5e3d 0a22 ce3a d24d c7bc ecc9 ba3d
00000290: 5bd4 25bd 0aae 09bc 5b81 8c3d b9e2 663d
000002a0: 9e79 253d 14ef 2b3d 1bc4 dfbc 3cfa 2bbc
000002b0: a814 8cbd e80b 993d e229 1bbb 8796 c83d
000002c0: 7fbf e5bc 7e66 a3bd 04bb 953d 417c 253d
000002d0: 4ac2 98bd 0455 4c3d 7d00 853d f47f 063d
000002e0: 1f19 e03c 6f46 95bd a7a6 9c3d 3c0a a1bd
000002f0: cf84 ad3c 40bb 173d 66ef edbc ad46 023d
00000300: 5b71 a1bd 977a 13bd 7ea2 6bbc 7c4b 60bd
00000310: 009b 98bd 9360 1ebd c496 213d 16df 6f3d
00000320: 81b7 ed3c 527f 35bc a5e7 093c a7c9 9e3d
00000330: 070c bdbd 9d89 ca3b 03e0 8ebd 30c7 92bd
00000340: a9c7 ad3d 3125 9abd 9f36 263d 54f8 b93d
00000350: 4fd3 bdbd 754a 1ebd 3164 ae3d ec1f 74bd
00000360: 6105 22bd 2709 293c 4b09 07bd e82c a03c
00000370: 9bc1 17bd 893f cb3c a240 f5bc 4987 0ebc
00000380: 49a7 54bd 712d b63b 35cf 4dbd b3b2 313d
00000390: f1af a73d 7dbb 28bd d4d2 5e3d 9890 d23c
000003a0: cc44 173d 456a ddbc 2464 9bbc 30bf 8bbd
000003b0: 1f91 ae3c f2f6 5abc ee5c 19bd f44b 8fbd
000003c0: 936c a93d ff06 bbbb 16a8 9fbd 599b b93c
000003d0: c7c6 743d 1966 96bd 94e1 733d 19b3 8dbb
000003e0: e4eb b43b b244 0bbd b807 92bd e766 51bd
000003f0: c944 a4bd ce93 f73c 8751 863c a80e 943d
-0.023523612 0.044580027 0.038270544 -0.08134016 0.026482156 0.01062673 0.05391782 0.037249673
0.017383384 -0.040770154 0.0007987642 -0.025075149 -0.0018661858 0.029651152 -0.038178597 -0.037432306
0.04866904 0.013729028 0.0091905035 -0.040698834 0.039843008 0.006689079 0.019197248 0.071914844
-0.011288187 0.08931279 0.018980231 0.069888145 -0.01712731 0.050372716 0.007076269 0.038287792
-0.0070772716 0.006754501 0.062208906 -0.00038441722 0.08253713 -0.0040070894 0.030396508 0.06271515
-0.01952014 0.09337839 -0.03365623 0.069825314 0.0776829 -0.06896677 -0.0737344 0.07152817
-0.0059626936 0.06048331 0.061708793 0.043725565 -0.046123914 0.039725095 -0.07765567 0.019962905
0.010980836 -0.036944587 -0.062407244 0.051773675 0.04752189 0.05137787 0.010120272 -0.048273887
0.07321666 0.08015994 0.07098241 -0.024678852 0.07338077 0.0909456 -0.028561085 0.0885989
-0.0071168533 0.015316811 -0.08244618 -0.053282507 -0.046130527 -0.016956134 0.011805239 0.011610531
-0.07267337 0.05533296 -0.06304694 -0.027528629 0.07169052 -0.036408927 0.023867285 -0.069084086
0.06683063 -0.00470389 -0.05765229 -0.021398751 -0.045236815 -0.09048118 -0.009231875 -0.030823687
-0.06891541 0.035172448 -0.023673633 0.009868415 0.027854253 -0.021892963 -0.023924747 -0.008630116
-0.07059 -0.077201135 -0.081956424 0.047569685 -0.076100625 0.010452126 -0.07532607 0.06332834
-0.0520036 -0.038969092 0.08218308 -0.07025676 -0.079378754 -0.011791665 -0.08316424 0.010026244
0.07946373 -0.042560034 -0.08787412 -0.058227394 0.02290075 -0.07500477 -0.013803916 0.017153338
0.08689435 0.08214575 0.03300489 -0.077967346 0.0791273 -0.0437491 0.04677502 -0.022412091
-0.015964363 -0.051328495 -0.0080179805 0.048354015 0.09116986 0.07561762 0.025547782 -0.06594052
-0.083715826 0.045399517 -0.01900172 -0.038409952 -0.052821826 0.0015696943 0.051759355 -0.025055468
-0.058763005 -0.06621551 -0.02870266 0.017100051 -0.028450599 -0.024668975 0.07867445 -0.029295983
0.054302584 0.0015726697 -0.0243291 0.09120545 -0.04048572 -0.008403311 0.0686061 0.056368563
0.040399186 0.04197605 -0.02731519 -0.010496672 -0.06839877 0.07472974 -0.0023676087 0.09794336
-0.028045414 -0.07978533 0.07311061 0.0404017 -0.07458933 0.049885765 0.06494234 0.03283687
0.027355729 -0.07288825 0.07648974 -0.0786328 0.021181492 0.03704381 -0.029044818 0.031805683
-0.07882949 -0.036005583 -0.014382003 -0.054759488 -0.07451439 -0.03866632 0.039450422 0.05856236
0.029018166 -0.011077719 0.008417045 0.07753306 -0.0923081 0.0061809556 -0.069763206 -0.07166898
0.08485348 -0.07526625 0.040579434 0.09080568 -0.092688195 -0.038645227 0.08515204 -0.059600756
-0.03955591 0.0103171235 -0.032967847 0.019552663 -0.03704987 0.02481057 -0.029938046 -0.008699247
-0.051917348 0.0055596163 -0.050246436 0.04338331 0.08187855 -0.041194428 0.05440028 0.025703713
0.036930844 -0.027028212 -0.01896865 -0.068235755 0.021309434 -0.01336454 -0.03744214 -0.06996909
0.08272662 -0.005707621 -0.07795732 0.022657083 0.05975988 -0.07343692 0.0595413 -0.0043243286
0.0055212844 -0.03400106 -0.071303785 -0.051123526 -0.08020932 0.030221846 0.016396297 0.07229358

rnn.bias_ih_l1 f4 [512]
00000000: 27ff 2f3d ff46 4ebd b400 adbd 927e 533d
00000010: 554a 58bd ff13 073b 7113 38bc 561f 90bc
00000020: 4b4a 8bbd 40a6 2c3d 9f55 1e3d 8e9e 7dbd
00000030: fc30 c1bc 709a b13d d12c c23d eebf 91bd
00000040: 47ea fb3c f5c4 19bc 1012 03bd 59b8 773d
00000050: df25 883d bb2a ff3c 501e 94bd dc07 f33c
00000060: 77d6 503d 9e12 fdbc 7901 9abd a8ee 73bd
00000070: 0890 9d3d e556 80bd c078 703d 42f9 803d
00000080: 4421 453d 4a7f 653c d856 bb3d 3710 d23b
00000090: 30a7 53bd d859 993c ee33 993d 6f04 1f3d
000000a0: ca8f 9d3c cd06 66bd a0d2 b13d 19a9 a7bd
000000b0: ff35 11bd 0622 cabc 9257 2c3d c9c5 9bbd
000000c0: d290 05bd eeb3 603c 481c 85bd dca3 773d
000000d0: dc85 743b 1393 433d 7c03 c03d d816 af3c
000000e0: c805 093b 4f15 583d 3404 5c3d 76be 52bd
000000f0: 10bd 723d 7ab0 82bd 61bd bcbc c320 643d
00000100: f991 4ebc b248 9bbd 3ce1 a33c 94fc 3fbd
00000110: 0cdf 543d 84db 383d 22e2 113d e195 133c
00000120: 63ab b03c 9070 893d a9eb c5bc 22fc 563d
00000130: 5c8f a53d 9ae9 913d 835a 8d3d c94b b53d
00000140: 304b 03bc dc35 3cbb 7aee 9abd 845d 963d
00000150: f176 c9bb eff8 473d 71c4 9b3d 9ed2 893d
00000160: dbb7 153d 77e9 173d d67b b23c a3b3 4c3b
00000170: df71 aabd 3d34 a9bd 3fe5 65bd f2d3 b13d
00000180: 57f2 a23c ee93 a93d 9229 e53c 3469 99bc
00000190: 7df6 87bd fe31 39bd 4ae2 bc3c 7791 88bc
000001a0: 83cc ad3c 1e04 f8bc fa76 d93c ec8f bd3d
000001b0: 1b08 a9ba 7492 583d 600d aa3a 59bc 9fbb
000001c0: 5f79 6a3d a2aa b3bc a38f 97bd 5efd 8fbc
000001d0: 4b59 0dbd a827 0c3c 4100 6dbb 878b 3cbd
000001e0: 7535 99bc 7fb0 433d 860d 893d a77a 25bd
000001f0: 27ac 92bd 9bea 363a 321b 8fbc c833 3d3d
00000200: 3d28 17bc e07d aabd 7d1a a43d a3c5 473d
00000210: 5462 15bd adef 653c a580 793d f920 9e3d
00000220: fba8 afbb 56dc 7ebd 5d4d 893c 28e8 51bc
00000230: 5008 4abd 1d2d d4bc 0af3 69bd e978 a03d
00000240: bbf4 b03d 5703 3b3d 12b7 703d b057 0bbd
00000250: ada4 65bc 4587 1dbd 3bf1 b83d f00e 4a3d
00000260: be3c 573d 9016 9e39 9a44 6cbd d6ec b13d
00000270: 7b05 94bd 2389 633c a36f 843d fc1d a73c
00000280: ce8a 25bd e67c 4abd 3852 9e3c 68c7 fb3b
00000290: a6cf c23c 706e dd3b 2c94 0a3d c9a4 a2bc
000002a0: 5972 4f3d 25ea 99bc 79f9 51bc 4000 193d
000002b0: 967d 2bbc a06a 55bd d799 82bd be4b 433c
000002c0: fd73 773d 81af 82bd 5c64 813c 691a c43b
000002d0: 534d 273d 2f66 983d b722 703c 93d4 82bd
000002e0: a056 cb3c bc97 983b 2397 83bd 3050 343b
000002f0: 9711 db3c c0c7 4c3d 1b93 823c 100c d13b
00000300: 7c59 263d 7f3b c53c 419f 83bc 9947 523d
00000310: 052f 11bc 94a5 933d 4d34 463d c825 fc3c
00000320: 92c3 943c a9b8 99bd ac59 d8bc b45b 8ebd
00000330: 2b71 4b3c 508c 233c 95b3 b1ba e9c4 1a3d
00000340: fade 7d3d 44e6 d43a c107 60bd 5f12 b83d
00000350: e7fe a23d 9d45 293d d864 a03c 3727 923b
00000360: 6705 8cbd 1007 af3d 2afb 17bd 5fec 8fbb
00000370: 2f81 34bd e026 e7bb 372c a2bd 498a 0f3d
00000380: 1999 873d 299d 91bd a463 d93b b115 823d
00000390: 722e 9e3d 3d4f 6cbd 29c0 cfba 37b3 443d
000003a0: 9585 2b3d 75e4 91bd b946 9bbd 79c6 07bc
000003b0: 281d 59bd effc 013d 68eb 463c 3cb7 a6bd
000003c0: 5408 813b 2501 f8ba a9f4 893d 411f 2f3d
000003d0: d09d aa3d c0d5 153c d951 8ebd 8fc6 f13c
000003e0: db11 06bd 4762 59bc 9046 87bd 099c 1dbd
000003f0: 02eb 943d 02ef 76bd d03b 983d 09f4 b6bc
0.04296794 -0.050360676 -0.084474 0.05163438 -0.052805264 0.0020611284 -0.011235104 -0.017593067
-0.0680128 0.042150736 0.038655873 -0.061918788 -0.023582928 0.08672035 0.09481204 -0.07116686
0.03075136 -0.009385337 -0.031999648 0.060478542 0.06647848 0.031148305 -0.07232344 0.029666834
0.05098578 -0.030892666 -0.07519812 -0.059553772 0.076934874 -0.06266574 0.058708906 0.06297542
0.048127428 0.014007399 0.091474235 0.0064106244 -0.051673114 0.018719599 0.07480608 0.038822588
0.019233603 -0.05615883 0.08682752 -0.0818655 -0.035451885 -0.024674427 0.0420757 -0.07606084
-0.032608815 0.013714774 -0.06499535 0.060459003 0.0037311232 0.047747683 0.093756646 0.021373197
0.0020907987 0.052754696 0.053714946 -0.05145117 0.059262335 -0.063813165 -0.023039522 0.055695307
-0.012608045 -0.07582225 0.020004861 -0.046871737 0.051970527 0.04513122 0.035616048 0.009007902
0.021566099 0.06710923 -0.024160223 0.052486546 0.08083984 0.07124634 0.06902029 0.088523455
-0.008013532 -0.0028718626 -0.07565017 0.073420554 -0.006148212 0.048821386 0.076058276 0.06729625
0.03655229 0.037087884 0.021787565 0.0031235002 -0.083225004 -0.08261917 -0.05612683 0.086830035
0.019890947 0.082801685 0.027973924 -0.018726923 -0.06638811 -0.045213692 0.023057122 -0.016670926
0.021215683 -0.0302754 0.02654599 0.092559665 -0.0012896092 0.052874044 0.0012973957 -0.0048747477
0.057244655 -0.02193195 -0.074004434 -0.01757687 -0.034508985 0.008554377 -0.0036163481 -0.0460315
-0.018702248 0.04777574 0.066920325 -0.040400174 -0.07161742 0.0006977708 -0.017469022 0.04619196
-0.009225902 -0.0832479 0.08012865 0.048772465 -0.036470726 0.014034194 0.0609137 0.07721133
-0.00536072 -0.062221847 0.016760522 -0.012811698 -0.049324334 -0.025900418 -0.057116546 0.07835562
0.08640429 0.045657482 0.05876834 -0.034019172 -0.014016313 -0.03845908 0.09030386 0.04933065
0.052548163 0.0003015292 -0.05768261 0.08687751 -0.07227608 0.013887676 0.064666055 0.02040004
-0.040415578 -0.04943552 0.019326314 0.007683683 0.023780655 0.00675755 0.033832714 -0.019853966
0.05064616 -0.018788407 -0.012815827 0.037353754 -0.010466954 -0.05210364 -0.06376999 0.011919914
0.06041335 -0.06381131 0.015794925 0.0059845936 0.040845226 0.07441365 0.014656714 -0.063882016
0.02482158 0.00465676 -0.064253114 0.0027513616 0.026741786 0.049995184 0.015939286 0.006379612
0.040612683 0.024076222 -0.01606715 0.051337812 -0.008861308 0.07209316 0.04838972 0.030779734
0.018159661 -0.07505924 -0.026409946 -0.06951085 0.012417118 0.009982184 -0.0013557548 0.037785444
0.061980225 0.0016242941 -0.054694895 0.08987879 0.07958775 0.041326154 0.019579336 0.004460241
-0.06836968 0.08546269 -0.037104763 -0.0043921913 -0.04406851 -0.007054195 -0.079185896 0.03504399
0.06620998 -0.07110054 0.0066341925 0.063517936 0.077237025 -0.057692755 -0.0015850115 0.048022475
0.04187544 -0.07123653 -0.07581849 -0.008287066 -0.05300632 0.031735357 0.012141086 -0.08140418
0.0039377604 -0.001892124 0.06736118 0.042754415 0.083308816 0.0091452 -0.06949205 0.029513625
-0.032731872 -0.01326806 -0.066052556 -0.038478885 0.07271387 -0.06028653 0.07433283 -0.022333162
