exps/chpts/TCN_layers2_stride5_average_lr0.0001/best_model.pth (torch, 501357 bytes, 34 tensors)

conv.bias f4 [64]
000000 3a ac 12 bd bb f5 be bc 52 98 d2 3c 53 c0 66 bd
       -0.03580878 -0.023310533 0.025707398 -0.05633576
000010 9f 00 5f bd fc 38 81 bd 0e 67 3e 3d a3 01 3b bc
       -0.05444395 -0.06309697 0.046485 -0.011413964
000020 a4 eb e3 3c 5e 54 66 3d c3 ca 47 3c c1 c6 11 bd
       0.027822323 0.056232803 0.012194338 -0.035589937
000030 87 50 52 3c d1 e4 9c 3c 0b 06 27 3d 6c 73 7b bd
       0.012836582 0.019152077 0.040777247 -0.06138937
000040 8e 85 3d bd 6b f5 94 bc 82 a6 e9 3c 69 24 15 bd
       -0.046269946 -0.01818343 0.02852178 -0.036411677
000050 b0 44 23 3d 1f e5 3c bc e9 ea 69 bd 31 32 28 bd
       0.039860427 -0.011529236 -0.057108793 -0.04106349
000060 37 bc 28 bd 37 08 cf bc 37 f6 77 3d 04 90 69 bc
       -0.04119512 -0.025272472 0.060537543 -0.014255527
000070 65 30 82 bd 2d 16 57 3c 0b f2 4d bc 7a 60 63 bd
       -0.06356887 0.013127846 -0.012569915 -0.05551193
000080 97 76 00 bd 34 7f 73 bd d7 f9 32 bd 11 81 b4 bb
       -0.031363096 -0.059447482 -0.043695297 -0.00550855
000090 a8 a8 dd bc d2 2b 54 3d ec 21 b7 3b c0 11 cd bc
       -0.02705796 0.051799603 0.0055887606 -0.025032878
0000a0 d3 d0 c9 3c d3 d2 1b bd 51 a0 52 3d 3f 4d 46 bd
       0.024635708 -0.038042855 0.05142242 -0.04841351
0000b0 a1 0f 0f bb 97 5e 2d 3d 29 e9 81 3d 86 30 00 bd
       -0.0021829384 0.042326536 0.063433 -0.031296276
0000c0 ff 04 19 3b d4 cb f8 bb f7 f1 43 3d b6 ae 71 3d
       0.0023348925 -0.0075926576 0.047838178 0.059004508
0000d0 ab c5 80 3d 23 6a fd 3c f5 22 fc 3c b6 fc 53 bd
       0.06287702 0.030934399 0.030778388 -0.051754676
0000e0 e4 1a 15 bd cc 72 4b bc dc 36 81 bb 87 97 80 bd
       -0.036402598 -0.012417506 -0.0039433073 -0.062789015
0000f0 d2 89 4f bd 97 15 fe bc 0a 99 4d bc fe 59 0f 3d
       -0.050668545 -0.031016154 -0.012548694 0.034997933

conv.weight_g f4 [64, 1, 1]
000000 f3 3b 19 3f 49 58 0d 3f d2 83 0f 3f 83 ef 17 3f
       0.598571 0.5521284 0.56060517 0.5934984
000010 7c 14 18 3f 7b 65 0f 3f 2a a8 16 3f 49 96 13 3f
       0.59406257 0.5601422 0.5885035 0.5765119
000020 7c 8b 18 3f 0f 07 19 3f bf dd 12 3f 44 90 17 3f
       0.59587836 0.59776396 0.5736961 0.59204507
000030 56 0b 11 3f f7 4e 17 3f 57 2f 10 3f d3 e2 13 3f
       0.5665792 0.59104866 0.56322235 0.5776798
000040 20 27 0c 3f d8 a3 10 3f 54 b2 13 3f fe c7 11 3f
       0.547472 0.56500006 0.5769398 0.5694579
000050 1c a2 19 3f 6c b5 0c 3f ea 0f 12 3f 3b 4e 1f 3f
       0.60012984 0.5496433 0.5705553 0.62228745
000060 96 3f 0f 3f d8 92 1f 3f 23 0e 14 3f 5c 04 10 3f
       0.559564 0.6233344 0.5783407 0.5625665
000070 ca a1 0d 3f 3b de 10 3f 60 9e 16 3f a6 50 0d 3f
       0.55324996 0.56589097 0.5883541 0.55201185
000080 c9 b4 19 3f 15 34 15 3f 2c 43 19 3f 3f dd 12 3f
       0.6004148 0.58282596 0.5986812 0.57368845
000090 9b 5a 12 3f 0a 60 14 3f b2 ab 15 3f 66 e8 0b 3f
       0.571695 0.57959044 0.5846511 0.54651487
0000a0 38 21 13 3f 3a b6 13 3f 8d 36 14 3f bd 1a 16 3f
       0.5747256 0.5769993 0.5789574 0.5863455
0000b0 98 ab 10 3f 20 4c 0e 3f fb c1 0f 3f e1 f2 0c 3f
       0.5651183 0.5558491 0.56155366 0.55058104
0000c0 41 e3 15 3f fd 05 0d 3f f0 ae 15 3f 2d b0 16 3f
       0.58549887 0.5508726 0.5847006 0.5886257
0000d0 98 a7 12 3f 2e 3c 12 3f fb 6c 13 3f 43 dd 15 3f
       0.5728698 0.57123077 0.57588166 0.58540744
0000e0 37 24 17 3f 52 0d 18 3f ab 43 14 3f 82 54 18 3f
       0.59039634 0.59395325 0.57915753 0.5950395
0000f0 06 a6 15 3f fa 96 15 3f f6 a6 15 3f 76 1f 19 3f
       0.58456457 0.58433497 0.5845789 0.5981363

conv.weight_v f4 [64, 17, 14]
000000 77 92 15 3c f7 b9 82 bd 98 16 65 3d d3 c9 f2 3c
       0.009129158 -0.06383126 0.05592975 0.029637253
000010 d4 77 30 3d d3 e0 0f 3d e3 1b 68 bd 3c 29 3b bd
       0.043083027 0.03512652 -0.05666722 -0.04569362
000020 c6 a3 d9 bc 6f 0a 85 3b b6 fa 39 bd 4f 6c 2f 3d
       -0.026567351 0.0040600817 -0.045405112 0.0428279
000030 9b 1a 97 bc f5 53 11 3d 4d d8 17 bb 0a 20 16 bd
       -0.018445304 0.03548046 -0.0023169697 -0.03665165
000040 df e2 74 bd 99 ba 81 3d 94 95 98 3c 32 04 de bb
       -0.059786674 0.06334419 0.018626012 -0.0067754025
000050 87 5d 9f bb e9 b4 6f 3d dc 3e 7e 3c 4a 02 93 bc
       -0.0048634443 0.05852214 0.0155179165 -0.017945427
000060 85 31 73 3d e9 49 77 bc 97 9d 7a 3a bd 3b 0e 3d
       0.059373397 -0.015093305 0.0009560226 0.03472494
000070 54 2a b3 bc 58 a4 6a bd 35 af 0f 3d 79 0a 55 bc
       -0.02187077 -0.057285637 0.0350792 -0.013002985
000080 84 bf ff 3c 4c 9b 41 bc d7 24 25 3d 70 7a 17 3d
       0.031219251 -0.011816811 0.040318336 0.036982
000090 05 c9 81 3c 92 52 82 bd cc 22 8d bc 1c 65 30 3d
       0.015842924 -0.06363405 -0.017228507 0.043065175
0000a0 a1 8a 3a 3d b3 f3 86 3c 00 11 25 bd bd ea de bc
       0.045542363 0.016473627 -0.040299416 -0.027211541
0000b0 5e 62 2b 3d 0e 87 b0 3c f9 22 22 3c 4b f1 de 3a
       0.041841857 0.021548774 0.009896033 0.0017009167
0000c0 d1 29 f2 bc 51 79 16 3d bc 45 6a 3d 34 8f ef 3c
       -0.029560955 0.03673679 0.05719541 0.02924309
0000d0 f5 dd 67 ba 93 d9 4d bd a4 d8 22 bd 59 b2 3e 3d
       -0.0008845025 -0.050256323 -0.039757386 0.046556804
0000e0 ea 18 4c 3c bc 9b 63 3d 10 27 d4 bb 22 9a 84 3c
       0.012457112 0.05556844 -0.006474383 0.016186778
0000f0 e9 26 19 bd 91 66 57 3c 08 95 ab bc 97 09 40 3d
       -0.037390623 0.013147012 -0.020945087 0.046884146
000100 8c cf 48 bd a5 bc 74 3d 53 1c 75 3d 21 71 cf bc
       -0.049026057 0.059750218 0.059841465 -0.025322499
000110 c2 29 ff bc 70 89 2f bd 99 4a 5c bd c2 4b 39 3d
       -0.031147841 -0.04285568 -0.05378208 0.045238264
000120 ec 07 18 bc f0 36 89 bc d4 25 1d 3d 8c 44 91 3c
       -0.0092792325 -0.016749829 0.038366154 0.017732881
000130 86 18 04 3d ef 69 06 3d 79 f1 68 3c 37 f4 1a 3c
       0.03224995 0.03281587 0.014217728 0.009457639
000140 3d 28 80 bd 10 7d 4f 3c b2 7f 82 3d 0d 38 0d 3d
       -0.06257675 0.012664095 0.06372012 0.034477282
000150 04 b9 d7 39 31 ad 1e 3d ca ca 16 bd 20 1d 1b bd
       0.00041145843 0.038739387 -0.03681449 -0.037869573
000160 a8 b8 46 3d 12 e5 80 bd ec 16 cd 3c 45 16 46 bd
       0.048515946 -0.06293692 0.025035344 -0.04836108
000170 5f 0e d9 3c d2 f2 04 bd e9 b9 13 bd 37 8e f2 bc
       0.02649611 -0.032458134 -0.03606597 -0.029608829
000180 5a b9 0e bd 81 9d 01 3d 76 7a 2e 3c 4f 75 84 3d
       -0.034844734 0.031644348 0.010649314 0.06467687
000190 24 ce 55 3d a2 86 71 bd bf 52 7d bc 4d 81 1f 3d
       0.052198544 -0.058966286 -0.015461623 0.03894167
0001a0 6b fd 5b 3d 04 23 51 3c 1c a3 24 bc ae 1d 6c 3d
       0.053708475 0.012764696 -0.010048654 0.057645492
0001b0 56 cd 51 3d 67 a3 c5 3c 9b b9 3e bd 9c 29 0c bd
       0.051221214 0.024125768 -0.046563726 -0.03421937
0001c0 f3 ed 2d bd df dc ff bb e4 f0 40 3c 1e 78 f8 3c
       -0.042463254 -0.0078083123 0.011776183 0.030330714
0001d0 ec f7 0b 3d 25 ed 81 bd 7b f9 7a bd f6 a9 15 bc
       0.034171984 -0.0634406 -0.06127308 -0.00913476
0001e0 d3 9e 72 3d d7 d5 43 bd 0d 03 82 3d 31 0d 2a bd
       0.059233498 -0.047811355 0.06348238 -0.041516487
0001f0 5f f7 f9 bb a8 e1 82 bd 63 7d 1e 3d c9 e7 1e bd
       -0.007628366 -0.06390697 0.038693797 -0.038795266
000200 55 ce 23 3d 12 52 85 bc e2 f4 2c bd b1 51 e7 bc
       0.039991695 -0.016274486 -0.042225726 -0.028237196
000210 aa 51 07 bd 19 60 81 bd cd 27 34 3d cb 3b 75 3d
       -0.033036865 -0.06317157 0.04398327 0.059871476
000220 a6 e6 26 3d b8 6c 48 bd 02 15 30 3d fc 13 00 bc
       0.040747307 -0.048931807 0.042988785 -0.007817265
000230 46 e0 8a bc fa e2 92 bc 1d 48 c3 bc 9e 1d 9b bb
       -0.016952645 -0.017930496 -0.023838097 -0.0047337553
000240 5a 9a 63 bd 33 fa 68 bc 3e 96 e0 bc 76 e6 66 bd
       -0.055567123 -0.014219808 -0.027415391 -0.05637213
000250 58 22 ff ba 65 20 8a 3c cd 3c 1b 3d 6c 38 42 bd
       -0.0019465191 0.01686115 0.03789978 -0.04741709
000260 61 d8 54 3d cb 18 40 bd 2a f5 82 3a 8c 60 43 3d
       0.051964168 -0.046898644 0.0009991277 0.047699496
000270 51 db f4 bc 44 cd 70 bd 14 fd 82 3d 05 93 85 3d
       -0.029889734 -0.058789507 0.06395927 0.065221824
000280 c4 24 09 3a 09 b4 a6 3c 6c 1f 3a bd 05 58 a5 3c
       0.0005231614 0.02034952 -0.045440122 0.020183573
000290 ea 26 60 3d e6 b2 5d 3d 49 3a 4c bd 06 c9 d7 bc
       0.05472461 0.05412569 -0.049860273 -0.026340973
0002a0 9f ba 83 bd 80 71 e7 3c 10 27 b8 3c bc e5 23 bd
       -0.064320795 0.028252363 0.022479564 -0.040014014
0002b0 82 a7 d8 3c b9 ce de bc 83 11 44 bd a4 04 41 3d
       0.026447061 -0.027198182 -0.047868263 0.047123566
0002c0 48 57 35 bd 6c b3 49 bd 9e f0 e0 bc 93 32 f6 3c
       -0.04427269 -0.049243376 -0.027458485 0.030053413
0002d0 74 fc 94 bc db cb 62 bd 7b c7 f6 3c e9 a5 52 3c
       -0.018186785 -0.055370193 0.030124417 0.012856939
0002e0 9e 46 e4 3b 82 53 e3 37 02 58 a7 3c a8 9a ed 3c
       0.006966426 2.7099395e-05 0.020427708 0.02900441
0002f0 3a 4c 20 bc c1 80 85 3c 5a b5 92 3b 82 aa 51 3d
       -0.009783799 0.016296746 0.004477185 0.051188
000300 f6 2f 6e 3d cf 82 af bb d8 9f 5a bd b5 03 83 bd
       0.058151208 -0.00535617 -0.053375095 -0.063971914
000310 ca ea 23 3d 1d 87 ac bc d8 0f 77 3d 45 13 82 bd
       0.040018834 -0.02106052 0.060317844 -0.063513316
000320 0a b0 a9 3c 2f 08 65 bd b5 2f 9e 3b 44 22 c7 3a
       0.020713825 -0.055916008 0.0048274645 0.0015192707
000330 d9 0e 33 bd 1d bc 02 bd 3e d4 2d 3d 68 9b 26 3c
       -0.04371533 -0.03191768 0.042438738 0.010168888
000340 f4 91 4e bd c0 79 1a 3d bb 17 82 3d 7c 6b b2 ba
       -0.05043216 0.037713766 0.063521825 -0.0013612355
000350 98 a7 0d 3d e8 51 85 3d f9 f8 32 bd 0f 65 20 bc
       0.034583658 0.06509763 -0.04369447 -0.009789719
000360 a7 cb 26 3d bf 54 82 3d 7a 96 c4 3c f0 fd 61 bd
       0.04072156 0.0636382 0.023997534 -0.055173814
000370 34 87 29 3c 3f 9b fe 3c ca 22 80 3d c6 0e 83 ba
       0.010347176 0.031079886 0.062566355 -0.000999891
000380 64 2d 9b bc 3b bc 6f 3d 0c d6 81 bc 0d 31 d2 3c
       -0.018942542 0.05852912 -0.015849136 0.025658155
000390 3b 03 3f 3b 00 bb 18 3d 45 20 0c 3c ad 24 e4 bc
       0.0029146213 0.037287712 0.0085526155 -0.02784952
0003a0 db 5f e1 3a f8 46 14 bd 72 bd a1 3c c2 5d 78 3d
       0.0017194705 -0.036200494 0.019743655 0.06063629
0003b0 8b 06 01 3d 93 bf 07 bd 57 9b 57 bd b3 7d 41 bd
       0.03150038 -0.033141684 -0.052638378 -0.047239017
0003c0 c0 6b 16 3b ab 3c 79 3d ba 68 22 3d 45 d8 de bc
       0.0022952408 0.060848873 0.039650656 -0.027202735
0003d0 81 cb 3c bc 0e de 64 bd 59 24 a3 3c 41 b5 ad bb
       -0.0115231285 -0.05587583 0.019914793 -0.005301148
0003e0 f8 28 97 bc c0 b5 4e bd fb 22 27 3d 34 42 d9 3b
       -0.018452153 -0.0504663 0.040804844 0.0066302065
0003f0 5b 39 41 3b 97 08 e7 bc 3a 33 a0 bc ba 58 48 bd
       0.002948365 -0.028202338 -0.019555677 -0.04891274

layers.0.0.bias f4 [64]
000000 3a ac 12 bd bb f5 be bc 52 98 d2 3c 53 c0 66 bd
       -0.03580878 -0.023310533 0.025707398 -0.05633576
000010 9f 00 5f bd fc 38 81 bd 0e 67 3e 3d a3 01 3b bc
       -0.05444395 -0.06309697 0.046485 -0.011413964
000020 a4 eb e3 3c 5e 54 66 3d c3 ca 47 3c c1 c6 11 bd
       0.027822323 0.056232803 0.012194338 -0.035589937
000030 87 50 52 3c d1 e4 9c 3c 0b 06 27 3d 6c 73 7b bd
       0.012836582 0.019152077 0.040777247 -0.06138937
000040 8e 85 3d bd 6b f5 94 bc 82 a6 e9 3c 69 24 15 bd
       -0.046269946 -0.01818343 0.02852178 -0.036411677
000050 b0 44 23 3d 1f e5 3c bc e9 ea 69 bd 31 32 28 bd
       0.039860427 -0.011529236 -0.057108793 -0.04106349
000060 37 bc 28 bd 37 08 cf bc 37 f6 77 3d 04 90 69 bc
       -0.04119512 -0.025272472 0.060537543 -0.014255527
000070 65 30 82 bd 2d 16 57 3c 0b f2 4d bc 7a 60 63 bd
       -0.06356887 0.013127846 -0.012569915 -0.05551193
000080 97 76 00 bd 34 7f 73 bd d7 f9 32 bd 11 81 b4 bb
       -0.031363096 -0.059447482 -0.043695297 -0.00550855
000090 a8 a8 dd bc d2 2b 54 3d ec 21 b7 3b c0 11 cd bc
       -0.02705796 0.051799603 0.0055887606 -0.025032878
0000a0 d3 d0 c9 3c d3 d2 1b bd 51 a0 52 3d 3f 4d 46 bd
       0.024635708 -0.038042855 0.05142242 -0.04841351
0000b0 a1 0f 0f bb 97 5e 2d 3d 29 e9 81 3d 86 30 00 bd
       -0.0021829384 0.042326536 0.063433 -0.031296276
0000c0 ff 04 19 3b d4 cb f8 bb f7 f1 43 3d b6 ae 71 3d
       0.0023348925 -0.0075926576 0.047838178 0.059004508
0000d0 ab c5 80 3d 23 6a fd 3c f5 22 fc 3c b6 fc 53 bd
       0.06287702 0.030934399 0.030778388 -0.051754676
0000e0 e4 1a 15 bd cc 72 4b bc dc 36 81 bb 87 97 80 bd
       -0.036402598 -0.012417506 -0.0039433073 -0.062789015
0000f0 d2 89 4f bd 97 15 fe bc 0a 99 4d bc fe 59 0f 3d
       -0.050668545 -0.031016154 -0.012548694 0.034997933

layers.0.0.weight_g f4 [64, 1, 1]
000000 f3 3b 19 3f 49 58 0d 3f d2 83 0f 3f 83 ef 17 3f
       0.598571 0.5521284 0.56060517 0.5934984
000010 7c 14 18 3f 7b 65 0f 3f 2a a8 16 3f 49 96 13 3f
       0.59406257 0.5601422 0.5885035 0.5765119
000020 7c 8b 18 3f 0f 07 19 3f bf dd 12 3f 44 90 17 3f
       0.59587836 0.59776396 0.5736961 0.59204507
000030 56 0b 11 3f f7 4e 17 3f 57 2f 10 3f d3 e2 13 3f
       0.5665792 0.59104866 0.56322235 0.5776798
000040 20 27 0c 3f d8 a3 10 3f 54 b2 13 3f fe c7 11 3f
       0.547472 0.56500006 0.5769398 0.5694579
000050 1c a2 19 3f 6c b5 0c 3f ea 0f 12 3f 3b 4e 1f 3f
       0.60012984 0.5496433 0.5705553 0.62228745
000060 96 3f 0f 3f d8 92 1f 3f 23 0e 14 3f 5c 04 10 3f
       0.559564 0.6233344 0.5783407 0.5625665
000070 ca a1 0d 3f 3b de 10 3f 60 9e 16 3f a6 50 0d 3f
       0.55324996 0.56589097 0.5883541 0.55201185
000080 c9 b4 19 3f 15 34 15 3f 2c 43 19 3f 3f dd 12 3f
       0.6004148 0.58282596 0.5986812 0.57368845
000090 9b 5a 12 3f 0a 60 14 3f b2 ab 15 3f 66 e8 0b 3f
       0.571695 0.57959044 0.5846511 0.54651487
0000a0 38 21 13 3f 3a b6 13 3f 8d 36 14 3f bd 1a 16 3f
       0.5747256 0.5769993 0.5789574 0.5863455
0000b0 98 ab 10 3f 20 4c 0e 3f fb c1 0f 3f e1 f2 0c 3f
       0.5651183 0.5558491 0.56155366 0.55058104
0000c0 41 e3 15 3f fd 05 0d 3f f0 ae 15 3f 2d b0 16 3f
       0.58549887 0.5508726 0.5847006 0.5886257
0000d0 98 a7 12 3f 2e 3c 12 3f fb 6c 13 3f 43 dd 15 3f
       0.5728698 0.57123077 0.57588166 0.58540744
0000e0 37 24 17 3f 52 0d 18 3f ab 43 14 3f 82 54 18 3f
       0.59039634 0.59395325 0.57915753 0.5950395
0000f0 06 a6 15 3f fa 96 15 3f f6 a6 15 3f 76 1f 19 3f
       0.58456457 0.58433497 0.5845789 0.5981363

layers.0.0.weight_v f4 [64, 17, 14]
000000 77 92 15 3c f7 b9 82 bd 98 16 65 3d d3 c9 f2 3c
       0.009129158 -0.06383126 0.05592975 0.029637253
000010 d4 77 30 3d d3 e0 0f 3d e3 1b 68 bd 3c 29 3b bd
       0.043083027 0.03512652 -0.05666722 -0.04569362
000020 c6 a3 d9 bc 6f 0a 85 3b b6 fa 39 bd 4f 6c 2f 3d
       -0.026567351 0.0040600817 -0.045405112 0.0428279
000030 9b 1a 97 bc f5 53 11 3d 4d d8 17 bb 0a 20 16 bd
       -0.018445304 0.03548046 -0.0023169697 -0.03665165
000040 df e2 74 bd 99 ba 81 3d 94 95 98 3c 32 04 de bb
       -0.059786674 0.06334419 0.018626012 -0.0067754025
000050 87 5d 9f bb e9 b4 6f 3d dc 3e 7e 3c 4a 02 93 bc
       -0.0048634443 0.05852214 0.0155179165 -0.017945427
000060 85 31 73 3d e9 49 77 bc 97 9d 7a 3a bd 3b 0e 3d
       0.059373397 -0.015093305 0.0009560226 0.03472494
000070 54 2a b3 bc 58 a4 6a bd 35 af 0f 3d 79 0a 55 bc
       -0.02187077 -0.057285637 0.0350792 -0.013002985
000080 84 bf ff 3c 4c 9b 41 bc d7 24 25 3d 70 7a 17 3d
       0.031219251 -0.011816811 0.040318336 0.036982
000090 05 c9 81 3c 92 52 82 bd cc 22 8d bc 1c 65 30 3d
       0.015842924 -0.06363405 -0.017228507 0.043065175
0000a0 a1 8a 3a 3d b3 f3 86 3c 00 11 25 bd bd ea de bc
       0.045542363 0.016473627 -0.040299416 -0.027211541
0000b0 5e 62 2b 3d 0e 87 b0 3c f9 22 22 3c 4b f1 de 3a
       0.041841857 0.021548774 0.009896033 0.0017009167
0000c0 d1 29 f2 bc 51 79 16 3d bc 45 6a 3d 34 8f ef 3c
       -0.029560955 0.03673679 0.05719541 0.02924309
0000d0 f5 dd 67 ba 93 d9 4d bd a4 d8 22 bd 59 b2 3e 3d
       -0.0008845025 -0.050256323 -0.039757386 0.046556804
0000e0 ea 18 4c 3c bc 9b 63 3d 10 27 d4 bb 22 9a 84 3c
       0.012457112 0.05556844 -0.006474383 0.016186778
0000f0 e9 26 19 bd 91 66 57 3c 08 95 ab bc 97 09 40 3d
       -0.037390623 0.013147012 -0.020945087 0.046884146
000100 8c cf 48 bd a5 bc 74 3d 53 1c 75 3d 21 71 cf bc
       -0.049026057 0.059750218 0.059841465 -0.025322499
000110 c2 29 ff bc 70 89 2f bd 99 4a 5c bd c2 4b 39 3d
       -0.031147841 -0.04285568 -0.05378208 0.045238264
000120 ec 07 18 bc f0 36 89 bc d4 25 1d 3d 8c 44 91 3c
       -0.0092792325 -0.016749829 0.038366154 0.017732881
000130 86 18 04 3d ef 69 06 3d 79 f1 68 3c 37 f4 1a 3c
       0.03224995 0.03281587 0.014217728 0.009457639
000140 3d 28 80 bd 10 7d 4f 3c b2 7f 82 3d 0d 38 0d 3d
       -0.06257675 0.012664095 0.06372012 0.034477282
000150 04 b9 d7 39 31 ad 1e 3d ca ca 16 bd 20 1d 1b bd
       0.00041145843 0.038739387 -0.03681449 -0.037869573
000160 a8 b8 46 3d 12 e5 80 bd ec 16 cd 3c 45 16 46 bd
       0.048515946 -0.06293692 0.025035344 -0.04836108
000170 5f 0e d9 3c d2 f2 04 bd e9 b9 13 bd 37 8e f2 bc
       0.02649611 -0.032458134 -0.03606597 -0.029608829
000180 5a b9 0e bd 81 9d 01 3d 76 7a 2e 3c 4f 75 84 3d
       -0.034844734 0.031644348 0.010649314 0.06467687
000190 24 ce 55 3d a2 86 71 bd bf 52 7d bc 4d 81 1f 3d
       0.052198544 -0.058966286 -0.015461623 0.03894167
0001a0 6b fd 5b 3d 04 23 51 3c 1c a3 24 bc ae 1d 6c 3d
       0.053708475 0.012764696 -0.010048654 0.057645492
0001b0 56 cd 51 3d 67 a3 c5 3c 9b b9 3e bd 9c 29 0c bd
       0.051221214 0.024125768 -0.046563726 -0.03421937
0001c0 f3 ed 2d bd df dc ff bb e4 f0 40 3c 1e 78 f8 3c
       -0.042463254 -0.0078083123 0.011776183 0.030330714
0001d0 ec f7 0b 3d 25 ed 81 bd 7b f9 7a bd f6 a9 15 bc
       0.034171984 -0.0634406 -0.06127308 -0.00913476
0001e0 d3 9e 72 3d d7 d5 43 bd 0d 03 82 3d 31 0d 2a bd
       0.059233498 -0.047811355 0.06348238 -0.041516487
0001f0 5f f7 f9 bb a8 e1 82 bd 63 7d 1e 3d c9 e7 1e bd
       -0.007628366 -0.06390697 0.038693797 -0.038795266
000200 55 ce 23 3d 12 52 85 bc e2 f4 2c bd b1 51 e7 bc
       0.039991695 -0.016274486 -0.042225726 -0.028237196
000210 aa 51 07 bd 19 60 81 bd cd 27 34 3d cb 3b 75 3d
       -0.033036865 -0.06317157 0.04398327 0.059871476
000220 a6 e6 26 3d b8 6c 48 bd 02 15 30 3d fc 13 00 bc
       0.040747307 -0.048931807 0.042988785 -0.007817265
000230 46 e0 8a bc fa e2 92 bc 1d 48 c3 bc 9e 1d 9b bb
       -0.016952645 -0.017930496 -0.023838097 -0.0047337553
000240 5a 9a 63 bd 33 fa 68 bc 3e 96 e0 bc 76 e6 66 bd
       -0.055567123 -0.014219808 -0.027415391 -0.05637213
000250 58 22 ff ba 65 20 8a 3c cd 3c 1b 3d 6c 38 42 bd
       -0.0019465191 0.01686115 0.03789978 -0.04741709
000260 61 d8 54 3d cb 18 40 bd 2a f5 82 3a 8c 60 43 3d
       0.051964168 -0.046898644 0.0009991277 0.047699496
000270 51 db f4 bc 44 cd 70 bd 14 fd 82 3d 05 93 85 3d
       -0.029889734 -0.058789507 0.06395927 0.065221824
000280 c4 24 09 3a 09 b4 a6 3c 6c 1f 3a bd 05 58 a5 3c
       0.0005231614 0.02034952 -0.045440122 0.020183573
000290 ea 26 60 3d e6 b2 5d 3d 49 3a 4c bd 06 c9 d7 bc
       0.05472461 0.05412569 -0.049860273 -0.026340973
0002a0 9f ba 83 bd 80 71 e7 3c 10 27 b8 3c bc e5 23 bd
       -0.064320795 0.028252363 0.022479564 -0.040014014
0002b0 82 a7 d8 3c b9 ce de bc 83 11 44 bd a4 04 41 3d
       0.026447061 -0.027198182 -0.047868263 0.047123566
0002c0 48 57 35 bd 6c b3 49 bd 9e f0 e0 bc 93 32 f6 3c
       -0.04427269 -0.049243376 -0.027458485 0.030053413
0002d0 74 fc 94 bc db cb 62 bd 7b c7 f6 3c e9 a5 52 3c
       -0.018186785 -0.055370193 0.030124417 0.012856939
0002e0 9e 46 e4 3b 82 53 e3 37 02 58 a7 3c a8 9a ed 3c
       0.006966426 2.7099395e-05 0.020427708 0.02900441
0002f0 3a 4c 20 bc c1 80 85 3c 5a b5 92 3b 82 aa 51 3d
       -0.009783799 0.016296746 0.004477185 0.051188
000300 f6 2f 6e 3d cf 82 af bb d8 9f 5a bd b5 03 83 bd
       0.058151208 -0.00535617 -0.053375095 -0.063971914
000310 ca ea 23 3d 1d 87 ac bc d8 0f 77 3d 45 13 82 bd
       0.040018834 -0.02106052 0.060317844 -0.063513316
000320 0a b0 a9 3c 2f 08 65 bd b5 2f 9e 3b 44 22 c7 3a
       0.020713825 -0.055916008 0.0048274645 0.0015192707
000330 d9 0e 33 bd 1d bc 02 bd 3e d4 2d 3d 68 9b 26 3c
       -0.04371533 -0.03191768 0.042438738 0.010168888
000340 f4 91 4e bd c0 79 1a 3d bb 17 82 3d 7c 6b b2 ba
       -0.05043216 0.037713766 0.063521825 -0.0013612355
000350 98 a7 0d 3d e8 51 85 3d f9 f8 32 bd 0f 65 20 bc
       0.034583658 0.06509763 -0.04369447 -0.009789719
000360 a7 cb 26 3d bf 54 82 3d 7a 96 c4 3c f0 fd 61 bd
       0.04072156 0.0636382 0.023997534 -0.055173814
000370 34 87 29 3c 3f 9b fe 3c ca 22 80 3d c6 0e 83 ba
       0.010347176 0.031079886 0.062566355 -0.000999891
000380 64 2d 9b bc 3b bc 6f 3d 0c d6 81 bc 0d 31 d2 3c
       -0.018942542 0.05852912 -0.015849136 0.025658155
000390 3b 03 3f 3b 00 bb 18 3d 45 20 0c 3c ad 24 e4 bc
       0.0029146213 0.037287712 0.0085526155 -0.02784952
0003a0 db 5f e1 3a f8 46 14 bd 72 bd a1 3c c2 5d 78 3d
       0.0017194705 -0.036200494 0.019743655 0.06063629
0003b0 8b 06 01 3d 93 bf 07 bd 57 9b 57 bd b3 7d 41 bd
       0.03150038 -0.033141684 -0.052638378 -0.047239017
0003c0 c0 6b 16 3b ab 3c 79 3d ba 68 22 3d 45 d8 de bc
       0.0022952408 0.060848873 0.039650656 -0.027202735
0003d0 81 cb 3c bc 0e de 64 bd 59 24 a3 3c 41 b5 ad bb
       -0.0115231285 -0.05587583 0.019914793 -0.005301148
0003e0 f8 28 97 bc c0 b5 4e bd fb 22 27 3d 34 42 d9 3b
       -0.018452153 -0.0504663 0.040804844 0.0066302065
0003f0 5b 39 41 3b 97 08 e7 bc 3a 33 a0 bc ba 58 48 bd
       0.002948365 -0.028202338 -0.019555677 -0.04891274

layers.1.conv1.bias f4 [64]
000000 c0 da 83 3d 51 f4 d2 bc dd b5 f9 3c 2a 46 19 3d
       0.064382076 -0.025751265 0.030482227 0.03742043
000010 00 76 21 3c 91 ad 09 bd 97 d0 fe bb b7 67 42 bd
       0.009854794 -0.03361279 -0.0077763307 -0.04746219
000020 dc 89 8f bd c4 ef 8c 3d 0b 07 82 3d f4 e7 57 bd
       -0.070087165 0.06881669 0.063489996 -0.052711442
000030 96 c7 92 3a e7 7e 87 bd 7e 28 93 3b 1c 3c c2 bb
       0.0011198397 -0.066160016 0.004490911 -0.0059275758
000040 50 87 fe bc 6e 2e f5 3c 34 de 7c 3d 97 8c e5 3c
       -0.031070381 0.029929366 0.061735347 0.02802114
000050 4c ae 41 3d 1d 70 9e 3c 70 04 60 bd 26 90 3c bd
       0.047285363 0.01934057 -0.054691732 -0.04603591
000060 ee 9b 8c 3d 07 6c c1 3c 1c 22 89 3d 02 76 bf 3c
       0.06865679 0.023611082 0.06695959 0.0233717
000070 fa 2f ce 3c 93 5f 86 bb fb 46 82 bd 9b 1c 3d 3d
       0.025169361 -0.004100749 -0.06361195 0.04616986
000080 47 a4 db ba 94 40 c8 bc 7c 21 6d bd 0d c0 20 3d
       -0.0016757332 -0.024444856 -0.05789326 0.039245654
000090 07 84 70 3d f8 32 75 bd 49 f4 40 bd 7d 53 c1 3c
       0.05871966 -0.05986306 -0.04710797 0.02359938
0000a0 1c 45 fe bc e0 8d 8f ba b2 41 8b 3d 0e 2e 29 bd
       -0.031038813 -0.0010952316 0.0679964 -0.041303687
0000b0 80 2c 84 3d 7e c3 3f 3c 98 16 cb 3b b3 2f 1f bd
       0.064538 0.011704324 0.0061977617 -0.03886385
0000c0 87 cf 7c bb 88 1f 95 3d 0a dd 2a bd 9a 7d 64 bd
       -0.0038575844 0.07281405 -0.041714706 -0.055783845
0000d0 74 69 2c 3d 01 16 9b 3c 4d 0d bc 3c ec 42 22 3d
       0.042092755 0.01893139 0.022955561 0.039614603
0000e0 5d 92 f5 3b 09 bd 1e 3d 4c f2 05 3d f8 37 87 bc
       0.0074942545 0.038754497 0.032701775 -0.01650618
0000f0 52 78 17 3d 79 b6 bd bc 71 a9 60 bd 3a f1 62 bd
       0.03697998 -0.023158299 -0.054849092 -0.055405833

layers.1.conv1.weight_g f4 [64, 1, 1]
000000 25 53 11 3f aa 1c 15 3f c1 65 0a 3f e4 d7 10 3f
       0.56767493 0.5824686 0.54061514 0.5657942
000010 dd 6f 10 3f d8 58 15 3f 8d 1b 17 3f 71 f2 14 3f
       0.5642069 0.5833869 0.59026414 0.58182436
000020 0b 93 17 3f 63 b1 19 3f 96 9f 0e 3f b2 90 10 3f
       0.59208745 0.60036296 0.5571226 0.5647079
000030 cf 1c 12 3f f9 97 13 3f e9 86 18 3f 3f 10 11 3f
       0.5707521 0.57653767 0.59580857 0.56665415
000040 1a cb 18 3f c8 05 13 3f 4c 6c 0f 3f ab 25 16 3f
       0.5968491 0.57430696 0.5602462 0.58651227
000050 d0 05 15 3f 68 be 0f 3f 48 c6 19 3f 7c ab 10 3f
       0.58211994 0.5614991 0.6006818 0.56511664
000060 52 cf 18 3f a7 b1 18 3f 6a bb 0c 3f b4 6c 1a 3f
       0.59691346 0.59646076 0.5497347 0.6032212
000070 82 19 0e 3f d1 3d 10 3f a2 6a 0c 3f 62 55 19 3f
       0.5550767 0.56344324 0.5485021 0.5989591
000080 9a 87 15 3f 40 5c 15 3f b6 51 0c 3f 3c 21 14 3f
       0.58410037 0.5834389 0.5481218 0.5786321
000090 27 16 10 3f de c1 1a 3f c5 24 0f 3f 9f 96 0f 3f
       0.562838 0.6045207 0.5591548 0.56089205
0000a0 35 a8 16 3f a5 33 15 3f 3a c7 0f 3f 84 ac 13 3f
       0.58850414 0.5828193 0.5616337 0.5768511
0000b0 55 cb 14 3f b9 90 16 3f d0 31 19 3f d7 68 0f 3f
       0.5812276 0.5881458 0.5984163 0.5601935
0000c0 2a 36 10 3f 9c 74 15 3f c1 46 13 3f e4 30 11 3f
       0.5633265 0.58381057 0.57529837 0.56715226
0000d0 bc 5d 13 3f d5 b0 15 3f 07 75 1a 3f 3f b7 0e 3f
       0.575649 0.5847295 0.6033482 0.5574836
0000e0 e7 58 18 3f 91 fe 17 3f d8 c2 12 3f a4 e8 0e 3f
       0.59510654 0.5937281 0.5732856 0.5582373
0000f0 0a 0c 0d 3f c1 d4 17 3f b6 1b 0f 3f fc c5 10 3f
       0.55096495 0.5930901 0.5590166 0.565521

layers.1.conv1.weight_v f4 [64, 64, 3]
000000 f3 19 74 bd fc 6f 0d 3d 2f 3e e5 bc 86 36 51 bc
       -0.05959506 0.034530625 -0.027983753 -0.012769347
000010 ec 0c 16 bc bf 61 a9 3c da 90 af bc 08 22 13 bd
       -0.009158354 0.020676492 -0.021431375 -0.035921127
000020 95 e6 3f 3d b8 3d 0e bc 09 86 b1 3c 17 e6 36 3d
       0.04685076 -0.008681707 0.021670358 0.044653025
000030 0a ef 0e 3d 3b 51 5b bc 14 94 50 3d 92 dd 86 3d
       0.034895934 -0.013386066 0.05092247 0.0658523
000040 3e 1b 78 bd 41 53 61 3c 09 8a 38 bd 71 b8 9f b9
       -0.060572855 0.013752759 -0.045053516 -0.00030464263
000050 17 f0 05 3d b4 7f 40 bd 38 fe 88 bd 48 b2 87 bc
       0.03269967 -0.046996787 -0.066891134 -0.016564503
000060 71 74 83 3d bd e6 dc 3c 18 80 3c bd 6b 29 f6 3c
       0.06418694 0.026965493 -0.046020597 0.030049047
000070 a3 2e 44 3d c3 d0 83 bc c0 f4 42 3d 0b 0c 91 bd
       0.04789604 -0.016090756 0.047596693 -0.07082375
000080 fa 57 ab 3c 22 c8 5e bd c2 f7 bf bc cb 24 b1 3c
       0.020915974 -0.05439008 -0.02343357 0.02162399
000090 8a 25 a9 ba cf d0 90 3d 94 af 55 3c 16 2f 16 3d
       -0.0012904864 0.07071077 0.013042349 0.036666
0000a0 f0 13 65 3d fe 2b 77 3d d5 81 57 bd 4e 95 74 bd
       0.055927217 0.06034469 -0.05261405 -0.0597127
0000b0 be 5b 20 bd e6 45 72 3c ea c5 8b bd 99 e7 be bb
       -0.039149992 0.014787173 -0.068248585 -0.0058259484
0000c0 38 05 a3 bb fb 9d 31 bd 0e d7 14 bc d5 84 42 3d
       -0.0049749874 -0.043363553 -0.009084476 0.04748996
0000d0 01 c6 41 bc c8 59 44 3d 6e 3b 5e 3d 82 32 b5 3c
       -0.011826993 0.047937185 0.054255895 0.02211881
0000e0 1b 28 92 3d db 0e 13 3d 7b 2e 72 bd 5b 46 41 bd
       0.07136556 0.03590284 -0.05912636 -0.047186237
0000f0 d1 6a 93 3d 53 6f 8e 3c 44 72 3a 3d 2b 12 71 3d
       0.07198108 0.017387068 0.04551913 0.058855217
000100 68 d4 b4 bc 22 a3 2b bc 0d 47 7c bd d0 79 6c 3c
       -0.02207394 -0.010475906 -0.061591197 0.014433339
000110 cf e8 fa 3c e7 4d 0b bd 82 9b a1 b9 13 77 05 bd
       0.03062859 -0.03400984 -0.00030824175 -0.03258426
000120 d4 b8 b6 3c 8f f4 9e 3c b0 db e7 3b 2f a0 3a bc
       0.02230493 0.019403724 0.0070757493 -0.01139073
000130 54 8b 8b bd 80 1c 6e 3d 0d d5 66 3b 79 e1 f0 bb
       -0.06813684 0.05813265 0.0035222203 -0.007351097
000140 18 64 88 3d 61 33 06 3d 96 15 21 3c e4 c3 0b 3d
       0.06659716 0.032763842 0.009831807 0.034122363
000150 40 d3 22 bd 78 b9 ac 3b 81 1b 24 3d ca a0 9d 3c
       -0.039752245 0.005271133 0.040065292 0.01924171
000160 2c 01 0a 3d b9 2d 7c bc 51 56 10 bd 3c 32 69 3d
       0.033692524 -0.0153917605 -0.035238568 0.056932673
000170 da 3f 91 bd 3b 3c 60 bc 1c 81 c2 bc 22 87 8f 3c
       -0.07092257 -0.013686235 -0.023743205 0.017520491
000180 fc 1c b9 3b 65 6d 20 bd 4b 54 01 ba 88 26 74 bd
       0.005649207 -0.039166827 -0.000493352 -0.05960706
000190 e1 d0 77 3d 0b 46 2c 3d 33 73 de 3c 78 ac 2c 3d
       0.060501937 0.042058986 0.02715454 0.042156667
0001a0 c1 7a 6f bd d2 c7 6d 3b ea a1 78 3d 31 b8 e6 bc
       -0.058466677 0.0036282432 0.06070129 -0.028164001
0001b0 9f 1c 4a 3d 1a 3a 28 bd 08 f3 e8 bc 9a 09 3c bb
       0.0493437 -0.041071035 -0.028436199 -0.0028692246
0001c0 cf e8 05 3c dd 8b 8c bd 32 fd 2b bc 33 eb 59 bd
       0.008173182 -0.06862614 -0.010497378 -0.05320282
0001d0 b3 db e9 3c 2d e0 05 3c 4c 6d 6d 3d 59 20 32 3d
       0.028547144 0.008171123 0.05796556 0.04348788
0001e0 0b cf 4f 3d db 60 b9 bc f4 a9 93 ba 72 0f 2a 3c
       0.05073456 -0.022629192 -0.001126586 0.010379659
0001f0 b7 8d a4 bc 7d bf 67 bc fa 90 2e 3c 08 d6 8d bd
       -0.020087106 -0.014144775 0.010654682 -0.06925589
000200 37 c6 42 3d 28 75 22 bd 33 21 1d bd 53 85 b8 3c
       0.047552314 -0.03966251 -0.03836174 0.022524511
000210 76 31 74 bc aa a5 03 3d d2 a2 d6 3c 56 e1 6e 3a
       -0.0149043705 0.03214041 0.026200686 0.0009112557
000220 a0 93 7f bd cf 3f e6 3c 59 b6 5b 3d 79 bb 89 3d
       -0.062396646 0.028106598 0.053640697 0.06725211
000230 43 4f df bb 17 f0 3c 3d ed 15 70 3d 35 b2 b3 3c
       -0.0068148687 0.046127405 0.05861466 0.021935562
000240 61 76 83 3d fa 19 72 bc a0 0c 21 3c 9a ab 87 bd
       0.06419063 -0.014776701 0.00982967 -0.06624527
000250 77 24 3a bd 53 c6 2b 3d 39 01 69 bd f3 b1 93 bd
       -0.04544493 0.041937184 -0.05688593 -0.072116755
000260 e1 7a ad 3b 34 02 ed 3b 97 7d 34 3d ed 5d 73 3b
       0.0052941893 0.0072329286 0.044065084 0.0037134842
000270 c4 21 65 bd b9 5b 6c bd e0 ce 59 bd 3e 04 77 bc
       -0.055940405 -0.05770466 -0.053175807 -0.015076695
000280 4e fd 79 3a 23 ed 0a 3c 88 6d 6a 3d 5d dc 3a bd
       0.00095363415 0.008479389 0.057233363 -0.04562031
000290 13 b3 56 3d 08 d9 63 3d ff e2 65 bd 93 ec 2c bd
       0.052416872 0.0556269 -0.056124683 -0.042217802
0002a0 e9 9b 25 bd d5 89 76 bd 8f 78 d5 3a a2 5f 3b 3d
       -0.04043189 -0.06019004 0.001628654 0.0457455
0002b0 73 76 40 bd b5 04 00 3d 0d f2 54 3d 5a a3 12 bd
       -0.046987962 0.03125449 0.05198865 -0.035800315
0002c0 b9 fa 45 3d 5a 33 a5 bc 9e d2 1d 3b a1 57 7d 3d
       0.04833481 -0.020166088 0.0024081836 0.061851148
0002d0 ac da c2 3c e2 ab 40 3d bb 3d 80 bd 49 9c 81 bc
       0.023785912 0.04703892 -0.06261774 -0.015821593
0002e0 8d d1 f5 3c dc c7 24 bd f8 cd 8b 3d 51 27 4c bd
       0.030007148 -0.040229663 0.06826395 -0.049842183
0002f0 7f c3 26 3d 2e a1 cf 3c df 7e 4e bd 8e 68 63 3d
       0.040713783 0.025345411 -0.050413962 0.055519633
000300 14 d0 74 3d ff 42 13 3d 21 c5 d4 bc 1e 11 b3 bb
       0.05976875 0.035952564 -0.025972905 -0.005464687
000310 05 78 03 3d 43 27 3f bd 5c f2 22 bd 79 d4 f6 3c
       0.03209688 -0.046668302 -0.039781913 0.030130612
000320 bd f9 62 3d 60 cb 4b bb 63 be 01 3d 29 f2 e9 bc
       0.05541395 -0.0031096563 0.031675708 -0.028557854
000330 28 98 1c 3d 03 07 11 bd 2b 22 e0 3c ad 42 83 3d
       0.038231045 -0.035407078 0.027360043 0.06409202
000340 ff 9c 25 bc 0b 50 59 bd 2a ea d8 3a af 0f a8 bc
       -0.010108232 -0.05305485 0.0016549279 -0.020515291
000350 68 54 67 bd 7a d4 ac bc 80 c8 b3 3c 23 3b 9a 3b
       -0.05647698 -0.02109741 0.021946192 0.0047067567
000360 ea 65 45 bd 67 5f de bc a2 df 79 3d 03 b8 61 3d
       -0.048192896 -0.0271451 0.06100429 0.055107128
000370 8a 1b eb 3a c2 60 ac 3c dd b4 7e bd 7b 09 5f bd
       0.0017937284 0.021042231 -0.062184203 -0.0544524
000380 12 c4 1b bd 46 21 92 3d 62 b2 5c 3d f9 6b 55 3d
       -0.038028784 0.07135253 0.053881057 0.052104924
000390 90 04 19 3d 96 a9 62 bd f3 91 63 bd 25 94 38 bd
       0.037357867 -0.05533751 -0.05555911 -0.045063157
0003a0 dc 70 45 3d b3 d2 a1 bc ed 6f 2b bd 3c df 01 bd
       0.048203334 -0.01975379 -0.041854788 -0.031707034
0003b0 11 5c ad bb 75 4d d0 bc e6 74 0a 3d cf 27 23 3d
       -0.005290516 -0.02542756 0.03380289 0.039832886
0003c0 ac a6 88 3c da 82 68 bd 60 3f 94 39 4d 1d 95 3b
       0.016681038 -0.056765415 0.00028275978 0.004550612
0003d0 0b 28 e9 bc dd ed 46 3d 04 dc 4e bd 44 b8 7b 3d
       -0.028461477 0.048566688 -0.050502792 0.061455026
0003e0 ec 35 0a 3d 68 0f 34 3b 34 10 10 3d ea 71 85 bd
       0.03374283 0.0027475003 0.035171703 -0.06515868
0003f0 aa ae d6 bb f5 a6 0a 3a 98 ff 3e bc 81 13 c0 3b
       -0.0065515833 0.0005289161 -0.011657618 0.0058617

layers.1.conv2.bias f4 [64]
000000 75 bc 18 bd 90 8c 13 3d 87 81 77 3c 6f 81 1c bd
       -0.0372891 0.036022723 0.015106565 -0.038209375
000010 b2 ac 1c 3d f0 93 71 3d 8e 7f 58 3d 3b 8c 85 bd
       0.038250633 0.058978975 0.05285602 -0.065208875
000020 a3 f7 73 bd 01 bd 29 bc 2a bc df bb ab 69 88 3d
       -0.059562337 -0.010360003 -0.006827851 0.066607796
000030 78 dd 31 3d 61 e2 73 3d 41 20 92 bc 7e cb 66 bd
       0.0434241 0.059542064 -0.017837645 -0.05634641
000040 4c 0d af 3c c6 55 49 bd 4a 6e 44 3d 6a 28 87 3d
       0.021368645 -0.049154066 0.047956742 0.06599505
000050 60 9e 43 3c c3 73 67 3d c6 62 2f bd cb 14 88 3d
       0.011939615 0.056506883 -0.042818807 0.06644591
000060 d8 f1 77 bd c6 5e ee 3c c1 f2 83 bd d1 02 0f bc
       -0.060533375 0.029097926 -0.06442786 -0.008728699
000070 7c aa 75 3d c0 27 02 3d e9 76 5e bc 8c 50 cc 3c
       0.05997704 0.03177619 -0.013578155 0.024940751
000080 62 e8 7d bd 1f 6d 53 3b 4a 49 f0 ba 16 97 88 bd
       -0.061989196 0.0032261086 -0.0018332389 -0.06669442
000090 1c 34 1d bc 79 b3 57 3b 8e de d5 3c c5 ac 2d 3d
       -0.009594943 0.003291337 0.026107099 0.042401094
0000a0 dc e3 c1 bc 28 ae 11 3c d8 03 ce b8 5d df 80 3c
       -0.023668222 0.00889162 -9.8235614e-05 0.015731508
0000b0 87 11 c4 3b 8c ff bb 3c 74 df 28 3d fd e4 a6 3c
       0.0059835347 0.022949003 0.041228727 0.020372862
0000c0 1b 12 80 bd a6 33 bb bc f3 e9 0a bd d9 3f 90 3c
       -0.06253453 -0.022851776 -0.033914518 0.01760857
0000d0 bd 60 9c bc 4d 0d b7 3b 46 dc d5 bc 88 c2 8c bd
       -0.019089097 0.0055863024 -0.026106011 -0.068730414
0000e0 19 ef 38 3d 90 76 f7 bc 78 f8 32 bd 40 36 ad bc
       0.045149896 -0.030207902 -0.04369399 -0.021144032
0000f0 99 6b bb bc 8c 27 43 3c 58 b0 6d bd 65 52 73 3d
       -0.022878455 0.011911284 -0.058029503 0.05940475

layers.1.conv2.weight_g f4 [64, 1, 1]
000000 c4 d4 12 3f 3d 1d 0f 3f 64 d6 10 3f f2 0c 18 3f
       0.57355905 0.5590399 0.56577134 0.5939475
000010 34 db 08 3f 1d 42 10 3f 16 a5 0f 3f bd 8a 14 3f
       0.5345948 0.5635088 0.56111276 0.580242
000020 fa 08 11 3f d3 a3 0e 3f 61 e3 0f 3f 07 3c 17 3f
       0.5665432 0.55718726 0.5620633 0.5907597
000030 75 59 1d 3f 01 d6 16 3f 7e 65 11 3f fe 29 0c 3f
       0.61464626 0.58920294 0.5679549 0.54751575
000040 bd 35 19 3f c9 16 18 3f 2b d7 0f 3f 07 64 17 3f
       0.59847623 0.5940977 0.56187695 0.59137005
000050 90 f2 19 3f 6d 83 10 3f c6 c0 18 3f 4b e2 17 3f
       0.60135746 0.5645054 0.5966915 0.5932967
000060 a7 82 0f 3f 7f af 14 3f 9d 98 16 3f c6 4d 0c 3f
       0.56058735 0.58080286 0.5882662 0.5480617
000070 d0 b0 17 3f fc 3f 14 3f 0c 81 14 3f c4 99 17 3f
       0.5925417 0.5791013 0.5800941 0.59219
000080 46 67 12 3f fe ad 15 3f 87 cd 14 3f 45 84 0d 3f
       0.5718883 0.58468616 0.5812611 0.5527995
000090 20 0b 15 3f 74 c7 1e 3f 70 f9 09 3f 87 6d 12 3f
       0.582201 0.6202309 0.53896236 0.57198375
0000a0 b7 f3 11 3f c6 3b 09 3f 4a a6 14 3f 02 53 0f 3f
       0.57012504 0.5360683 0.58066237 0.55986035
0000b0 32 82 16 3f 69 6b 0f 3f 56 da 13 3f 60 bc 12 3f
       0.5879241 0.5602327 0.5775503 0.5731869
0000c0 f0 47 15 3f 7f 65 16 3f 77 f8 0e 3f d2 b8 15 3f
       0.5831289 0.5874862 0.5584788 0.5848514
0000d0 2e ad 0a 3f bb d7 10 3f e4 8e 0f 3f 8c 80 0c 3f
       0.541705 0.5657918 0.5607741 0.54883647
0000e0 2b 77 12 3f a5 e6 10 3f c4 eb 0f 3f 0b 34 16 3f
       0.57213086 0.56601936 0.56219125 0.5867316
0000f0 a4 e6 13 3f 12 8c 09 3f 6b c5 16 3f e4 8a 0f 3f
       0.57773805 0.53729355 0.58894986 0.56071305

layers.1.conv2.weight_v f4 [64, 64, 3]
000000 bd e1 62 bb 60 b7 50 3d 9b aa 6f 3c e2 27 86 3d
       -0.0034619414 0.05095613 0.014628078 0.06550576
000010 11 cd 44 bd 29 3c f3 ba 44 ac 10 3d c4 72 21 bd
       -0.04804713 -0.0018557358 0.035320535 -0.03941609
000020 4f bb d6 bc ac 4a 16 3d 46 fd 6a bd 79 f3 21 3d
       -0.026212363 0.036692306 -0.057370447 0.039538834
000030 11 64 82 bd 64 6a 5e 3b f0 08 75 3d 58 26 88 bd
       -0.063667424 0.0033937925 0.059822977 -0.066479385
000040 0e be 00 bc ac 1b 70 3d b8 42 82 3d 37 2e 44 bd
       -0.007857813 0.05862014 0.06360382 -0.047895636
000050 00 ef c2 bc a4 4f 20 3c f7 77 fe 3c c5 1b 9c bc
       -0.023795605 0.009784613 0.031063063 -0.01905621
000060 3c 5c 80 3d ee 15 82 3c ef dd 76 bc e7 79 44 3d
       0.06267592 0.015879598 -0.0150675615 0.047967818
000070 e8 7c 89 bc 2e 50 f5 3c 63 24 16 3d bd df f3 bc
       -0.016783193 0.02994546 0.036655795 -0.029769773
000080 3a 4f 64 3d e7 1e a2 bc 71 c1 55 bd f7 06 cf 3b
       0.05573962 -0.019790126 -0.052186433 0.006317969
000090 d1 cd 65 bd 5c 9f 3f bd 4c 58 00 3d ff 37 51 bd
       -0.056104485 -0.046782836 0.031334206 -0.051078793
0000a0 0f 42 73 3d ee c0 84 3d c2 e3 c2 bc 9f 2b 70 bc
       0.05938917 0.06482111 -0.023790244 -0.014658838
0000b0 b4 1f 92 3d 96 14 a1 3c 06 e7 6f 3d 16 0a 34 bc
       0.07134953 0.019663136 0.05856993 -0.010988733
0000c0 89 db 20 bc 99 29 35 bb 82 24 0f bb 3d 44 51 bd
       -0.009817966 -0.0027643202 -0.0021841829 -0.051090468
0000d0 61 b0 68 3d 09 ea 8d 3d 3e 64 fb 3c a7 c3 31 3d
       0.056808833 0.06929404 0.030687448 0.04339948
0000e0 d2 77 8d 3d 90 68 4c bd ec 25 8d bb fa 4b 50 bd
       0.069076195 -0.049904406 -0.004307499 -0.050853707
0000f0 3d ab 70 3d 29 5e fd bc 48 2f 68 bd 86 d6 ff bc
       0.058757056 -0.030928688 -0.056685716 -0.031230222
000100 45 fe 9c bc 2f c4 8c bc b2 95 4d 3d 59 64 dd bc
       -0.019164214 -0.017183391 0.05019159 -0.027025389
000110 7d 10 4d bd 2c 42 47 3d 56 fb 6d 3c 36 bc 79 3d
       -0.050064553 0.04864709 0.014525255 0.060970508
000120 99 ab c9 bc d6 8a 1a 3d c1 6a dd 3c ea a0 73 bc
       -0.024617957 0.03773006 0.027028443 -0.014869908
000130 06 db 03 bd 32 39 73 bd 62 89 6d bd 01 50 be bc
       -0.0321913 -0.059380718 -0.057992347 -0.023231508
000140 e5 d9 97 bc 81 48 b6 3c 9a f1 70 3d 30 86 72 3d
       -0.018536517 0.02225137 0.05882416 0.059210002
000150 3e 39 df 3b c1 c7 38 3d fc a0 60 3d cb 92 59 bd
       0.0068122437 0.045112375 0.054841027 -0.05311851
000160 78 8d 42 3d 5b 94 5c bd 63 07 8d bc 7e 94 cb 3c
       0.047498196 -0.05385242 -0.017215436 0.02485108
000170 da 11 1c bd e4 e0 22 3d 76 d2 77 bd 55 cb 14 3d
       -0.038102962 0.039765254 -0.060503446 0.036326725
000180 99 8f 58 3c 1d a5 8d 3d 78 d4 0a 3c ca 99 62 3d
       0.01321783 0.069162585 0.008473508 0.055322446
000190 ab 49 69 3d 31 6f 44 bc 5d de cf 3a 17 21 6b bd
       0.05695502 -0.011989401 0.0015859116 -0.057404604
0001a0 66 12 8f 3d f4 6a 57 3c cf 49 78 bd 6a 12 3c bd
       0.06985931 0.013148058 -0.060617264 -0.045916
0001b0 94 dd 9a bc fc ac 1c 3c 82 6c f9 bc 09 d6 54 bc
       -0.018904485 0.009562727 -0.030447248 -0.012990483
0001c0 ef 11 74 3d 7b 55 dd 3b 3d 16 93 3c b9 21 f2 bc
       0.059587415 0.006754575 0.01795494 -0.029557096
0001d0 14 fa 66 bc e3 90 e3 3c f9 fe 9a bc 69 db 42 3d
       -0.014097709 0.027779048 -0.018920409 0.047572527
0001e0 36 e5 8f 3d 20 df 6a bc aa 3d 02 bd 53 b8 dd bc
       0.070261404 -0.014335424 -0.03179709 -0.027065432
0001f0 0f ba de 3b 87 ed 8f bc 95 5b 39 bc df d5 22 bc
       0.0067970823 -0.017569317 -0.011313339 -0.009938686
000200 9f c1 c9 bc ff f3 da ba 88 96 03 bd 0f cf ee 3c
       -0.024628459 -0.0016704797 -0.03212598 0.029151468
000210 9f 4f eb ba bf d2 dd 3c 6c 8d 58 3c 83 e8 26 bd
       -0.0017952806 0.02707803 0.013217311 -0.040749084
000220 73 a9 4a bd 38 5c ab b8 95 81 23 3d 59 4c 2f 3d
       -0.049478006 -8.1710925e-05 0.0399185 0.04279742
000230 72 5d 11 bb 71 0d 01 3a 87 8b 90 bd 67 01 1e 3d
       -0.0022180942 0.00049229624 -0.07057863 0.038575556
000240 49 2d 07 3c 41 8c 88 3c 46 df 00 bd 39 b2 80 bd
       0.008250543 0.01666844 -0.03146293 -0.06283993
000250 89 69 3b bd 35 f9 92 bc e0 f8 9b ba 12 cb ac bc
       -0.045754943 -0.017941097 -0.0011899732 -0.021092925
000260 e8 c4 d6 bc 58 9f ff 3b 1f 04 13 3d 2e e1 b4 3c
       -0.02621694 0.0078009777 0.035892602 0.02208003
000270 e6 7f 87 3d 11 6b 5e 3d ed 46 88 3d 6b b4 90 bd
       0.066161916 0.054301325 0.06654153 -0.07065662
000280 42 50 44 bb b0 15 d8 3c d3 75 a1 3c 4e ac 68 3d
       -0.0029955064 0.026377529 0.019709503 0.056804948
000290 a8 24 70 3d 28 eb 4c bd de 18 5b 3d f7 ff be bc
       0.058628708 -0.05002895 0.053490512 -0.023315413
0002a0 6e a7 8b 3d da 50 78 bd fe 72 89 3d 1b 5d 5c 3d
       0.06819044 -0.06062398 0.06711386 0.05379973
0002b0 9a 96 21 bd 0e e0 cd 3c 9b 1e 4d bd 57 f1 63 3d
       -0.039450265 0.025131252 -0.050078016 0.05565008
0002c0 d5 ca ed 3c e6 f4 5a bb 41 32 b2 3c 5e 6d 72 3d
       0.029027382 -0.003341013 0.021752479 0.059186332
0002d0 cc 70 8e 3d d8 47 88 3d 42 b5 26 3d 4c 63 0d bd
       0.06955108 0.06654328 0.040700205 -0.034518525
0002e0 eb 86 48 3d 90 2d 23 bc bc 26 04 3c d3 cf 5a bd
       0.048956793 -0.009959593 0.008065876 -0.053420853
0002f0 41 81 5e bd 24 f6 5c bd ec 83 dc ba 0d 78 89 bc
       -0.054322485 -0.053945675 -0.0016823984 -0.016780877
000300 06 74 7e 3d 32 09 38 bd 09 3d 78 3d c6 1c 14 3b
       0.062122367 -0.044930644 0.060605083 0.0022600158
000310 aa 86 05 3d 3b 99 cc bb 4b 4b d3 3c c8 57 54 bd
       0.03259913 -0.0062438524 0.025792738 -0.051841527
000320 95 1a 3e 3d cf 5b 8b bc 09 6c 91 3c 73 06 65 bd
       0.04641207 -0.017011551 0.01775171 -0.055914354
000330 c7 6c b6 3c e1 a9 e8 bb dc d9 1c bc 76 17 98 bc
       0.022268666 -0.0071003293 -0.009573426 -0.018565875
000340 7f e6 41 3d 7c ce 76 bd c1 76 c7 3b 7c a6 77 3d
       0.04733896 -0.060255513 0.0060871546 0.060461506
000350 d5 cf 5c 3c 4d 5c cd 3c 45 b3 31 bb 4e d7 50 bd
       0.013477285 0.025068427 -0.002711491 -0.05098658
000360 a8 f8 cb bc a8 5e 04 bb 0c fb 4a 3d 5b 12 8d bd
       -0.024898842 -0.002019802 0.049555823 -0.06888267
000370 f8 50 c7 3c 65 72 f3 3b be a3 3c bd c9 24 26 bd
       0.024330601 0.0074294084 -0.046054594 -0.040562425
000380 8c 81 73 3d 84 3a 84 bd df 4f 63 bd 89 f2 9f bc
       0.059449717 -0.064564735 -0.055496093 -0.01952483
000390 c8 13 36 3c 53 bb 17 3d 06 6b 53 3d 27 9f d5 bc
       0.011113115 0.03704388 0.051615737 -0.026076866
0003a0 5a 7d 8a 3c e6 b0 90 bd f6 54 4a 3d 35 00 6d bc
       0.016905475 -0.07064991 0.04939743 -0.014465381
0003b0 08 90 45 3d c6 bd 8f 3d f6 25 8e bd 1a a7 8a 3d
       0.048233062 0.07018618 -0.06940834 0.06770153
0003c0 96 74 65 3d a0 cb 1f bb 41 42 fd 3b 83 9b e8 3c
       0.05601939 -0.0024382845 0.0077288453 0.028394466
0003d0 e2 14 7f bd 7b 2a 20 bc ab 62 94 bb f2 d1 0f bd
       -0.062275775 -0.009775753 -0.0045283637 -0.03511233
0003e0 3b fe 6f 3c ae 17 d7 bc 44 5d fc 3c ea f3 7e bd
       0.014648016 -0.026256409 0.030806191 -0.062244333
0003f0 80 63 4b bb 13 ce a6 bc 94 83 12 3d 6b 3c 7b bd
       -0.0031034648 -0.020361936 0.035770014 -0.061336916

layers.1.layers.0.0.bias f4 [64]
000000 c0 da 83 3d 51 f4 d2 bc dd b5 f9 3c 2a 46 19 3d
       0.064382076 -0.025751265 0.030482227 0.03742043
000010 00 76 21 3c 91 ad 09 bd 97 d0 fe bb b7 67 42 bd
       0.009854794 -0.03361279 -0.0077763307 -0.04746219
000020 dc 89 8f bd c4 ef 8c 3d 0b 07 82 3d f4 e7 57 bd
       -0.070087165 0.06881669 0.063489996 -0.052711442
000030 96 c7 92 3a e7 7e 87 bd 7e 28 93 3b 1c 3c c2 bb
       0.0011198397 -0.066160016 0.004490911 -0.0059275758
000040 50 87 fe bc 6e 2e f5 3c 34 de 7c 3d 97 8c e5 3c
       -0.031070381 0.029929366 0.061735347 0.02802114
000050 4c ae 41 3d 1d 70 9e 3c 70 04 60 bd 26 90 3c bd
       0.047285363 0.01934057 -0.054691732 -0.04603591
000060 ee 9b 8c 3d 07 6c c1 3c 1c 22 89 3d 02 76 bf 3c
       0.06865679 0.023611082 0.06695959 0.0233717
000070 fa 2f ce 3c 93 5f 86 bb fb 46 82 bd 9b 1c 3d 3d
       0.025169361 -0.004100749 -0.06361195 0.04616986
000080 47 a4 db ba 94 40 c8 bc 7c 21 6d bd 0d c0 20 3d
       -0.0016757332 -0.024444856 -0.05789326 0.039245654
000090 07 84 70 3d f8 32 75 bd 49 f4 40 bd 7d 53 c1 3c
       0.05871966 -0.05986306 -0.04710797 0.02359938
0000a0 1c 45 fe bc e0 8d 8f ba b2 41 8b 3d 0e 2e 29 bd
       -0.031038813 -0.0010952316 0.0679964 -0.041303687
0000b0 80 2c 84 3d 7e c3 3f 3c 98 16 cb 3b b3 2f 1f bd
       0.064538 0.011704324 0.0061977617 -0.03886385
0000c0 87 cf 7c bb 88 1f 95 3d 0a dd 2a bd 9a 7d 64 bd
       -0.0038575844 0.07281405 -0.041714706 -0.055783845
0000d0 74 69 2c 3d 01 16 9b 3c 4d 0d bc 3c ec 42 22 3d
       0.042092755 0.01893139 0.022955561 0.039614603
0000e0 5d 92 f5 3b 09 bd 1e 3d 4c f2 05 3d f8 37 87 bc
       0.0074942545 0.038754497 0.032701775 -0.01650618
0000f0 52 78 17 3d 79 b6 bd bc 71 a9 60 bd 3a f1 62 bd
       0.03697998 -0.023158299 -0.054849092 -0.055405833

layers.1.layers.0.0.weight_g f4 [64, 1, 1]
000000 25 53 11 3f aa 1c 15 3f c1 65 0a 3f e4 d7 10 3f
       0.56767493 0.5824686 0.54061514 0.5657942
000010 dd 6f 10 3f d8 58 15 3f 8d 1b 17 3f 71 f2 14 3f
       0.5642069 0.5833869 0.59026414 0.58182436
000020 0b 93 17 3f 63 b1 19 3f 96 9f 0e 3f b2 90 10 3f
       0.59208745 0.60036296 0.5571226 0.5647079
000030 cf 1c 12 3f f9 97 13 3f e9 86 18 3f 3f 10 11 3f
       0.5707521 0.57653767 0.59580857 0.56665415
000040 1a cb 18 3f c8 05 13 3f 4c 6c 0f 3f ab 25 16 3f
       0.5968491 0.57430696 0.5602462 0.58651227
000050 d0 05 15 3f 68 be 0f 3f 48 c6 19 3f 7c ab 10 3f
       0.58211994 0.5614991 0.6006818 0.56511664
000060 52 cf 18 3f a7 b1 18 3f 6a bb 0c 3f b4 6c 1a 3f
       0.59691346 0.59646076 0.5497347 0.6032212
000070 82 19 0e 3f d1 3d 10 3f a2 6a 0c 3f 62 55 19 3f
       0.5550767 0.56344324 0.5485021 0.5989591
000080 9a 87 15 3f 40 5c 15 3f b6 51 0c 3f 3c 21 14 3f
       0.58410037 0.5834389 0.5481218 0.5786321
000090 27 16 10 3f de c1 1a 3f c5 24 0f 3f 9f 96 0f 3f
       0.562838 0.6045207 0.5591548 0.56089205
0000a0 35 a8 16 3f a5 33 15 3f 3a c7 0f 3f 84 ac 13 3f
       0.58850414 0.5828193 0.5616337 0.5768511
0000b0 55 cb 14 3f b9 90 16 3f d0 31 19 3f d7 68 0f 3f
       0.5812276 0.5881458 0.5984163 0.5601935
0000c0 2a 36 10 3f 9c 74 15 3f c1 46 13 3f e4 30 11 3f
       0.5633265 0.58381057 0.57529837 0.56715226
0000d0 bc 5d 13 3f d5 b0 15 3f 07 75 1a 3f 3f b7 0e 3f
       0.575649 0.5847295 0.6033482 0.5574836
0000e0 e7 58 18 3f 91 fe 17 3f d8 c2 12 3f a4 e8 0e 3f
       0.59510654 0.5937281 0.5732856 0.5582373
0000f0 0a 0c 0d 3f c1 d4 17 3f b6 1b 0f 3f fc c5 10 3f
       0.55096495 0.5930901 0.5590166 0.565521
