exps/chpts/LSTM_layers2_stride5_average_lr0.0001/best_model.pth (torch, 834003 bytes, 10 tensors)

rnn.weight_ih_l0 f4 [512, 17]
0.012382084 -0.08756983 0.07668219 0.040448986 0.0583282 0.047574732 -0.07694853 -0.06251499
-0.037500788 0.0046325033 -0.06195916 0.058819983 -0.025459172 0.04898738 -0.0036178764 -0.049788907
-0.0817003 0.08528073 0.024349678 -0.009012874 -0.007859512 0.07906673 0.021101795 -0.025422202
0.08017029 -0.02049495 8.5209795e-05 0.046170134 -0.030474335 -0.07877228 0.046361208 -0.019091712
0.04094085 -0.01677365 0.054353498 0.050005917 0.02082749 -0.087453306 -0.024659613 0.057245575
0.061324265 0.021234095 -0.055928357 -0.038024224 0.057791457 0.028988654 0.012709153 0.002432735
-0.040685005 0.049608707 0.07794196 0.04080469 -0.00039455097 -0.0678146 -0.0541258 0.06447442
0.017432144 0.0755948 -0.008378182 0.022549823 -0.050551593 0.018513657 -0.0278793 0.06489469
-0.06665774 0.0822684 0.08227254 -0.033821486 -0.042760238 -0.05858796 -0.07304763 0.06159077
-0.013056086 -0.02315052 0.05122836 0.02348316 0.042981934 0.04390504 0.019705733 0.01292698
-0.08551885 0.016778175 0.0871503 0.04664303 -0.00012801433 0.05318277 -0.050421286 -0.053005245
0.06632451 -0.08652096 0.033409934 -0.066954754 0.03597394 -0.043823868 -0.048966322 -0.04116827
-0.048358925 0.043218076 0.014490926 0.0881527 0.07061843 -0.0811559 -0.021794029 0.05255493
0.07243825 0.016661996 -0.014498015 0.07843021 0.06974208 0.032516442 -0.06302959 -0.04667591
-0.058247298 -0.010654406 0.01678805 0.041204125 0.046310384 -0.087196104 -0.084036544 -0.011440173
0.08197939 -0.06570756 0.087646715 -0.056851257 -0.010619713 -0.08620439 0.052253854 -0.05389422
0.0544072 -0.023354102 -0.058295377 -0.03895004 -0.04454942 -0.08674533 0.060799632 0.0819551
0.056324773 -0.0664545 0.06001939 -0.009887412 -0.023105575 -0.023953857 -0.032386307 -0.0063540894
-0.076705314 -0.019990467 -0.03663295 -0.07673885 -0.0026607742 0.023174755 0.051340368 -0.064182505
0.07128246 -0.06387337 0.0011972839 0.06531202 -0.040844478 -0.08101305 0.08686172 0.087655365
0.00018692625 0.026408268 -0.06312585 0.027702166 0.07468593 0.07333604 -0.06805765 -0.035995066
-0.0872267 0.038897973 0.030637547 -0.055249207 0.036864012 -0.03698079 -0.06491004 0.06523533
-0.05965305 -0.06615037 -0.03688388 0.041812424 -0.023783138 -0.07474672 0.041183934 0.018367982
0.009648762 0.0004094012 0.028662337 0.039811287 -0.012900588 0.021275058 0.0060127894 0.06987318
0.07897016 -0.007613291 -0.072861955 -0.08718745 0.054485083 -0.029440554 0.082446285 -0.08730967
0.028156355 -0.07556349 0.0070653907 0.0022233347 -0.059214845 -0.043476995 0.057378795 0.013782652
-0.06857239 0.05148161 0.08610642 -0.00196752 0.047133453 0.08864914 -0.059743088 -0.014419989
0.054703977 0.08630634 0.032159757 -0.07594728 0.014353257 0.04278887 0.085446976 -0.0010356521
-0.02588798 0.07999617 -0.021256324 0.035706382 0.0037301572 0.049839716 0.011307619 -0.037826315
0.0020228177 -0.04931368 0.02772522 0.08343388 0.043410484 -0.04560797 -0.07096286 -0.064004794
0.0043546343 0.084044784 0.0552545 -0.035951357 -0.015217537 -0.07545534 0.027805228 -0.006772553
-0.025374534 -0.068207055 0.056212008 0.009819863 0.0050333836 -0.037342787 -0.025522163 -0.06649395
00000000: 39de 4a3c d057 b3bd 8d0b 9d3d d6ad 253d
00000010: 8de9 6e3d b9dd 423d 3197 9dbd dc07 80bd
00000020: 6d9a 19bd 41cc 973b e3c8 7dbd 39ed 703d
00000030: c18f d0bc fea6 483d e519 6dbb 74ef 4bbd
00000040: 7d52 a7bd aaa7 ae3d fa78 c73c bcaa 13bc
00000050: 2fc5 00bc bded a13d acdd ac3c 3942 d0bc
00000060: 5230 a43d 06e5 a7bc a9b2 b238 e51c 3d3d
00000070: 50a5 f9bc 5c53 a1bd 40e5 3d3d 3966 9cbc
00000080: 98b1 273d e568 89bc c6a1 5e3d 01d3 4c3d
00000090: 6a9e aa3c b81a b3bd f502 cabc 567a 6a3d
000000a0: 272f 7b3d 20f3 ad3c 2215 65bd 4abf 1bbd
000000b0: bcb6 6c3d 9d79 ed3c 0d3a 503c 856e 1f3b
000000c0: 52a5 26bd 8032 4b3d 09a0 9f3d d222 273d
000000d0: bcdb ceb9 62e2 8abd 04b3 5dbd 2a0b 843d
000000e0: dbcd 8e3c 72d1 9a3d a444 09bc 68ba b83c
000000f0: 300f 4fbd f4a9 973c 2163 e4bc 82e7 843d
00000100: da83 88bd 567c a83d 817e a83d 6688 0abd
00000110: 5c25 2fbd eef9 6fbd ff99 95bd 9a46 7c3d
00000120: 32e9 55bc 29a6 bdbc d4d4 513d c25f c03c
00000130: d30d 303d c5d5 333d eb6d a13c afcb 533c
00000140: 8224 afbd 6272 893c db7b b23d c30c 3f3d
00000150: 963b 06b9 2dd6 593d 8d86 4ebd 071c 59bd
00000160: 25d5 873d e731 b1bd dbd8 083d 931f 89bd
00000170: 6959 133d a880 33bd e990 48bd 0fa0 28bd
00000180: 0214 46bd 7005 313d 596b 6d3c 6789 b43d
00000190: 65a0 903d 1135 a6bd 6489 b2bc d743 573d
000001a0: 815a 943d bd7e 883c 1589 6dbc 05a0 a03d
000001b0: f0d4 8e3d f62f 053d a815 81bd 3d2f 3fbd
000001c0: b894 6ebd d18f 2ebc 1887 893c a8c5 283d
000001d0: f5af 3d3d df93 b2bd 5a1b acbd 906f 3bbc
000001e0: cfe4 a73d af91 86bd 1f80 b33d dddc 68bd
000001f0: 4efe 2dbc ed8b b0bd 2308 563d 30c0 5cbd
00000200: 16da 5e3d 1a51 bfbc 22c7 6ebd 148a 1fbd
00000210: 7479 36bd 89a7 b1bd 0909 793d 13d8 a73d
00000220: ceb4 663d 4c19 88bd e4d6 753d d0fe 21bc
00000230: e747 bdbc e13a c4bc 81a7 04bd f735 d0bb
00000240: ad17 9dbd 0cc3 a3bc 6f0c 16bd 4229 9dbd
00000250: 6260 2ebb fcd8 bd3c 474a 523d 1e72 83bd
00000260: 8afc 913d 0bd0 82bd 2eee 9c3a 4fc2 853d
00000270: 8a4c 27bd 2cea a5bd 8fe4 b13d a884 b33d
00000280: a201 4439 2756 d83c 2048 81bd a7ef e23c
00000290: f0f4 983d 3531 963d cf61 8bbd 906f 13bd
000002a0: e9a3 b2bd 7b53 1f3d 98fb fa3c fe4c 62bd
000002b0: b8fe 163d 2b79 17bd 8eef 84bd 1a9a 853d
000002c0: c256 74bd d879 87bd 8d13 17bd 8143 2b3d
000002d0: dbd4 c2bc cf14 99bd 7cb0 283d 7378 963c
000002e0: d715 1e3c e6a4 d639 47cd ea3c 2911 233d
000002f0: fd5c 53bc 0849 ae3c ef06 c53b ab19 8f3d
00000300: 1bbb a13d ea78 f9bb a638 95bd 558f b2bd
00000310: c02b 5f3d 512d f1bc 99d9 a83d 6acf b2bd
00000320: 28a8 e63c 08c1 9abd cb84 e73b 5eb5 113b
00000330: 448b 72bd ef14 32bd 0706 6b3d a2d0 613c
00000340: ae6f 8cbd 61de 523d 9058 b03d 82f1 00bb
00000350: 020f 413d ae8d b53d 2bb5 74bd d141 6cbc
00000360: 4711 603d 61c1 b03d f3b9 033d 3f8a 9bbd
00000370: ec29 6b3c 6243 2f3d d3fe ae3d b8be 87ba
00000380: 0713 d4bc 08d5 a33d be21 aebc db40 123d
00000390: a775 743b bb24 4c3d 9743 393c c4ef 1abd
000003a0: 4091 043b 24fd 49bd 0020 e33c 62df aa3d
000003b0: 31cf 313d 6ccf 3abd fa54 91bd f214 83bd
000003c0: 52b1 8e3b ac1f ac3d 8b52 623d bb41 13bd
000003d0: fa52 79bc 5488 9abd cac7 e33c 4bec ddbb
000003e0: 41de cfbc 24b0 8bbd 903e 663d 7ee3 203c
000003f0: 15ef a43b c0f4 18bd db13 d1bc fb2d 88bd

rnn.weight_hh_l0 f4 [512, 128]
-0.07111972 0.0769476 0.06056576 -0.04235386 -0.048561305 0.087776594 0.05553247 0.03749512
-0.047264867 -0.048584506 -0.04473829 0.053016476 0.008861934 0.07780339 -0.01773599 0.032447554
0.0028557144 0.005764466 0.009040967 -0.009529019 -0.03852806 -0.053069633 0.085572496 -0.055601906
-0.06624826 -0.081804045 -0.07386301 0.06979622 -0.060409244 -0.035012614 0.07989368 0.04192361
0.001563642 -0.003195581 0.015300281 0.0048637283 -0.06921121 -0.03667676 -0.028068027 -0.08066015
0.07919449 -0.036987126 -0.012034439 -0.085046254 0.05636738 -0.047995277 0.03606598 -0.03423775
-0.08705769 0.031751275 0.062469166 -0.01327458 -0.040902212 -0.0571444 -0.061381478 -0.016887596
0.0031870904 0.071517944 0.016569577 -0.07031963 0.015721379 -0.048086107 0.080585584 -0.04113544
-0.061734274 0.06184684 0.064601146 -0.05441851 0.070242725 -0.032229885 -0.08506228 -0.053880244
-0.006456849 -0.04037271 0.035816386 -0.0037611355 -0.0069978153 -0.045937292 -0.045278285 0.016818976
-0.065489456 -0.013111146 0.0063150367 -0.067484654 0.07376433 -0.046903286 0.008738568 -0.08637287
-0.06042768 0.023616685 0.005084055 -0.009103325 0.044057515 0.04280616 -0.035122354 -0.013860244
0.066860415 -0.05168634 0.0052257753 -0.06372529 0.07220846 -0.021081267 -0.033054747 0.07014021
-0.03738014 0.08123776 0.04142317 0.023035215 -0.027266882 -0.055537768 0.07940802 0.008203972
-0.05634473 0.0441932 0.07551893 0.033617526 0.047876902 0.0073463144 -0.007622615 0.065938234
-0.020087102 -0.08822582 -0.060678396 -0.031592343 0.08338414 -0.015490913 -0.058207404 0.05907954
-0.0085615935 -0.027412655 0.013083683 -0.062334586 -0.022724478 0.029403953 0.018726625 -0.05847387
-0.01835122 -0.07587304 0.019116387 -0.068329625 0.080804214 0.031105326 0.019521806 -0.05402853
0.07136224 -0.07806736 -0.072079286 -0.0065531805 0.054643676 0.07497041 0.07021387 0.019991577
0.083180204 0.029742016 -0.015079547 -0.04264367 -0.04660607 0.010567017 0.021291092 -0.06977835
-0.06304951 0.019788347 -0.054613948 -0.035646636 0.04942284 -0.06434638 0.05789362 0.04385306
-0.041451264 0.047369305 0.016036611 -0.06191816 -0.023637183 -0.0799021 0.035529517 -0.05872644
-0.0751722 -0.083152734 -0.052025247 0.053073872 0.054409355 0.07610101 -0.03865285 0.03488305
-0.016861657 -0.042052757 -0.00073351717 -0.026142625 0.07259988 -0.013506501 0.06354634 -0.016409729
-0.08681738 0.059038833 0.07218023 -0.019512089 0.023872735 0.013874597 -0.011941146 0.029916996
0.058609545 -0.06807328 -0.060342908 -0.05501362 -0.057395495 -0.08792909 0.051766213 0.025162026
-0.06787873 0.068242 -0.07842522 0.008369272 0.053430922 0.041100632 -0.02842812 -0.012805566
0.055689577 0.034470394 0.04578549 -0.07271333 0.041402727 -0.036779303 0.0662056 -0.080669515
0.066115886 -0.0058126473 -0.08380369 -0.0020601372 0.06161944 0.007611593 0.006128764 0.030608283
-0.032964736 -0.052624606 0.0720848 0.04056448 0.038830478 0.050099388 0.07187053 0.0015660496
0.05747726 -0.049648333 0.006032836 0.015419649 0.038842533 -0.017106794 -0.040370144 -0.0047100536
-0.08351282 -0.014188723 0.0017351215 -0.027327845 -0.04534088 -0.0046596653 0.041906312 0.015541702
00000000: 37a7 91bd b496 9d3d cd13 783d 3e7b 2dbd
00000010: 38e8 46bd 37c4 b33d 0476 633d 7c94 193d
00000020: ce98 41bd 8c00 47bd 7f3f 37bd ce27 593d
00000030: a531 113c 6257 9f3d 114b 91bc bae7 043d
00000040: f026 3b3b d8e3 bc3b 9020 143c 9a1f 1cbc
00000050: 99cf 1dbd 8b5f 59bd a240 af3d d3be 63bd
00000060: 2bad 87bd e188 a7bd 7d45 97bd 52f1 8e3d
00000070: af6f 77bd 6369 0fbd 4c9f a33d 17b8 2b3d
00000080: 1ff3 cc3a f46c 51bb 08ae 7a3c e95f 9f3b
00000090: 9bbe 8dbd 5f3a 16bd ebee e5bc 2631 a5bd
000000a0: b930 a23d d07f 17bd 182c 45bc bb2c aebd
000000b0: 7be1 663d b296 44bd ecb9 133d e23c 0cbd
000000c0: 4d4b b2bd a00d 023d abdf 7f3d a07d 59bc
000000d0: 1489 27bd 3f10 6abd 256b 7bbd db57 8abc
000000e0: 81de 503b 0078 923d ecbc 873c bd03 90bd
000000f0: 1fca 803c f0f5 44bd 0e0a a53d a37d 28bd
00000100: 14dd 7cbd 1d53 7d3d 9b4d 843d f2e5 5ebd
00000110: 6bdb 8f3d 7c03 04bd 2235 aebd 88b1 5cbd
00000120: fa93 d3bb db5d 25bd 34b4 123d 627d 76bb
00000130: ee4d e5bb be28 3cbd b975 39bd f3c7 893c
00000140: 561f 86bd 22d0 56bc 5eee ce3b 6535 8abd
00000150: c111 973d a91d 40bd 362c 0f3c 42e4 b0bd
00000160: 0483 77bd c777 c13c 2598 a63b 1d26 15bc
00000170: a775 343d 8355 2f3d 75dc 0fbd 1416 63bc
00000180: 1dee 883d 0eb5 53bd fb3c ab3b 6882 82bd
00000190: 07e2 933d 9fb2 acbc 6a64 07bd aca5 8f3d
000001a0: eb1b 19bd fc5f a63d 58ab 293d 59b4 bc3c
000001b0: cc5e dfbc 927b 63bd aca0 a23d f469 063c
000001c0: bbc9 66bd ee03 353d aba9 9a3d 88b2 093d
000001d0: 921a 443d 5ab9 f03b 21c7 f9bb a00a 873d
000001e0: b58d a4bc bdaf b4bd e989 78bd f966 01bd
000001f0: 4ec5 aa3d 99cd 7dbc e36a 6ebd 63fd 713d
00000200: ed45 0cbc 8190 e0bc f25c 563c 8d52 7fbd
00000210: af28 babc 8fe0 f03c 9468 993c 4c82 6fbd
00000220: 4c55 96bc 5363 9bbd f899 9c3c 67f0 8bbd
00000230: ae7c a53d 99d0 fe3c 32ec 9f3c 054d 5dbd
00000240: 5e26 923d c8e1 9fbd 4e9e 93bd 10bc d6bb
00000250: 0cd2 5f3d 168a 993d 4acc 8f3d 60c5 a33c
00000260: 625a aa3d 87a5 f33c 3410 77bc 21ab 2ebd
00000270: 02e6 3ebd 4821 2d3c a86a ae3c f4e7 8ebd
00000280: 1a20 81bd 2c1b a23c e0b2 5fbd 3502 12bd
00000290: 9b6f 4a3d 09c8 83bd dc21 6d3d 449f 333d
000002a0: cdc8 29bd 5106 423d 365f 833c e69d 7dbd
000002b0: c4a2 c1bc b6a3 a3bd 6687 113d 238b 70bd
000002c0: e2f3 99bd fb4b aabd 6d18 55bd fd63 593d
000002d0: 58dc 5e3d d9da 9b3d 7352 1ebd 87e1 0e3d
000002e0: 7521 8abc 833f 2cbd 8149 40ba 0f29 d6bc
000002f0: 3faf 943d 5f4a 5dbc 9524 823d b26d 86bc
00000300: 4fcd b1bd b4d2 713d 3ad3 933d d1d7 9fbc
00000310: c190 c33c 4752 633c cca4 43bc 7d14 f53c
00000320: 9010 703d 016a 8bbd 202a 77bd f655 61bd
00000330: 8a17 6bbd 2b14 b4bd cf08 543d 9820 ce3c
00000340: 0104 8bbd 76c2 8b3d 679d a0bd 451f 093c
00000350: 62da 5a3d 2359 283d 17e2 e8bc 70ce 51bc
00000360: c11a 643d d430 0d3d 9189 3b3d baea 94bd
00000370: e895 293d e5a5 16bd cd96 873d 0f36 a5bd
00000380: c467 873d 0578 bebb 45a1 abbd 5e03 07bb
00000390: aa64 7c3d ac6a f93b ccd3 c83b 39be fa3c
000003a0: 0806 07bd e68c 57bd 32a1 933d f126 263d
000003b0: b50c 1f3d 0435 4d3d db30 933d e843 cd3a
000003c0: 466d 6b3d 0d5c 4bbd 19af c53b b2a2 7c3c
000003d0: 5919 1f3d 8c23 8cbc 2a5b 25bd cb56 9abb
000003e0: c508 abbd d177 68bc 046d e33a a5de dfbc
000003f0: 5cb7 39bd 1bb0 98bb f4a5 2b3d 9fa2 7e3c

rnn.bias_ih_l0 f4 [512]
0.06767667 -0.03539748 0.041775614 0.04840836 -0.019338507 -0.0827592 -0.063149005 0.06664198
0.04933999 -0.06486509 -0.022922838 0.074923545 -0.039952315 -0.07078628 -0.035761688 -0.082394116
-0.0006450672 -0.02762512 0.022921357 -0.016549997 0.026742162 0.0064387117 -0.0728769 0.016433157
0.07024419 -0.019426744 -0.016305363 0.042490397 0.028230833 0.06977673 0.01591577 0.058989305
-0.050895806 0.034441993 0.07993212 0.06649539 0.06371884 0.08087198 -0.026641361 0.022890666
-0.046325903 0.008735428 -0.015209081 -0.046950202 0.005694892 0.02169345 0.03199306 0.002835064
0.07198867 0.0060104276 -0.006038547 0.03535996 -0.024866315 -0.087266184 0.016434029 -0.008157548
0.0047589 0.03999291 0.084222734 -0.0064804778 -0.070137195 -0.086009085 -0.087517895 -0.06796177
0.048220646 0.0206496 -0.04526573 0.001665101 0.07921003 0.075620875 -0.032024913 0.027173724
-0.07952015 -0.08796845 -0.0086351745 0.00012387166 0.050116144 -0.045361366 -0.030866446 0.002781157
-0.044609595 0.013079277 0.048629653 0.058713697 -0.05819375 -0.006826303 -0.07012372 -0.056863613
0.065898225 -0.061149828 0.028816184 0.03928045 0.04809137 0.027533092 -0.08657073 -0.054235104
0.058229137 0.079634525 -0.05140436 0.049655378 0.022973802 0.013162688 0.08473315 -0.027879853
0.05910898 -0.07845461 -0.028904421 -0.05929148 0.07642054 -0.085283026 0.07570721 0.07499147
0.066432625 -0.057673402 -0.0360244 0.04588018 -0.072960526 -0.022704706 -0.0555622 0.03322585
-0.047961812 0.009015324 -0.023445163 0.020430135 -0.059463076 -0.06155857 -0.016903 0.02485475
-0.0073078396 -0.007865906 0.0011251231 0.030558983 -0.0047134804 -0.0077959034 -0.07538692 0.022035167
0.05342093 0.023362935 -0.06475723 -0.05769246 -0.03458483 0.03648249 0.06866641 -0.062486738
0.019300703 0.025381278 0.08727656 0.05239733 0.042733025 -0.036871634 0.03926408 -0.012220719
0.01074752 -0.044561062 -0.04659281 0.083682254 0.024590623 -0.04431648 0.087571666 0.03692579
0.015180728 -0.053644013 -0.010569706 -0.008645978 0.033706445 0.06960743 0.084146485 -0.056468744
-0.028835274 -0.07149813 0.0015193482 -0.024642918 0.039746616 0.02095298 -0.027150085 -0.008981724
-0.07707471 -0.008242274 0.036386404 -0.04682009 0.02533289 -0.07834654 0.04790006 0.03521278
-0.03762698 0.046276033 -0.080020204 0.06806627 0.037896786 0.06291405 0.0074045137 -0.0373725
-0.07882374 0.0009732221 -0.0046816864 0.030968254 -0.07033663 0.07326888 -0.053548 0.0438403
0.0029671304 0.07332441 0.037487186 0.012943993 -0.0784508 0.078106314 0.061271444 0.03208296
0.029077103 -0.022559015 0.07693399 -0.06410768 -0.059752885 0.02828349 -0.07050439 -0.03071602
-0.07553771 0.07033381 -0.058050185 0.024976071 -0.030964594 0.051766474 -0.021492861 0.042997625
0.07900107 0.07414222 0.058322955 0.08262041 0.062456477 0.076173216 0.027822139 -0.028689936
0.028109724 0.011532662 -0.0007398514 -0.07832871 0.00093577616 -0.019906638 -0.06793912 -0.03998527
-0.08342831 -0.08156016 -0.051664118 0.03692486 0.00036101812 -0.08370808 -0.08687515 0.08680592
-0.006283613 -0.0056187715 -0.06203119 -0.015491142 -0.0819879 -0.0027295072 0.034888014 0.030954964
00000000: 119a 8a3d f3fc 10bd e81c 2b3d d847 463d
00000010: ca6b 9ebc a87d a9bd 4454 81bd 977b 883d
00000020: bb18 4a3d fdd7 84bd adc8 bbbc 8471 993d
00000030: 0aa5 23bd 66f8 90bd d97a 12bd 3fbe a8bd
00000040: ba19 29ba 134e e2bc 92c5 bb3c dc93 87bc
00000050: 6112 db3c d4fb d23b 7c40 95bd d49e 863c
00000060: 30dc 8f3d d624 9fbc d392 85bc 690a 2e3d
00000070: 5944 e73c 1ae7 8e3d ca61 823c c59e 713d
00000080: 1f78 50bd 0c13 0d3d 74b3 a33d bc2e 883d
00000090: 067f 823d 35a0 a53d fc3e dabc 3585 bb3c
000000a0: 3bc0 3dbd 0a1f 0f3c 822f 79bc db4e 40bd
000000b0: 379c ba3b 76b6 b13c 280b 033d 7bcc 393b
000000c0: cc6e 933d 1ff3 c43b 01df c5bb 9bd5 103d
000000d0: 71b4 cbbc 9db8 b2bd a8a0 863c 3ca7 05bc
000000e0: 8cf0 9b3b 9bcf 233d f87c ac3d 305a d4bb
000000f0: 17a4 8fbd 8825 b0bd 953c b3bd 8a2f 8bbd
00000100: 0383 453d 5a29 a93c 8f68 39bd 853f da3a
00000110: de38 a23d 1edf 9a3d 8e2c 03bd 6e9b de3c
00000120: 76db a2bd cd28 b4bd 8c7a 0dbc 8ce3 0139
00000130: 9646 4d3d d7cc 39bd a1db fcbc 1244 363b
00000140: 8db8 36bd 774a 563c e32f 473d c67d 703d
00000150: 925c 6ebd 2eaf dfbb 069d 8fbd d2e9 68bd
00000160: a6f5 863d 3e78 7abd eb0f ec3c 8ae4 203d
00000170: 75fb 443d 148d e13c ff4b b1bd a125 5ebd
00000180: ad81 6e3d 6d17 a33d 618d 52bd 7063 4b3d
00000190: 8e33 bc3c 51a8 573c 9388 ad3d 4a64 e4bc
000001a0: 421c 723d d0ac a0bd f7c8 ecbc 9fdb 72bd
000001b0: 5f82 9c3d dea8 aebd 620c 9b3d 2195 993d
000001c0: d40d 883d f23a 6cbd 528e 13bd dbec 3b3d
000001d0: 546c 95bd 38ff b9bc 3095 63bd d417 083d
000001e0: 9b73 44bd 02b5 133c 1210 c0bc 195d a73c
000001f0: 8e8f 73bd d724 7cbd 2978 8abc 309c cb3c
00000200: 9a76 efbb 00e0 00bc de78 933a d556 fa3c
00000210: 8a73 9abb c774 ffbb 7564 9abd 1883 b43c
00000220: e8cf 5a3d a063 bf3c 709f 84bd ee4e 6cbd
00000230: d3a8 0dbd aa6e 153d faa0 8c3d 18f2 7fbd
00000240: 821c 9e3c 66ec cf3c 0ebe b23d 959e 563d
00000250: d308 2f3d b606 17bd 5fd3 203d 6939 48bc
00000260: 5e16 303c a985 36bd 1ad8 3ebd 9a61 ab3d
00000270: 4672 c93c 3385 35bd c658 b33d 7f3f 173d
00000280: 97b8 783c d3b9 5bbd 8f2c 2dbc dca7 0dbc
00000290: c50f 0a3d 578e 8e3d fe54 ac3d c54b 67bd
000002a0: f437 ecbc 9d6d 92bd de24 c73a f2df c9bc
000002b0: 59cd 223d 95a5 ab3c db69 debc 1528 13bc
000002c0: 58d9 9dbd 9a0a 07bc e909 153d 6cc6 3fbd
000002d0: ec86 cf3c 2774 a0bd da32 443d 473b 103d
000002e0: c01e 1abd f08b 3d3d a2e1 a3bd 5466 8b3d
000002f0: a939 1b3d 15d9 803d 90a1 f23b e813 19bd
00000300: 576e a1bd d41f 7f3a d568 99bb 23b1 fd3c
00000310: a70c 90bd ff0d 963d 2655 5bbd e391 333d
00000320: 3074 423b 1c2b 963d 2a8c 193d 0b13 543c
00000330: d0aa a0bd 34f6 9f3d c4f7 7a3d 6c69 033d
00000340: 1b33 ee3c afcd b8bc 918f 9d3d e34a 83bd
00000350: 71bf 74bd c7b2 e73c 9b64 90bd 2aa0 fbbc
00000360: 84b3 9abd 2c0b 903d 08c6 6dbd 9e9a cc3c
00000370: 76a9 fdbc 1509 543d cc11 b0bc 471e 303d
00000380: 50cb a13d e0d7 973d 0de4 6e3d e434 a93d
00000390: 5dd2 7f3d b400 9c3d 41eb e33c 2807 ebbc
000003a0: 5d46 e63c 7ef3 3c3c 96f2 41ba cd6a a0bd
000003b0: e04e 753a 3f13 a3bc aa23 8bbd 98c7 23bd
000003c0: 76dc aabd 0309 a7bd c19d 53bd 863e 173d
000003d0: 0847 bd39 246f abbd 99eb b1bd 4dc7 b13d
000003e0: c4e6 cdbb ac1d b8bb 6b14 7ebd 8fce 7dbc
000003f0: 46e9 a7bd 88e1 32bb bce6 0e3d 4495 fd3c

rnn.bias_hh_l0 f4 [512]
0.06631414 0.08096166 0.05462432 -0.030665062 0.07892028 -0.08784744 -0.07997109 -0.044791497
0.0073731802 0.066523425 0.06967762 -0.07090423 -0.061147172 0.057105068 -0.035261143 -0.019622298
-0.08178048 -0.043343525 -0.07730431 0.008153023 -0.048989046 -0.08072518 -0.0025358691 -0.085393146
0.047401167 -0.05465734 0.08742924 0.03095034 0.04801831 0.05605069 0.06301419 0.07739444
-0.06944368 -0.0054889508 0.047120202 -0.06015925 0.01533201 0.07824855 -0.074056186 0.038355038
0.014549448 0.042776115 -0.08055155 -0.061028283 0.0025334465 -0.067733765 0.025075726 0.06934582
0.039363652 0.026169242 -0.049687974 -0.06752015 0.018349191 0.053038776 0.058374487 0.06074711
-0.07097133 0.015990537 -0.047292907 0.041395962 0.088266015 0.07183721 -0.014029439 -0.026182864
0.0695553 0.08026214 -0.06772989 0.07948114 -0.01845186 0.056624107 0.041847643 -0.06646751
-0.073082894 0.08569988 -0.0041378173 -0.026791956 0.054487027 0.080851026 0.020923482 0.007241485
-0.009791599 -0.01580535 -0.00090884 -0.038747404 0.07700027 0.073593594 0.048109144 -0.071953475
-0.026733782 -0.05106772 -0.06558795 -0.0456193 0.039739493 -0.05733503 0.07514706 0.04168153
0.0664294 -0.009080992 -0.033079196 0.06949857 -0.03215182 0.019741694 -0.0045429263 0.05177164
-0.034204353 0.08325928 -0.012289357 0.022553299 0.0024488966 0.030926833 0.06917204 -0.08848991
0.042648304 -0.03787958 0.05523588 0.041470047 -0.00822317 -0.004460811 -0.044943586 -0.033036526
0.0077216686 -0.08739152 -0.059548452 -0.032622177 -0.066766985 -0.074670814 -0.024915153 -0.06785577
-0.040916834 0.010451907 0.0603511 0.04508103 -0.012414184 0.032049462 -0.08167926 0.080630936
-0.0011745848 0.01097945 -0.012437479 0.033586517 -0.015136206 -0.030252429 0.08520891 0.044315938
0.058580708 0.07725145 -0.004904803 0.04833642 0.00092002377 0.08345443 0.05816191 0.08690868
0.06127933 -0.0536237 0.012548119 0.0014505549 0.018897157 -0.033256646 0.014696398 0.06999029
-0.01723078 0.03273606 0.010017038 -0.031789266 -0.088712074 0.027939666 -0.08247802 -0.054658853
-0.070611484 0.013515073 0.04510548 -0.033047408 -0.0039895107 0.012195234 0.07506358 0.057582095
-0.014302357 0.010410992 0.042553786 0.009522247 0.036701217 0.04379286 -0.05261395 0.02211017
-0.068869404 -0.07571075 0.024999239 -0.007296159 0.05422874 0.07479263 -0.081010416 0.07157795
0.012893879 0.044284623 -0.021804433 -0.05507877 0.016091324 0.039703563 0.037195764 0.013475331
-0.08489899 0.040113576 -0.061718285 0.0725766 0.0043140855 -0.039791327 0.08923454 -0.07806039
-0.0015091673 -0.08380274 -0.07317087 -0.06239597 0.03650031 -0.048551384 -0.08337911 -0.08153026
0.07052204 0.041765817 -0.02093998 -0.080061436 0.015280764 -0.007431012 0.025185071 0.05113555
-0.046167847 0.015543008 0.010233335 0.061902307 -0.052892115 0.002370297 -0.01039809 -0.089158356
0.008564552 -0.033201154 -0.01103283 -0.048486285 -0.028130883 0.07023039 -0.030022096 -0.03638285
0.08791542 -0.06575033 0.06411189 0.030031348 -0.06665828 0.06693792 0.047034547 -0.041816134
0.013325958 0.0014723777 -0.054386422 -0.05873337 -0.043297064 0.03691833 0.035359807 0.026937734
00000000: b5cf 873d 3acf a53d c0bd 5f3d 4c35 fbbc
00000010: f5a0 a13d 5ce9 b3bd e2c7 a3bd 4a77 37bd
00000020: b89a f13b 6f3d 883d 24b3 8e3d 3d36 91bd
00000030: 7575 7abd 01e7 693d fd6d 10bd f1be a0bc
00000040: 867c a7bd fb88 31bd b951 9ebd 4294 053c
00000050: bda8 48bd 3e53 a5bd d330 26bb 9ae2 aebd
00000060: ba27 423d 60e0 5fbd 1a0e b33d 918b fd3c
00000070: d9ae 443d 6995 653d 950d 813d fa80 9e3d
00000080: 7d38 8ebd a8dc b3bb 1d01 413d 8c69 76bd
00000090: 1c33 7b3c c740 a03d c5aa 97bd 2c1a 1d3d
000000a0: cf60 6e3c 0236 2f3d 36f8 a4bd cbf8 79bd
000000b0: 2e08 263b 00b8 8abd 9c6b cd3c 2e05 8e3d
000000c0: c83b 213d e160 d63c 9e85 4bbd 0148 8abd
000000d0: 0b51 963c 303f 593d 161a 6f3d f6d1 783d
000000e0: 6b59 91bd 96fe 823c 35b6 41bd d08e 293d
000000f0: d0c4 b43d 631f 933d bbdb 65bc 727d d6bc
00000100: 0273 8e3d 7a60 a43d f8b5 8abd 02c7 a23d
00000110: 5b28 97bc aeee 673d 6f68 2b3d 1e20 88bd
00000120: 7cac 95bd 6b83 af3d 8796 87bb ce7a dbbc
00000130: ca2d 5f3d 3995 a53d b967 ab3c fb49 ed3b
00000140: f16c 20bc 397a 81bc 383f 6eba 99b5 1ebd
00000150: 51b2 9d3d 3db8 963d 180e 453d 585c 93bd
00000160: ce00 dbbc 632c 51bd fa52 86bd 4edb 3abd
00000170: e1c5 223d 23d8 6abd b4e6 993d 41ba 2a3d
00000180: 230c 883d 71c8 14bc 0d7e 07bd 4455 8e3d
00000190: a0b1 03bd 55b9 a13c d4dc 94bb 800e 543d
000001a0: dd19 0cbd d783 aa3d 4d59 49bc b2c1 b83c
000001b0: ab7d 203b 455a fd3c 12aa 8d3d 333a b5bd
000001c0: fdaf 2e3d 9e27 1bbd 053f 623d 7fdc 293d
000001d0: 7aba 06bc ff2b 92bb c416 38bd 4f51 07bd
000001e0: 0d06 fd3b 53fa b2bd 14e9 73bd d59e 05bd
000001f0: 21bd 88bd 03ed 98bd dd1a ccbc f7f7 8abd
00000200: 6998 27bd 7a3e 2b3c b732 773d e3a6 383d
00000210: dd64 4bbc 4c46 033d 7547 a7bd d521 a53d
00000220: 87f4 99ba 27e3 333c 91c6 4bbc 0492 093d
00000230: d9fd 77bc f1d3 f7bc 0282 ae3d a184 353d
00000240: 53f2 6f3d 0236 9e3d 78b8 a0bb 69fc 453d
00000250: c02d 713a 28ea aa3d 2f3b 6e3d 2efd b13d
00000260: 0900 7b3d 86a4 5bbd a096 4d3c 8c20 be3a
00000270: 36ce 9a3c 1f38 08bd 29c9 703c 1257 8f3d
00000280: 9127 8dbc 3f16 063d 811e 243c 7635 02bd
00000290: adae b5bd bae1 e43c 3cea a8bd f6e1 5fbd
000002a0: c19c 90bd 536e 5d3c 86c0 383d b85c 07bd
000002b0: 71ba 82bb 85ce 473c efba 993d 34db 6b3d
000002c0: 6f54 6abc de92 2a3c e14c 2e3d 3303 1c3c
000002d0: 0454 163d 2460 333d ba81 57bd 6320 b53c
000002e0: 670b 8dbd 3d0e 9bbd 34cb cc3c 9e14 efbb
000002f0: f51e 5e3d e12c 993d cae8 a5bd 7697 923d
00000300: d940 533c cb63 353d 369f b2bc 479a 61bd
00000310: f4d1 833c 34a0 223d 965a 183d a2c7 5c3c
00000320: 86df adbd 224e 243d 50cc 7cbd 0aa3 943d
00000330: 2c5d 8d3b 3bfc 22bd 99c0 b63d 20de 9fbd
00000340: 40cf c5ba c5a0 abbd 9cda 95bd eb92 7fbd
00000350: 5981 153d d1dd 46bd abc2 aabd 56f9 a6bd
00000360: dc6d 903d a212 2b3d 528a abbc 40f7 a3bd
00000370: 2b5c 7a3c d97f f3bb ec50 ce3c 8373 513d
00000380: 7f1a 3dbd 1aa8 7e3c b8a9 273c 468d 7d3d
00000390: 67a5 58bd fc56 1b3b c05c 2abc a898 b6bd
000003a0: 5652 0c3c effd 07bd 0bc3 34bc 8e99 46bd
000003b0: bd72 e6bc f3d4 8f3d e6f0 f5bc 2f06 15bd
000003c0: 000d b43d 1ca8 86bd 184d 833d 4d04 f63c
000003d0: 2384 88bd c016 893d 4ca7 403d 6547 2bbd
000003e0: 1e55 5a3c ccfc c03a 4cc4 5ebd 6792 70bd
000003f0: 4358 31bd ad37 173d 72d5 103d 86ac dc3c

rnn.weight_ih_l1 f4 [512, 128]
-0.084227234 -0.047317825 0.07393297 0.0008858706 0.03552684 -0.02194417 -0.037592214 0.015713075
0.06493991 -0.047697343 -4.4652807e-06 -0.0006321904 0.061905656 0.009303607 0.032127537 0.043747857
0.006236088 -0.04444978 0.015747163 0.074643515 -0.021758946 -0.0088809645 0.064671546 -0.008867397
0.02302901 -0.013901315 0.04418501 -0.009295596 0.05427726 0.045012332 0.08190662 0.04764255
0.08032578 -0.03956567 -0.08005873 -0.032295734 -0.081801526 0.024099337 -0.071453 -0.08489959
-0.0018413014 0.08677272 -0.05026563 -0.07932081 0.013408573 -0.049191024 0.07873376 -0.042553745
-0.041597527 0.014151748 -0.015590787 0.0066795335 0.010904019 -0.0028365466 -0.0019645793 0.02632761
0.032482207 0.04921077 0.03696192 0.041804668 0.00043338488 0.044040017 -0.0036322975 -0.057076477
0.007990601 0.044218376 0.045075193 0.046785954 0.011294719 0.036468454 0.032683566 -0.07103025
-0.037729073 0.054505732 0.03733305 0.031427473 0.06436111 -0.02600582 0.080851525 -0.024846174
0.006979572 0.050397504 -0.082889415 0.078690946 -0.01834144 -0.01678467 -0.06392532 0.079638794
-0.05797892 -0.03841396 0.056479268 -0.03709871 0.04783131 0.008985917 0.066183805 0.045286458
0.05678672 0.088179745 -0.05177702 -0.057126902 0.020365836 -0.08564856 -0.011890784 -0.07734085
0.0741245 0.0059803664 0.041935127 0.036886193 0.05508016 -0.077272445 0.053476103 -0.012818822
-0.038104277 0.06728085 0.039918795 0.01796589 -0.045515273 -0.031749934 0.03085586 0.03977189
0.08554081 -0.002987903 0.03641782 -0.028157465 0.06667866 0.014126686 -0.054820593 -0.05227737
0.08389428 -0.003113436 -0.0020033568 -0.038916647 0.054661535 -0.086243615 -0.04012189 -0.059320167
0.025481708 0.057608202 0.018616848 0.0036953602 -0.0024468948 -0.01614518 -0.007791334 0.079091184
-0.08271869 -0.027047036 -0.059741072 0.08909275 -0.06469622 0.08380609 0.019094907 -0.045789335
-0.012997376 -0.0481581 -0.05051151 -0.054170877 -0.0671654 -0.051924426 0.0004834328 -0.040205974
-0.04379947 0.06606472 0.0050278227 -0.013049637 0.040574342 0.069080204 0.01017104 -0.048183437
0.016532082 -0.013629228 -0.044587597 0.032950047 0.054559354 -0.0014412819 0.009980246 -0.0100271795
0.024705095 -0.059383888 -0.05547748 0.0302043 -0.04398157 -0.08845079 -0.028991133 -0.021817524
0.049302943 0.056975942 -0.08777837 -0.06818084 -0.042757846 -0.03857087 -0.040034655 -0.024220482
-0.034323644 -0.056604516 -0.0028884043 -0.08316622 0.08411675 0.08533976 -0.012792853 -0.028567886
-0.042661566 -0.06385738 -0.07202207 0.0027737226 -0.007881701 0.0030139438 0.04694919 -0.05701108
0.079924785 0.004839391 -0.047174923 0.009336466 -0.0002072274 -0.033974003 0.0059043253 -0.056194242
0.023340803 -0.050092235 -0.010277685 -0.02289605 -0.024333045 -0.07976138 -0.080153115 -0.014383831
0.041854985 -0.026073989 -0.05719374 -0.0008133584 0.0025735437 -0.004467987 -0.069509186 -0.067103095
0.006002991 -0.051888183 0.015787045 0.08556104 0.024004253 -0.050222404 0.05623864 -0.07635434
-0.01922291 0.04819284 -0.03217837 0.07382384 -0.08548292 -0.024926778 -0.0030264857 0.08235892
-0.02566398 0.06714355 -0.051406734 0.073647365 -0.044957053 -0.017730134 -0.07415105 -0.06163132
00000000: 547f acbd 56d0 41bd 2b6a 973d c539 683a
00000010: 9784 113d 43c4 b3bc 4bfa 19bd b5b8 803c
00000020: 37ff 843d 4a5e 43bd 78d4 95b6 94b9 25ba
00000030: c990 7d3d 286e 183c 2a98 033d f430 333d
00000040: 1958 cc3b f910 36bd 3200 813c b3de 983d
00000050: d13f b2bc 7781 11bc 8472 843d 8f48 11bc
00000060: 56a7 bc3c 57c2 63bc 57fb 343d 8e4c 18bc
00000070: d551 5e3d da5e 383d a8be a73d d624 433d
00000080: d881 a43d 9d0f 22bd d5f5 a3bd 8848 04bd
00000090: 8f87 a7bd f96b c53c f355 92bd d6df adbd
000000a0: d357 f1ba e5b5 b13d 55e3 4dbd f372 a2bd
000000b0: a2af 5b3c 877c 49bd 2a3f a13d d64c 2ebd
000000c0: 2b62 2abd bcdc 673c 8070 7fbc fddf da3b
000000d0: c5a6 323c 5be5 39bb 2cc0 00bb 00ad d73c
000000e0: 100c 053d 3b91 493d 6265 173d 5f3b 2b3d
000000f0: ef37 e339 4e63 343d d70b 6ebb 06c9 69bd
00000100: 02eb 023c 541e 353d c4a0 383d a1a2 3f3d
00000110: 7c0d 393c f25f 153d 34df 053d 4f78 91bd
00000120: cd89 1abd 6741 5f3d 8aea 183d 18ba 003d
00000130: c2cf 833d 280a d5bc 7c95 a53d 348a cbbc
00000140: e5b4 e43b 9d6d 4e3d edc1 a9bd b828 a13d
00000150: ca40 96bc 0180 89bc 47eb 82bd aa19 a33d
00000160: 4e7b 6dbd f557 1dbd ce56 673d d1f4 17bd
00000170: c4ea 433d ab39 133c 608b 873d 4b7e 393d
00000180: 3199 683d 9597 b43d 2414 54bd e6fd 69bd
00000190: 41d6 a63c 8368 afbd 90d1 42bc e164 9ebd
000001a0: 96ce 973d f3f6 c33b 2bc4 2b3d fa15 173d
000001b0: bc9b 613d 0441 9ebd c209 5b3d 0906 52bc
000001c0: 3b13 1cbd 8bca 893d e481 233d 342d 933c
000001d0: 396e 3abd 380c 02bd 6ec5 fc3c d9e7 223d
000001e0: 0530 af3d b2d0 43bb da2a 153d 7caa e6bc
000001f0: d28e 883d 9e73 673c 8f8b 60bd cc20 56bd
00000200: c4d0 ab3d ca0a 4cbb c04a 03bb 1067 1fbd
00000210: c6e4 5f3d 7ea0 b0bd da56 24bd b4f9 72bd
00000220: 04bf d03c 94f6 6b3d 5c82 983c db2d 723b
00000230: 155c 20bb e642 84bc 724e ffbb 8ffa a13d
00000240: 6b68 a9bd bf91 ddbc 0eb3 74bd 4276 b63d
00000250: 747f 84bd 87a2 ab3d ec6c 9c3c 998d 3bbd
00000260: f2f2 54bc 6e41 45bd 28e5 4ebd 48e2 5dbd
00000270: 038e 89bd b5ae 54bd 4175 fd39 05af 24bd
00000280: 1367 33bd f14c 873d 6fc0 a43b 25ce 55bc
00000290: 4831 263d ec79 8d3d 6fa4 263c ff5b 45bd
000002a0: 4a6e 873c 204d 5fbc 7ca1 36bd a1f6 063d
000002b0: a179 5f3d 65e9 bcba 3084 233c 0a49 24bc
000002c0: 5762 ca3c 853c 73bd 5b3c 63bd 026f f73c
000002d0: 0526 34bd b025 b5bd d07e edbc aaba b2bc
000002e0: e2f1 493d 9b5f 693d 25c5 b3bd 65a2 8bbd
000002f0: da22 2fbd 7dfc 1dbd 61fb 23bd 086a c6bc
00000300: f396 0cbd 23da 67bd 624b 3dbb 0d53 aabd
00000310: 6745 ac3d 9dc6 ae3d 1d99 51bc 3307 eabc
00000320: e5bd 2ebd a8c7 82bd 4f80 93bd 58c7 353b
00000330: 4022 01bc 9685 453b cb4d 403d 7384 69bd
00000340: 9baf a33d c193 9e3b 7e3a 41bd faf7 183c
00000350: 2e4b 59b9 5328 0bbd 1279 c13b ef2b 66bd
00000360: 3635 bf3c 842d 4dbd bc63 28bc 7f90 bbbc
00000370: 1856 c7bc ef59 a3bd 5127 a4bd 29aa 6bbc
00000380: 2270 2b3d 1e99 d5bc fc43 6abd 8f37 55ba
00000390: e6a8 283b 3168 92bb d55a 8ebd 596d 89bd
000003a0: bdb4 c43b b488 54bd d553 813c a03a af3d
000003b0: 91a4 c43c 02b6 4dbd 7d5a 663d aa5f 9cbd
000003c0: 5d79 9dbc db65 453d 77cd 03bd f430 973d
000003d0: ab11 afbd 3e33 ccbc 0158 46bb cbab a83d
000003e0: 443d d2bc 8f82 893d de8f 52bd 6ed4 963d
000003f0: e324 38bd c93e 91bc 81dc 97bd 1f71 7cbd

rnn.weight_hh_l1 f4 [512, 128]
-0.025952216 0.046853654 0.031057358 -0.08636117 0.031434257 0.013343566 0.04837847 0.03471092
0.014043332 -0.044667456 0.004918869 -0.025035935 -0.002312692 0.026102966 -0.036888763 -0.04313687
0.05273133 0.015243977 0.010905487 -0.044832543 0.033173885 0.007408056 0.014014001 0.06768308
-0.009736097 0.08430444 0.018197872 0.06348271 -0.012796114 0.04579248 0.01183609 0.036279466
-0.0035810065 0.00472707 0.07008949 -0.00046405735 0.08621634 -0.0003553044 0.031544123 0.06280801
-0.023859564 0.08745998 -0.028244505 0.07466143 0.084557116 -0.07112793 -0.06471818 0.06684342
-0.0007876213 0.056856174 0.065645926 0.039022397 -0.04230464 0.044299018 -0.08101591 0.025807431
0.010379812 -0.03611878 -0.058558766 0.04603005 0.05004401 0.051595844 0.012017915 -0.048726186
0.07207857 0.0759361 0.06582276 -0.022083117 0.081444845 0.08772827 -0.02767908 0.08546742
-0.01350335 0.018748755 -0.078656614 -0.05005359 -0.041261718 -0.013145047 0.0071320995 0.011928949
-0.07586026 0.056827232 -0.06270944 -0.03287554 0.075827256 -0.028942445 0.026269382 -0.06892084
0.0639123 -0.010495932 -0.064177394 -0.015228642 -0.047063753 -0.085038766 -0.0055965036 -0.03040996
-0.07693679 0.036597848 -0.017712016 0.0146778235 0.031735457 -0.024126267 -0.021040753 -0.0045926343
-0.07066738 -0.07440766 -0.085792504 0.04164788 -0.07691848 0.0099148685 -0.07020184 0.060713574
-0.05296819 -0.035202798 0.073897675 -0.06364594 -0.08180557 -0.013745885 -0.07519317 0.010622737
0.085467994 -0.051131796 -0.08512703 -0.054123834 0.021475563 -0.07174261 -0.012572506 0.011901178
0.08501209 0.08315177 0.023574844 -0.07905862 0.07609042 -0.03948093 0.041429516 -0.023798794
-0.021279808 -0.05051617 -0.0020712346 0.04941132 0.08880899 0.070444755 0.029296055 -0.076925345
-0.088200584 0.050734114 -0.016628882 -0.042611368 -0.060466357 0.009058906 0.046588793 -0.030292554
-0.06299885 -0.067440465 -0.036584076 0.007442269 -0.02062281 -0.0142518 0.08497387 -0.03633466
0.061252322 0.0046782456 -0.021357348 0.08723006 -0.040625602 -0.0033289646 0.073440574 0.05946491
0.029205859 0.034778386 -0.020506624 -0.0062105674 -0.06705826 0.07075747 0.00664187 0.08627619
-0.024548268 -0.06974635 0.08085091 0.037041098 -0.078104146 0.04924283 0.057785273 0.036705997
0.017226148 -0.06929734 0.07787268 -0.08141071 0.026193084 0.034979094 -0.026726376 0.029093836
-0.080312856 -0.037345253 -0.010571906 -0.045688543 -0.06839961 -0.04299612 0.049667615 0.06308241
0.026309283 -0.012025617 0.010278607 0.07943395 -0.08514723 0.0026123058 -0.07151579 -0.07633784
0.081808954 -0.08492315 0.033751775 0.08617901 -0.08652692 -0.03679561 0.0810133 -0.06200126
-0.038368925 -0.0018160868 -0.03520126 0.025713041 -0.036315117 0.030875063 -0.023148745 -0.013128391
-0.048052534 0.0049682804 -0.04589934 0.0430023 0.084389515 -0.04429456 0.061691456 0.028413149
0.03331977 -0.021484334 -0.01219878 -0.06280158 0.013373227 -0.009398628 -0.043928348 -0.058164347
0.08862562 0.0019734148 -0.086820096 0.030985273 0.060467485 -0.07790122 0.063938774 -0.002190315
0.006610428 -0.029495472 -0.062150598 -0.048484117 -0.08598506 0.03546024 0.023990665 0.0668777
00000000: be99 d4bc 9ee9 3f3d 006c fe3c 20de b0bd
00000010: 35c1 003d f99e 5a3c 8128 463d 0a2d 0e3d
00000020: 0116 663c 39f5 36bd 772e a13b 2918 cdbc
00000030: 8990 17bb e3d5 d53c ac18 17bd 49b0 30bd
00000040: cffc 573d e0c1 793c eeac 323c 54a2 37bd
00000050: 57e1 073d 47bf f23b fb9a 653c 6d9d 8a3d
00000060: 2784 1fbc cea7 ac3d b413 953c 3903 823d
00000070: cba6 51bc e590 3b3d 29ec 413c c799 143d
00000080: 52af 6abb 8ae5 9a3b 148b 8f3d b94c f3b9
00000090: 3192 b03d 2648 bab9 6934 013d 7ca1 803d
000000a0: 2275 c3bc 381e b33d 0561 e7bc 18e8 983d
000000b0: 482c ad3d 85ab 91bd f78a 84bd 34e5 883d
000000c0: 5f78 4eba 05e2 683d 5f71 863d f3d5 1f3d
000000d0: a147 2dbd e372 353d abeb a5bd 1b6a d33c
000000e0: 1610 2a3c 49f1 13bd 51db 6fbd 018a 3c3d
000000f0: f3fa 4c3d 2a56 533d cae6 443c 1c95 47bd
00000100: ee9d 933d 6384 9b3d 15ce 863d a7e7 b4bc
00000110: 8ecc a63d e1aa b33d 3dbf e2bc 8b09 af3d
00000120: 283d 5dbc fd96 993c b816 a1bd fe04 4dbd
00000130: 0c02 29bd 535e 57bc 63b4 e93b a371 433c
00000140: a05c 9bbd acc3 683d cf6d 80bd 81a8 06bd
00000150: 524b 9b3d b518 edbc e332 d73c 5f26 8dbd
00000160: 74e4 823d 21f7 2bbc 706f 83bd 8e81 79bc
00000170: ecc5 40bd ce28 aebd e062 b7bb 4f1e f9bc
00000180: 0991 9dbd a0e7 153d ca18 91bc 417b 703c
00000190: 0afd 013d 73a4 c5bc a85d acbc cf7d 96bb
000001a0: 0fba 90bd 0b63 98bd fbb3 afbd f896 2a3d
000001b0: 7087 9dbd f971 223c fbc5 8fbd ccae 783d
000001c0: 2cf5 58bd cf30 10bd aa57 973d cd58 82bd
000001d0: ae89 a7bd 6c36 61bc e0fe 99bd fd0a 2e3c
000001e0: d809 af3d 936f 51bd 1557 aebd f4b0 5dbd
000001f0: 85ed af3c caed 92bd eafc 4dbc 29fd 423c
00000200: d21a ae3d 7a4b aa3d 0820 c13c 7ce9 a1bd
00000210: 4bd5 9b3d c1b6 21bd ffb1 293d b0f5 c2bc
00000220: fe52 aebc 0bea 4ebd 8dbd 07bb 8663 4a3d
00000230: 7de1 b53d 5745 903d 48fe ef3c 098b 9dbd
00000240: 82a2 b4bd 93ce 4f3d 4b39 88bc 4289 2ebd
00000250: 92ab 77bd ce6b 143c e4d3 3e3d 1728 f8bc
00000260: 8b05 81bd 3a1e 8abd 2fd9 15bd 47de f33b
00000270: 2bf1 a8bc 6280 69bc c806 ae3d a7d3 14bd
00000280: b7e3 7a3d f84b 993b 9bf5 aebc aca5 b23d
00000290: 0867 26bd c22a 5abb 0368 963d 7a91 733d
000002a0: 2041 ef3c c873 0e3d 82fd a7bc 0482 cbbb
000002b0: d755 89bd 4be9 903d 0ba4 d93b 92b1 b03d
000002c0: 7319 c9bc 2dd7 8ebd 2995 a53d 68b8 173d
000002d0: 11f5 9fbd dab2 493d 40b0 6c3d 0759 163d
000002e0: da1d 8d3c c4eb 8dbd b67b 9f3d a9ba a6bd
000002f0: e192 d63c 3d46 0f3d 46f1 dabc 3256 ee3c
00000300: 117b a4bd 56f7 18bd ca35 2dbc e923 3bbd
00000310: 1815 8cbd b31c 30bd 4570 4b3d 5a31 813d
00000320: 9186 d73c 1807 45bc 9a67 283c 44ae a23d
00000330: ac61 aebd 3833 2b3b df76 92bd 0357 9cbd
00000340: 748b a73d 30ec adbd 4d3f 0a3d 9f7e b03d
00000350: 0735 b1bd feb6 16bd 4dea a53d 09f5 7dbd
00000360: bc28 1dbd c309 eeba 322f 10bd 28a4 d23c
00000370: 29bf 14bd b3ed fc3c 70a2 bdbc 7618 57bc
00000380: bcd2 44bd f5cc a23b f200 3cbd 2e23 303d
00000390: 69d4 ac3d 366e 35bd 2eb0 7c3d b1c2 e83c
000003a0: 507a 083d eaff afbc 64dd 47bc 1d9e 80bd
000003b0: 611b 5b3c b4fc 19bc 36ee 33bd bd3d 6ebd
000003c0: 5981 b53d 6854 013b bcce b1bd d4d4 fd3c
000003d0: c1ac 773d ad8a 9fbd 55f2 823d 638b 0fbb
000003e0: 4a9c d83b 7da0 f1bc a091 7ebd 4897 46bd
000003f0: ef18 b0bd c23e 113d 1288 c43c 2df7 883d

rnn.bias_ih_l1 f4 [512]
0.046144996 -0.046551812 -0.085797764 0.047861915 -0.061981037 0.0029937013 -0.011460934 -0.023686334
-0.07090057 0.03581173 0.035100803 -0.07338433 -0.024474531 0.08156753 0.088148415 -0.07676096
0.02823657 -0.015324678 -0.036288798 0.059310943 0.06233297 0.020915706 -0.07644112 0.024413165
0.045027334 -0.03426554 -0.08401176 -0.067218736 0.07133174 -0.07287521 0.05314706 0.057561148
0.04490272 0.009515894 0.08337183 -0.0014687646 -0.05244714 0.012449841 0.06733471 0.03579511
0.016886488 -0.058376215 0.08423461 -0.08427203 -0.04719211 -0.026461402 0.03706785 -0.08050316
-0.03251382 -0.00265266 -0.07114315 0.05509722 -0.0026039772 0.033646736 0.08674085 0.021026189
-0.00062092545 0.05061414 0.046932835 -0.053632405 0.05346159 -0.06572401 -0.02496757 0.05846569
-0.014876462 -0.083176896 0.015334733 -0.05603829 0.051033795 0.04233263 0.029767066 0.0009714635
0.018831793 0.05992089 -0.02677857 0.04638223 0.0797206 0.06648549 0.064774685 0.08348209
-0.010204061 -0.01444035 -0.08587982 0.07176279 -0.008090979 0.042298056 0.06556488 0.065876864
0.038454764 0.026968233 0.017244501 -0.00021869104 -0.08310146 -0.08603062 -0.06262998 0.083393015
0.005914723 0.08508393 0.020257112 -0.018022357 -0.07228077 -0.047754064 0.01991877 -0.01863811
0.017879676 -0.033981066 0.020073587 0.08459424 -0.007636067 0.049341206 -0.0056270245 -0.01017369
0.041715156 -0.027761804 -0.07611825 -0.025944036 -0.040519558 0.0060221446 -0.0067452383 -0.05956957
-0.023910314 0.0339561 0.061297297 -0.043487947 -0.07516956 -0.004463023 -0.02372521 0.046473157
-0.006063806 -0.07999775 0.07806935 0.04341332 -0.046872884 0.015540123 0.06055708 0.07002303
-0.008558333 -0.0702038 0.012059707 -0.026771858 -0.05047619 -0.032542888 -0.06397791 0.07029264
0.08226082 0.038950827 0.052684605 -0.036176894 -0.019424919 -0.050406907 0.08522408 0.04387711
0.04536666 -0.0037102576 -0.06886079 0.0785519 -0.07927899 0.0015681401 0.05773901 0.0140371835
-0.04503013 -0.053968538 0.009491109 -0.0030115373 0.02323323 -0.0004098512 0.025445718 -0.023596415
0.046614725 -0.021811752 -0.016443986 0.034908824 -0.023910552 -0.05491487 -0.06870942 0.005613042
0.059679076 -0.08287068 0.008709119 -5.244968e-05 0.03351343 0.05730505 0.0065270984 -0.06522307
0.020774974 0.002164364 -0.074205905 -0.00015083866 0.01946499 0.048958343 0.013725311 0.008960746
0.036304425 0.015123847 -0.021924155 0.041038677 -0.009676247 0.06832527 0.040464066 0.02228767
0.013928258 -0.08286397 -0.031151732 -0.0761173 0.011665445 0.0047508157 -0.0070302915 0.030837702
0.05899696 -0.011693492 -0.06700598 0.08725 0.077168666 0.037404735 0.0064817145 -1.2179298e-05
-0.06720949 0.073566586 -0.04125982 -0.008547524 -0.045708373 -0.011061656 -0.08640042 0.029919108
0.050523303 -0.06889053 -0.0010216472 0.06292867 0.06991813 -0.06008011 -0.005539175 0.044162605
0.037607674 -0.07633375 -0.08400515 -0.016712315 -0.06115251 0.027739743 0.0034935772 -0.08638045
-0.0134582855 -0.009408593 0.06473186 0.033213746 0.075655006 0.005504694 -0.073708676 0.012411973
-0.039324522 -0.027759114 -0.073930174 -0.04231758 0.06843308 -0.06620341 0.065859646 -0.02179851
00000000: 8902 3d3d 1dad 3ebd bdb6 afbd db0a 443d
00000010: d4df 7dbd f931 443b a4c6 3bbc d809 c2bc
00000020: 5134 91bd 52af 123d dcc5 0f3d 864a 96bd
00000030: d07e c8bc e10c a73d 2887 b43d da34 9dbd
00000040: 6150 e73c 5c14 7bbc 90a3 14bd 08f0 723d
00000050: db50 7f3d 6a57 ab3c 298d 9cbd 1efe c73c
00000060: 956e 383d 065a 0cbd 5c0e acbd faa9 89bd
00000070: 6016 923d 993f 95bd bbb0 593d 3dc5 6b3d
00000080: eaeb 373d 8de8 1b3c dabe aa3d 9083 c0ba
00000090: d0d2 56bd 6bfa 4b3c c8e6 893d e59d 123d
000000a0: 8855 8a3c e61b 6fbd 3283 ac3d d096 acbd
000000b0: 844c 41bd 95c5 d8bc 75d4 173d d7de a4bd
000000c0: 362d 05bd 40d8 2dbb 80b3 91bd 9fad 613d
000000d0: 7da7 2abb 29d1 093d 30a5 b13d 1d3f ac3c
000000e0: 9ac5 22ba c650 4f3d a53c 403d a7ad 5bbd
000000f0: 8afa 5a3d 4f9a 86bd ca88 ccbc b879 6f3d
00000100: 67bc 73bc a658 aabd 883e 7b3c 6888 65bd
00000110: d008 513d fb64 2d3d 10da f33c d0a9 7e3a
00000120: 2245 9a3c 9b6f 753d bb5e dbbc 4bfb 3d3d
00000130: 8e44 a33d 8b29 883d 97a8 843d a8f8 aa3d
00000140: ef2e 27bc 3897 6cbc c2e1 afbd 5ff8 923d
00000150: 0790 04bc ba40 2d3d e146 863d 73ea 863d
00000160: be82 1d3d 7cec dc3c 5744 8d3c 6e50 65b9
00000170: 1931 aabd d230 b0bd 2644 80bd f5c9 aa3d
00000180: 4bd0 c13b 7c40 ae3d 3ef2 a53c 9fa3 93bc
00000190: f107 94bd c499 43bd b02c a33c f3ae 98bc
000001a0: 6678 923c bb2f 0bbd 5d71 a43c bf3f ad3d
000001b0: f937 fabb 011a 4a3d e762 b8bb 8caf 26bc
000001c0: 83dd 2a3d b96c e3bc e3e3 9bbd 9688 d4bc
000001d0: d6f7 25bd 6955 c53b 2907 ddbb 39ff 73bd
000001e0: 90df c3bc 8d15 0b3d e012 7b3d 6b20 32bd
000001f0: 80f2 99bd 8d3e 92bb 5f5b c2bc a35a 3e3d
00000200: e4b2 c6bb dcd5 a3bd d3e2 9f3d 2ad2 313d
00000210: c8fd 3fbd 009c 7e3c b30a 783d 3c68 8f3d
00000220: 4038 0cbc 03c7 8fbd 1496 453c a850 dbbc
00000230: 1fc0 4ebd b14b 05bd da06 83bd 96f5 8f3d
00000240: 5c78 a83d e78a 1f3d d0cb 573d 392e 14bd
00000250: 0221 9fbc 7977 4ebd f689 ae3d 7cb8 333d
00000260: 64d2 393d cb27 73bb e306 8dbd d2df a03d
00000270: 065d a2bd 0d8a cd3a bd7f 6c3d 37fc 653c
00000280: 8371 38bd 1d0e 5dbd 9980 1b3c 365d 45bb
00000290: 9d53 be3c 4ce1 d6b9 8a73 d03c 454d c1bc
000002a0: 15ef 3e3d 8fae b2bc 8ab5 86bc 8efc 0e3d
000002b0: 10e0 c3bc 6aee 60bd 86b7 8cbd 9ced b73b
000002c0: 0c72 743d 1ab8 a9bd b1b0 0e3c 6afd 5bb8
000002d0: 6145 093d b3b8 6a3d 45e1 d53b ac93 85bd
000002e0: 4730 aa3c 01d8 0d3b 44f9 97bd 722a 1eb9
000002f0: 0b75 9f3c 8b88 483d 20e0 603c 18d0 123c
00000300: f3b3 143d 03ca 773c 499a b3bc 2c18 283d
00000310: 1f89 1ebc 1fee 8b3d a6bd 253d a294 b63c
00000320: 5933 643c 96b4 a9bd eb31 ffbc 63e3 9bbd
00000330: 6c20 3f3c bbac 9b3b 5c5e e6bb 599f fc3c
00000340: cca6 713d 0f96 3fbc 6e3a 89bd 21b0 b23d
00000350: 9b0a 9e3d b535 193d 9064 d43b b055 4cb7
00000360: 21a5 89bd 14aa 963d 0f00 29bd ea0a 0cbc
00000370: b438 3bbd f33b 35bc b4f2 b0bd eb18 f53c
00000380: 86f1 4e3d 7a16 8dbd cbe8 85ba bfe0 803d
00000390: 3d31 8f3d 9016 76bd f881 b5bb d9e3 343d
000003a0: 810a 1a3d de54 9cbd e40a acbd 44e8 88bc
000003b0: 0e7b 7abd 753e e33c 80f4 643b 3ce8 b0bd
000003c0: 2480 5cbc 8026 1abc 2392 843d 230b 083d
000003d0: 03f1 9a3d b860 b43b 93f4 96bd 975b 4b3c
000003e0: c012 21bd 1567 e3bc b468 97bd 3355 2dbd
000003f0: a526 8c3d a795 87bd 6ce1 863d ca92 b2bc
